checkpoint_actor_agent_1_episode_7950.pth (torch_old, 300937 bytes, 14 tensors)

fc1.weight f4 [256, 24]
00000000: 5122 07bd c6b3 30be f920 1fbd 1874 823c
00000010: ec21 04bd 0110 cebc 375a 123d 11b3 d23c
00000020: bff3 943c 9f1e 63bd f5b4 7d3c 1368 7cbc
00000030: c94c 703c 92f1 02bd 3dba 86bc 8e60 85bb
00000040: 3097 313d 71d2 7ebd 42d1 1c3d 5b49 c93d
00000050: 7d0d 2e3d 6136 0ebd 5c4c 46bd 4f7e 633d
00000060: 6415 8abc 4a92 0a3d 4766 f9bc 4ed5 4e3c
00000070: edc9 00bd b37c c03d 7973 0b3d 3ac4 3bbc
00000080: e89e 8c3a 2146 063e 20ab cc3c 6b90 cebc
00000090: e43a 083d ff1c de3d e99e a1bc 7b75 e1b9
000000a0: 5217 d239 0406 de3d aa04 9a3c f0ae 67bc
000000b0: 18ef 4e3d 29e7 e13d cf4b 84bc 4515 143d
000000c0: d196 e93c 84d7 87bd 49a7 403d d9fb 8dbc
000000d0: 3e89 993c 0481 8d3d f137 6a3d 5ed6 4bbd
000000e0: 4a7f fbbc 49d5 81bd 69ed d4bb ae80 c239
000000f0: 106d 21bd 82d0 a43c f8d4 9bbc ea10 eabc
00000100: c999 4fbd cc87 fc3c 5028 153c 6f59 013c
00000110: efd5 3d39 70cb ac3c d04a a0bd 1436 183d
00000120: 80c2 473c c734 80bd ef0c d4bc 891e e6ba
00000130: d10f 1c3d e471 95bd 9b04 a93c 0e8a 423d
00000140: 7f12 493d 3f55 47bd 9fe3 253d a7a7 373d
00000150: 026a 7c3d 4ca3 0a3c 668f 71bc d67f 66bc
00000160: 35e8 823c e49f fd3c 3833 57bd fcb1 803d
00000170: ded3 813d 37ff 3d3d f466 d63c fba1 b73a
00000180: 4f45 ea3d e498 f2bc 2361 d63c 0ccc 7ebd
00000190: 2724 ea3b c016 8a3c 7fc1 583c 0adc d5bb
000001a0: 557f fb3c d4d7 203c 3e9c c8bc 7000 16bc
000001b0: f110 a4bc a85d 7dbd ca0f 0d3d 17ca f4bc
000001c0: 0c06 fd3d 3f6b 803d 8c58 00bd bcc4 ef3c
000001d0: 97e8 d6bc dfdd c0bc 0f51 8c3d b543 afbb
000001e0: a452 e13c b2d5 e2bd fa9f 93bc caee 19bb
000001f0: dbf8 84bc a1e8 58bd 91cc c03c ef94 183d
00000200: ba9c 303d 23a5 ebbc 3b0a 4d3d 5f9c c43c
00000210: 47a5 0ebd 01cc 36bd f353 57bd df9f babd
00000220: 6148 c83d 4508 bcbd 46a7 4d3c 13e5 29bb
00000230: 197f 153d ae70 a0bc 5922 583d 95c5 cc3b
00000240: 6e9f 8fbd daac 38bd 3fff 21bd 6d7f c1bd
00000250: 7674 cc3c 4fb5 7dbd 9b7a 643d 73b7 7dbd
00000260: c110 9e3c 09ab 9bbd 1f31 123c f1db 5b3d
00000270: 386e da3d d67c b8bd 56e7 2f3c ae23 243c
00000280: e47a 8fbd df55 10be 09bd 123a 26ff 9dbc
00000290: f2d7 813d 55fd 81bd 6cff b1bc 8e24 553c
000002a0: ed1b 33bd d715 d5b9 ff33 093d 368d cd3c
000002b0: 4812 aabd 4a8f 913c 7396 0abd b40b 74bc
000002c0: 87e2 173c 01f2 90bd b4b7 fabc 3fcb 60bb
000002d0: 29d5 ebbb 65bb 9a3b e34f 013d 70b1 233c
000002e0: 6661 60bc a230 bcbd 65c1 74bb c58e 66bd
000002f0: 6a18 a23d b33a fa3d d6c9 8abb 8745 763d
00000300: 1da6 0ebd 04b8 123d cb5a 4b3c b795 453b
00000310: cf09 bcbc 6490 b53d 2318 32bc 93d2 c8bc
00000320: 79b9 43bd 56f4 6bbc 63fc b13c b20f 693d
00000330: 7236 93bd 2709 6ebc 9734 93bc 2663 513d
00000340: 3e31 5e3c a88e 923d f92d 63bd 45ce 0bbc
00000350: e70d cabd 9552 f83d 8159 503d 3455 503c
00000360: 6370 ba3d fbe6 d2bc dc83 2dbd 5ec1 5ebc
00000370: 38f6 f03c 2614 0eba d64e 063d 4ef0 433d
00000380: 3a3c c63d 83ee 743c b1fd 6d3c be12 63bd
00000390: 46bd 1bbd d0e1 4e3b d061 3bbd 23c9 1f3d
000003a0: 309b 643d af49 bfbc 5de5 c43c 89fc 37bb
000003b0: 092f ebbc 9624 64bd 4e75 d7bc 290d 13bd
000003c0: f08b a8bc c250 06bd 4151 debc a396 68bd
000003d0: 1000 d23c fad9 7ebc 11ae eb3c af63 243c
000003e0: b4d0 443b e7c9 913a f118 44bc 7101 6dbd
000003f0: 7f50 6a3d 6744 80bd 0c3a 0bbc 3696 a7bd
-0.03299171 -0.17256078 -0.038849805 0.015924498 -0.032258913 -0.025154116 0.035730567 0.025720151
0.018182633 -0.055449124 0.015485038 -0.015405673 0.0146667445 -0.03196866 -0.016446227 -0.004070348
0.043357074 -0.06221241 0.0382855 0.098284446 0.042493332 -0.03471983 -0.048412666 0.05554038
-0.016855903 0.03383092 -0.030444277 0.012624098 -0.03144257 0.093987845 0.03404567 -0.011460358
0.001072851 0.1311269 0.024983943 -0.025215348 0.033259287 0.10845374 -0.019729095 -0.00043002874
0.00040071696 0.10840991 0.018801052 -0.014140829 0.050520986 0.110304184 -0.01614943 0.036153097
0.028514298 -0.06632903 0.047034536 -0.017332004 0.0187422 0.069093734 0.057182256 -0.049764983
-0.030700345 -0.06339509 -0.006498028 0.00037098437 -0.03941065 0.020118956 -0.01902245 -0.028572518
-0.05068377 0.030826472 0.0091038495 0.007894858 0.00018104141 0.0210931 -0.07826769 0.037160948
0.0121923685 -0.062600665 -0.025885073 -0.0017556708 0.03810102 -0.072971135 0.020632079 0.04749494
0.049089905 -0.04866528 0.04050028 0.04483762 0.061624534 0.008461785 -0.0147436615 -0.014068564
0.015979866 0.03096003 -0.05253908 0.06283948 0.063392386 0.04638597 0.026172139 0.0014010066
0.11439001 -0.02961392 0.026169365 -0.062206313 0.007145423 0.016856551 0.013229727 -0.006526475
0.030700365 0.009817082 -0.024488565 -0.009155378 -0.02002761 -0.061856896 0.034438886 -0.02988152
0.12354669 0.062704556 -0.031334445 0.029268615 -0.026233954 -0.023543296 0.06851398 -0.0053486475
0.027505226 -0.110759154 -0.018020619 -0.0023488277 -0.016231945 -0.052956227 0.023535045 0.03725141
0.043118216 -0.028765267 0.050058585 0.024000345 -0.03482559 -0.044628147 -0.052570295 -0.09112524
0.0977943 -0.09181265 0.012552088 -0.0025923892 0.036498163 -0.01958498 0.05276713 0.0062491396
-0.07012831 -0.04508672 -0.039550062 -0.09448133 0.024957877 -0.061940487 0.05578099 -0.06194253
0.019295098 -0.07600982 0.008922844 0.05367655 0.10665554 -0.090081856 0.010736307 0.010018272
-0.070058614 -0.14095257 0.00055976264 -0.019286703 0.063400164 -0.063471474 -0.02172824 0.013009204
-0.043727804 -0.00040642798 0.033496853 0.025091749 -0.08304268 0.01776852 -0.033834886 -0.014895368
0.009270317 -0.070774086 -0.030605175 -0.0034300832 -0.0071970415 0.004722046 0.031570327 0.009991035
-0.013695097 -0.091889635 -0.0037346717 -0.0562885 0.07914813 0.12218227 -0.0042354865 0.0601249
-0.034826387 0.035820022 0.012411783 0.0030149051 -0.022953896 0.08865431 -0.010870012 -0.024514472
-0.047784302 -0.014401516 0.021726793 0.056899734 -0.07188119 -0.014528549 -0.017969413 0.051119946
0.013561545 0.07156116 -0.055463765 -0.008533065 -0.09865933 0.12125126 0.050866608 0.0127156265
0.09103467 -0.025744906 -0.04236208 -0.013595907 0.029414281 -0.00054198725 0.032790028 0.047836594
0.09679456 0.014949444 0.014525817 -0.055437796 -0.038022302 0.00315677 -0.04574758 0.03901018
0.05581206 -0.023350565 0.02403515 -0.0028074107 -0.028708952 -0.055698954 -0.026301052 -0.035901222
-0.02057454 -0.03279186 -0.027138354 -0.056784283 0.025634795 -0.015554899 0.028769525 0.010033532
0.0030031623 0.0011122794 -0.011968837 -0.057862703 0.057205673 -0.06263047 -0.008497726 -0.08182947

fc1.bias f4 [256]
00000000: d258 fe3d dc41 3c3e c47b 82bd 8eeb 0d3e
00000010: 78a6 31be ee11 d63d 464c b73d 1f1e f73d
00000020: b8e8 063e bebe 153e 8760 143e d68a 2ebe
00000030: 7c05 2f3d ed05 38be dc2a 873d 6fa9 a9bd
00000040: fa3d c4bd b751 feba 4d6a e33c 8675 02be
00000050: 642e 3fbe a5c6 343e b92d 533d 75d7 493e
00000060: c1d2 673d 659d 033e 5db1 38be 5853 233a
00000070: 6e58 453e f394 63bb abb2 a8bd 11f8 153d
00000080: 866f 15be 907b 06be f59b e8bd e0c2 333d
00000090: 718c 2fbe be8c db3d ed30 ccbd d3c3 32be
000000a0: d181 0bbe f6c9 643c f422 d43d 6151 05bd
000000b0: e3f7 48be be59 65ba 8f9c 413e c221 e4bd
000000c0: 1225 f63c 2ccb 653d 64c5 f7bd 8a56 1dbe
000000d0: 2c81 c93d 11b8 d6bd 8d10 863c 5b61 343e
000000e0: c408 ad3d 44ae ea3d d097 193e 4d1b c8bd
000000f0: 3ef4 823d 3681 223e 3afe 17be 67fb 713d
00000100: 957e 97bd 4a49 31be 8d9e 29be 1d24 ef3c
00000110: e9d4 10be cf98 e23d cd74 bcbc ceb9 3abd
00000120: a4b8 21be 862a b83d 6529 efbd 7650 163e
00000130: bf1a e0bb 79a0 16be 6454 1f3e 26b4 1f3e
00000140: c9cb 35be 065d f1bd 76e8 b6bd e51e 11be
00000150: a577 ad3c 8fbf 18be 24ae db3d be0a 2cbe
00000160: ff1b 3bbe 5e5a ae3b 06bb 6fbb 50ac 333d
00000170: 9f2e 2cbe 3ebb 393e bd40 29be 06b3 1e3e
00000180: 2455 3e3e 70c0 593d d38a 3d3d 5061 e4bd
00000190: 6442 813d d8c9 2c3e afff 32be 4dde 323e
000001a0: b834 c0bd 59e6 413d f4e3 cc3d 44ea 223c
000001b0: 3501 f8bd 1310 f8bd 155a 273c 81f5 e5bd
000001c0: 481f 1fbe cd9b 44be bedd 4d3e c08e 3ebe
000001d0: f234 11be 4344 ab3d dae2 063e 1db8 483e
000001e0: f185 a73d be42 3a3e 4edd e9bd e8ee 913d
000001f0: 4a09 f43c 8b85 3dbe 3739 393e 8901 8c3d
00000200: 317f d03d 1182 e53d 3b3d 853d 1f6a d9bd
00000210: 9adf fe3d 51c6 7a3c b77d cebd a6f1 ed3d
00000220: ebe0 edbb 7006 153d 5a22 0a3e 2cb8 1f3e
00000230: f16d 81bc 4b69 d93b ca23 5e3c d15e c93d
00000240: 9205 9e3d 41ca 033e 2e62 7cbd 8754 c3bd
00000250: 2966 42bd d456 f33d 9677 293e 1d4c b2bd
00000260: 7f4d d63d 0bd9 493e dc35 143e ae66 8f3c
00000270: d99a 1cbd 7178 4c3e cf01 8d3d d171 9cbd
00000280: 9504 393d f4a6 e9bd 0509 e1bd da50 313e
00000290: b71f df3d 01ac 11be 62fc 10bd 8eb6 aabc
000002a0: 5a90 cfbd 2cad e6bd 4f4d f83d bc07 083e
000002b0: 7da6 93bd 1e4b 49be 66bf 1a3e 0a5e 01be
000002c0: 2836 76bc 817d d5bd 3078 a5bd 70ef 083e
000002d0: 301f 2a3e 8013 cabd 9556 1c3e bb92 fabd
000002e0: cd1e 2cbe 6b72 5f3d f15c 5abc 449c d73d
000002f0: 3359 163e b331 9bbd 91da 273d 3c8b 943d
00000300: 11dc fe3b 27cb 00bd f690 663d c0b1 2fbe
00000310: dc84 79bc 1d0e 01be a74f 45be ff12 2e3e
00000320: ae5f 09be d324 acbd 16c0 2f3e 7037 febd
00000330: f1e4 f2bc 0df7 2d3e 762a b83d ebde dc3d
00000340: e948 863d 976f a7bc ff4e 213e 940d 313e
00000350: b308 a6bc 13d8 8bbd 729d b2bd 96f1 b33c
00000360: 4440 21be 2201 37be 6c3c 4dbe 1908 be3d
00000370: b7a0 1e3d 6ab1 b53d 4db0 2cbc a2d9 f8bd
00000380: a68c cb3c d281 c4bc 6cce 79bd 999e 023e
00000390: b412 a3bd 078b c03c d63b cdbd 4272 babb
000003a0: f917 213c 36d3 f8bd f2ba bb3d a1c1 1bbd
000003b0: 1699 13be 93c8 0a3e db94 c2bd c032 403e
000003c0: 8395 2fbd aa3f 3b3e cc82 10be 03ee 83bd
000003d0: 4625 463e b7bc f8bc bece b3bd 8d76 983d
000003e0: c293 11be dc8f ff3d 2150 90bd f374 323e
000003f0: 8634 113e 2f10 323e 7796 17bd 059b 09bd
0.12419285 0.18384498 -0.06371263 0.13859388 -0.17348659 0.104526386 0.08950095 0.12066292
0.13174713 0.14623544 0.14489947 -0.17045149 0.04272984 -0.1797101 0.06599972 -0.0828427
-0.095821336 -0.0019403015 0.02776065 -0.12740144 -0.1867004 0.17653902 0.051557276 0.19711097
0.056597475 0.1285301 -0.18036409 0.0006230376 0.19272014 -0.0034726232 -0.08237203 0.036613528
-0.14593324 -0.13133073 -0.113578714 0.04388702 -0.17143418 0.10720204 -0.09970269 -0.17457514
-0.1362374 0.013964167 0.10358229 -0.032548312 -0.19625811 -0.00087490294 0.18907379 -0.11139251
0.030046973 0.056101963 -0.12098196 -0.15365043 0.09839091 -0.10484327 0.016365314 0.17615263
0.084489375 0.1145902 0.14999318 -0.09770832 0.06394242 0.15869603 -0.14843073 0.059077647
-0.073971905 -0.17313114 -0.16564389 0.029192025 -0.14143719 0.11064302 -0.023004914 -0.045587353
-0.15793091 0.08992486 -0.11677817 0.14679131 -0.006839126 -0.14709653 0.15559536 0.15596065
-0.17753519 -0.11785321 -0.08931057 -0.14171942 0.021175215 -0.14916824 0.10726574 -0.16800973
-0.18272398 0.005320831 -0.003657998 0.043865502 -0.1681466 0.18137833 -0.16528602 0.1549798
0.18587166 0.05316204 0.04627497 -0.111513734 0.06311491 0.16873872 -0.17480348 0.17467614
-0.09385055 0.047338817 0.10004416 0.009943549 -0.12109605 -0.12112441 0.010214348 -0.11228467
-0.15539277 -0.19200058 0.20104119 -0.18609142 -0.14180353 0.08362629 0.13172475 0.19601484
0.08179844 0.18189523 -0.11419164 0.07125646 0.029789586 -0.18507974 0.18088232 0.0683623
0.1018051 0.11206449 0.065058194 -0.10615944 0.12444992 0.015306071 -0.10082572 0.116183564
-0.0072594783 0.036383092 0.13489667 0.155976 -0.015799494 0.0066348664 0.013558337 0.09832538
0.07715906 0.12870122 -0.06161707 -0.09537607 -0.04746071 0.118817955 0.16549525 -0.08705924
0.10464 0.19711702 0.1447367 0.017505016 -0.03823361 0.1996782 0.068851106 -0.07638896
0.045170385 -0.11408797 -0.109880485 0.17315999 0.10894721 -0.1422577 -0.03539694 -0.020839002
-0.10134955 -0.11263499 0.121241204 0.132842 -0.072094895 -0.19657561 0.15112075 -0.1263353
-0.01502756 -0.104243286 -0.080795646 0.13372588 0.1661346 -0.098670006 0.15267403 -0.12235018
-0.16808625 0.054552477 -0.013327823 0.10527852 0.14682464 -0.07577839 0.040979926 0.07253119
0.007777699 -0.03144374 0.05629059 -0.1715765 -0.01522943 -0.1260304 -0.19268666 0.16999434
-0.13415405 -0.08405461 0.17163119 -0.124129176 -0.029650183 0.16988774 0.08992474 0.10784706
0.06556875 -0.020438952 0.15752791 0.17290336 -0.02026782 -0.06828322 -0.087214366 0.021965783
-0.15747172 -0.17871526 -0.2004258 0.09278888 0.03872749 0.0887173 -0.01054008 -0.12150885
0.02484734 -0.023987684 -0.060987875 0.12755813 -0.07962552 0.023503793 -0.100211784 -0.00568989
0.009832376 -0.1214966 0.09166516 -0.038026456 -0.14413866 0.13553075 -0.09501048 0.1876936
-0.042867195 0.18286005 -0.14112395 -0.064418815 0.19350156 -0.030363424 -0.08779667 0.07444487
-0.14216521 0.12478611 -0.070465334 0.17427425 0.14180192 0.17388986 -0.03700873 -0.033595104

bn1.weight f4 [256]
00000000: 95b9 033f 98f5 463f 788b 713c f2f0 3f3f
00000010: ce60 563f 3d63 943e 68ea 4a3f 2024 753f
00000020: 8e31 423f 9c81 003f c4a5 593f 8960 323f
00000030: fc7b c13e 3771 5c3f c942 a13d 8a06 b13e
00000040: 52a1 d63c 7201 423f 3f6e 4c3f f969 6b3f
00000050: ae7d 2a3d 238c 183f 8b34 8e3e 98e4 8c3e
00000060: 00ed 4e3e 5709 533d 6275 c53e 9170 2b3f
00000070: cfe1 103f 75f0 993e d542 f03e 358a 673e
00000080: 5080 8d3e 0bbc 553f 41a8 473e f77a 373f
00000090: 9735 e03d 755d fa3e 9d1e 2b3f feeb f83e
000000a0: 93b8 563f 6d9c 113f 3a10 d03e 2b5c 9b3d
000000b0: c641 2d3e 5b7e 373f 661c 483f e4fe 5c3f
000000c0: f2b5 c73e ae32 5d3e 02df 803f 0055 8b3d
000000d0: 33da 283f 6852 403f 6ef2 483f 2954 653f
000000e0: 4507 0f3f be15 163e 4909 da3e 052b 113f
000000f0: f657 d33e 8bea 253f c3fb 333f 4243 a63e
00000100: ee7c e33e 7fd8 a43e a277 953e 205b f53d
00000110: 373d ac3e 8754 e53e 9cc9 013e 6fa9 fe3d
00000120: 9d54 743f 2751 543f dc20 ef3d 6754 5a3e
00000130: cde0 1c3f 8372 1f3f d5a2 3a3e 16fa d63e
00000140: 9cc9 183e 895c 143f 9426 1e3e d24b f63e
00000150: e01b 013f 463c 873e 37b4 693f f832 003f
00000160: 77c6 393f 030d 353f 6e85 9f3e bba1 473f
00000170: c7c4 cd3e ac68 813e 2421 e23e d767 073e
00000180: bbbe a63e 8fae 293f 5956 453f c5b7 963e
00000190: f4bc 493d a525 853e dd05 893e e3b0 0c3f
000001a0: a325 c83e 875a 5b3f c589 ae3e 4836 be3e
000001b0: 03cd 133e fbf3 533f cbfa 4f3f eaa6 bd3d
000001c0: de14 e83e 3387 313f 68cb 523f 6024 673e
000001d0: 137b 073f f965 0f3f 490b 0e3e 31ed 013e
000001e0: e88c 253f b389 e33d b863 183f 03c3 ab3e
000001f0: 124b 0a3f 7bc5 073f 5360 d93e fae6 d43e
00000200: cc82 c03e 2831 cd3e 90c5 033f e1d3 633f
00000210: f077 5e3f a71b dd3e 3a8d 623f 76f2 393f
00000220: 532c 4c3f 9625 b83e a7d5 c33e 19ed 3b3f
00000230: de4b 1b3f 3dfa b53d 81ad 3e3f 6564 a33e
00000240: a5ed dd3e 7851 173f 8d68 333f a7da 0d3f
00000250: 6be2 513e 71ad cf3e 2a90 f73e 6d44 553f
00000260: 2684 2a3f b419 7d3f df80 453f 89a3 b53e
00000270: 5bb0 a63e 40f2 bd3e ac7e 713f 6fda fe3e
00000280: 210d 773f 1b59 383f bdc0 543f acfc 2c3f
00000290: 21ad 8f3e 2b11 263f 5502 a43e 0485 613e
000002a0: 4a16 573f 2714 033e 92f9 403f 6943 413f
000002b0: c36c f63e 61ab 063f e2a7 1e3f 776c c73e
000002c0: 343c e23d 7959 5d3f 64b5 1e3f 10ff 323f
000002d0: cca7 3e3f d35e 583f 6dbc 143f 0266 f53d
000002e0: a71f 713f 1725 253e 5e54 083f f1f3 ba3e
000002f0: 29e3 633f ef9f 403f bbcd 993e 7d90 6c3f
00000300: 2771 413f c721 8d3d cb3a 323f 5cf1 cc3e
00000310: a96d 503e fcf7 6b3f e7e6 803f f9e6 fc3e
00000320: 76ce d13d 51a9 c93e 6f4c 353f fe86 073f
00000330: ad8c 4d3d 7c88 6a3f f3c9 073f 39c5 af3e
00000340: ce34 1e3e 4101 423f ea34 3d3f 8bda 5f3f
00000350: 7883 433f 5350 153f 9a23 843e a221 0f3e
00000360: 62a0 6f3f ea18 2d3f dd23 b63d 28c9 353e
00000370: e484 6a3f 06f6 bf3e 89c0 1f3f b2d9 d13e
00000380: dfcd 403f d8fc bf3e cf6d 173f bf53 8d3e
00000390: 2353 453f 77f7 913e f045 bb3d 5d1e 263f
000003a0: 1551 353f ba88 a73e a701 b53e b196 5d3f
000003b0: 8e51 d83e ed06 523f 92a8 6e3f 9376 333f
000003c0: 22c1 543f 633d 113e ae68 a23e b61f e73e
000003d0: 7143 be3e b244 ee3e 78fc 403f 5459 163e
000003e0: d054 4e3f c901 653f 8131 483f a856 593f
000003f0: 3f4c 533f cba4 073f 526b d43e 1dc9 e73d
0.5145505 0.77718496 0.014742725 0.7497703 0.8374146 0.28981963 0.79263926 0.9575825
0.75856864 0.5019777 0.85018563 0.6967855 0.37789905 0.8611025 0.078740664 0.345753
0.02619997 0.75783455 0.7985572 0.91958576 0.041623764 0.5958883 0.27774462 0.27518153
0.20207596 0.05152258 0.38566118 0.6696864 0.56594557 0.30066267 0.4692599 0.22611316
0.27636957 0.83490056 0.19497778 0.71672004 0.109477215 0.48899427 0.6684359 0.48617548
0.8387539 0.5687931 0.4063738 0.07585939 0.16919622 0.7167718 0.7816833 0.8632643
0.39006 0.21601364 1.0068057 0.06803322 0.65957946 0.7512574 0.7849492 0.89581543
0.5587047 0.14656731 0.4258521 0.5670627 0.41278046 0.6481101 0.7030603 0.3247319
0.4443125 0.32196423 0.29192835 0.11980271 0.33640453 0.44791052 0.12674564 0.12434661
0.9544161 0.8293633 0.11676189 0.2132126 0.6128052 0.62284106 0.18226178 0.41987675
0.14920658 0.579537 0.15444404 0.4810472 0.5043316 0.26413172 0.9129061 0.5007777
0.7256846 0.7072298 0.31156486 0.77981156 0.40189192 0.2527517 0.4416591 0.13223206
0.3256739 0.6628198 0.7708488 0.2943708 0.049252465 0.26005283 0.26762286 0.5495741
0.39091215 0.8568501 0.34089485 0.37150788 0.14433675 0.8279416 0.81242055 0.09260352
0.4532842 0.6934692 0.82341623 0.2257247 0.5292217 0.5601497 0.13871492 0.12688138
0.6466813 0.111102484 0.5952716 0.3354722 0.540208 0.53035706 0.42456302 0.4158247
0.3759979 0.40076566 0.5147333 0.88995177 0.8690176 0.4318516 0.88496745 0.7263559
0.79755133 0.35966176 0.3824894 0.7340866 0.6066264 0.0888562 0.74483496 0.31912532
0.4334537 0.59108686 0.70081407 0.5541176 0.20496528 0.40562013 0.48352176 0.83307534
0.6660789 0.98867345 0.77149767 0.3547633 0.32556424 0.37098885 0.9433391 0.49776027
0.9650441 0.72010964 0.83106595 0.67573047 0.28061774 0.64869946 0.3203303 0.22023398
0.84018385 0.12800656 0.75380814 0.75493485 0.48129854 0.52605253 0.6197492 0.3894994
0.11046639 0.8646465 0.6199553 0.69920444 0.7447479 0.8451969 0.58100015 0.11982347
0.9418892 0.1612743 0.53253734 0.36514238 0.89018494 0.7524404 0.30039772 0.9240797
0.7556328 0.06891208 0.6962096 0.40027893 0.20354332 0.9217527 1.0070466 0.49394968
0.102444574 0.3938699 0.70819753 0.52940357 0.050182987 0.9161451 0.53042525 0.34330156
0.15449831 0.75783163 0.73908865 0.87442845 0.7637248 0.5832569 0.25808412 0.13977674
0.936041 0.6761614 0.08893559 0.17752516 0.91609025 0.37492388 0.6240316 0.409864
0.75314134 0.37497592 0.5915193 0.27602956 0.7707998 0.28509113 0.09144199 0.6489008
0.70826846 0.32721502 0.35352823 0.8655806 0.4224972 0.8204182 0.9322597 0.70102805
0.831072 0.14183573 0.3172049 0.4514138 0.3716083 0.46536785 0.75385237 0.14682513
0.80598164 0.8945585 0.78200537 0.8489785 0.8253822 0.5298583 0.4148813 0.11317656

bn1.bias f4 [256]
00000000: 42cc 383c 2224 c9bb 1261 eb3b 3b55 a4bd
00000010: d07d f2bc 836a 803c e7db 21bd df39 7b3d
00000020: e202 8fbd b4ef 0ebc 41d5 c4bd ca34 773d
00000030: 46b5 91bb faee 813d 0c73 aabd 2a99 8d3c
00000040: 8a61 c23d da9d 173c 20ac 88bd e2c3 213d
00000050: 5814 a6bc cbc3 cfbd b079 d23a 669d 9dbd
00000060: 416b 90bc da4d 44bd b802 9ebc f8c3 5cbc
00000070: c128 7dbd 425f eb3b d290 5fbd d03b 813d
00000080: be0b 6b3d f913 223c 8b8d d9bc 4c8a 27bc
00000090: c084 913a 6256 89bc 1847 d4bc 9917 76bd
000000a0: e63f d7bd e295 0ebc a4e0 88bb 4fca 173d
000000b0: af02 6f3d 4a64 00bd 24b5 413d a307 e3bd
000000c0: 85fa e0bb 123e 66bd 0476 d3bc a9d6 30bd
000000d0: 3e69 05bd 322e 2fbd 6f76 36bd 94ff 6ebc
000000e0: 77b5 a5bd 5481 00bc c493 02be 0ef1 1bbc
000000f0: dc27 adbd 4e26 093c b97e a9bc cedf fd3d
00000100: d519 1abd 1750 bfbb b45a 9ebd e582 b1bd
00000110: c0d5 9cbd ba2b 833c 5467 9d3c 5936 2dbb
00000120: f496 8cbd 318e 2bbd 65d1 c3bd 89ec 63bd
00000130: be06 dc3d 7a16 be3b 3e23 dc3b 785c 9cbd
00000140: e12f f23d 4c5c b5bc 4cb2 433b 74eb 5abd
00000150: e0a2 7fbd 9a96 29bc 3db5 193d 352e d1bd
00000160: b01e afbd 4b65 acbc de89 02be 871f 9ebd
00000170: c3f8 0dbc 3ad3 163d 31ff 833c 4181 813d
00000180: 713a ef3c f200 573d 32d8 bd3b 1108 23bc
00000190: b9a7 75bb be25 d0bc 618a b2bd 5dab ccbc
000001a0: c2d6 0b3d f473 28bd 93d7 df3c 0cf2 06bd
000001b0: e44c c93c 36a6 77bd 42e2 10be db21 163d
000001c0: 41c5 1a3a 0f61 b0bd 75ef 87bd 5bcd 0a3d
000001d0: cafa 0ebd e490 bebc 8527 5dbd 79e5 07bc
000001e0: be7a 37bc 483a 31bd ad33 bdbd c69a 2bbb
000001f0: de72 da3c c85c 933b e81d f5bd 6312 9bbd
00000200: f2c1 813d a990 353b e89a 9b3c 47ae 973c
00000210: 5ff8 9bbd 038f debd af9b 393d cdc4 2f3c
00000220: f066 bc3c e28f 963b 6b73 69bb 6c35 99bd
00000230: c99f 67bc 254e 763c 3b4f 82bd 690c 18bd
00000240: a422 283d 3b6d 233d a8c4 733d 9a0f 81bd
00000250: a1f6 ba3d 8920 f53d f8e3 66bc 6998 e8bd
00000260: 8b79 35bc 3994 b2bd f082 b4bd 6213 70bd
00000270: 0512 b5bd 595d 10be 61cb febd b7d4 21bc
00000280: cffc f9bd bc29 90bd f28b 24bd 8a8e 363c
00000290: 304a 38bd 88e3 1bbd aaa9 c1bd ba07 39bc
000002a0: 8b9b fc3c 2886 733d b4a1 343c 1377 4dbe
000002b0: 7747 0e3d 3206 613c b335 9abd 03e4 f4bc
000002c0: 39db 64bc 8511 bdbc 4c09 273d cbc2 e3bd
000002d0: 3101 b5bd b30f 293d 26fe 9bbc 3d36 8cbc
000002e0: c962 213c bef8 babd ad6a 81bc 22ea c3bc
000002f0: 4103 c3bd b31d 03bd 098c 6bbd 0a2a a5bd
00000300: b756 57bc 6f07 96bd ebe7 76bd d0ca b3bc
00000310: b01f 85bd 42c5 63bd 1f25 d4bc 86f5 8bbd
00000320: 9efe 123d f07e e0bc 7eeb 32bd 370c 4cbc
00000330: fcb0 9bbb a0ec f43c 697e 8ebb 68cc a23d
00000340: 83a2 843c b668 04be b266 73bd dfdd 1cbd
00000350: 5590 f3bc 22b5 853d cfd3 acbd 0ded 223d
00000360: da3b 943b 9a5e 973c c523 5abc 801e 053d
00000370: 140f 283c 05d9 5cbd 0735 9c3d e64e 343d
00000380: 0e87 6dbd 285a 82bc 8865 21be 8d55 463d
00000390: 1f2f ccbd 5efd 623c c6b0 a3bc e7d0 88bc
000003a0: a2ae 923d e391 0a3d c0ec 99bd d40d 92bc
000003b0: c39f bc3c d9f9 cabc 3106 55bc 2b16 90bd
000003c0: 3083 57bd 5e39 343c 3e33 0ebd b3a3 203d
000003d0: 9c4a 73bd 4a82 9dbd 1441 29bd 38a1 323d
000003e0: a1fe 73bd 9c00 23be e610 8bbd 8cd9 63bd
000003f0: 94dd dfbd 4247 f23c 3658 f0bd ec1a 183d
0.011279168 -0.0061383406 0.0071832025 -0.08024069 -0.029601008 0.015675789 -0.039516356 0.061334487
-0.06982972 -0.008724142 -0.096109875 0.060353078 -0.0044466583 0.06344409 -0.08322725 0.017284948
0.0949126 0.009253943 -0.06673455 0.03949345 -0.020273373 -0.101447664 0.0016057994 -0.07696037
-0.017629268 -0.047925808 -0.019288406 -0.013474457 -0.061806444 0.0071829865 -0.05458147 0.063102365
0.057384245 0.009892457 -0.02655675 -0.010225844 0.0011102185 -0.016764823 -0.025912806 -0.0600811
-0.105102345 -0.008702727 -0.00417717 0.03705817 0.05835217 -0.031345643 0.04729189 -0.11085441
-0.0068658018 -0.05621154 -0.02581311 -0.043173466 -0.03257107 -0.042768665 -0.04454654 -0.014587302
-0.08091252 -0.007843334 -0.1275168 -0.009517921 -0.08454868 0.008370949 -0.020690309 0.12396203
-0.03762229 -0.005838405 -0.07732144 -0.08667544 -0.07657957 0.016012061 0.01921431 -0.0026430099
-0.068647295 -0.04188365 -0.09561423 -0.0556455 0.107434735 0.0058010193 0.0067180684 -0.076348245
0.118255384 -0.022138737 0.0029860912 -0.0534472 -0.06241119 -0.010350848 0.037526358 -0.102138914
-0.08550775 -0.021044394 -0.12747905 -0.07720857 -0.008665266 0.036822535 0.016112896 0.06323481
0.029202672 0.052491136 0.0057935948 -0.009950654 -0.0037484004 -0.025408622 -0.087178 -0.024984056
0.034140356 -0.041126207 0.027324473 -0.032945678 0.024572797 -0.060461245 -0.1414881 0.03665338
0.0005904027 -0.086122625 -0.0663747 0.03388725 -0.03490714 -0.023262449 -0.053992767 -0.008294457
-0.011198698 -0.043268472 -0.09238372 -0.0026184781 0.026666101 0.0044971444 -0.11968595 -0.07571866
0.0633582 0.0027704632 0.018994763 0.01851572 -0.076157324 -0.10867121 0.045314487 0.010728073
0.022998303 0.004594789 -0.0035621773 -0.074808925 -0.014137217 0.01503328 -0.06362768 -0.03712121
0.04104866 0.039899092 0.059513718 -0.06301804 0.09129072 0.11969096 -0.014092438 -0.11357195
-0.011076341 -0.087196775 -0.08814037 -0.058612235 -0.088413276 -0.1409811 -0.12441135 -0.009877375
-0.122064225 -0.0703921 -0.040172525 0.011142382 -0.044992626 -0.038058788 -0.09456189 -0.011293346
0.030835887 0.059454113 0.011024881 -0.20064954 0.034736123 0.013734387 -0.075297736 -0.02989388
-0.013968282 -0.023079643 0.04078035 -0.11121138 -0.08838118 0.041274738 -0.019042086 -0.017115707
0.009850212 -0.09129475 -0.015797937 -0.023915354 -0.09522105 -0.032010745 -0.057506595 -0.08064659
-0.013143233 -0.073256366 -0.060279768 -0.021947294 -0.065001845 -0.05560804 -0.025896607 -0.06833939
0.035887353 -0.027404279 -0.043681614 -0.012454084 -0.004751323 0.029897988 -0.0043485654 0.07949144
0.016190773 -0.12930569 -0.05942411 -0.03829753 -0.029731909 0.06528689 -0.08438837 0.03977685
0.0045237364 0.018477727 -0.013314192 0.03249979 0.010257501 -0.053917903 0.07627302 0.044020556
-0.057990126 -0.01591213 -0.15761387 0.04842143 -0.09969925 0.013854353 -0.019981753 -0.016701175
0.07162215 0.033830535 -0.075158596 -0.01782886 0.0230254 -0.02477734 -0.013001964 -0.07035478
-0.052615345 0.0110000055 -0.034716837 0.039218616 -0.059397325 -0.07690866 -0.04132183 0.04361078
-0.059569005 -0.15918201 -0.067903325 -0.05562739 -0.109309345 0.029574994 -0.11735575 0.03713505

bn1.running_mean f4 [256]
00000000: 7868 9bbe d3bc a63f 0705 533f fe13 efbe
00000010: 1f06 08c0 2395 97bf 6ec6 d13e 54e0 893f
00000020: ab2f a53f f9bc fabf 34ff 5a3e 4abd 193e
00000030: 0b2f 8dbf 1b85 843f 1e60 85bf 9d22 8fbe
00000040: 39d1 bebe 984f 50bf 7a51 083f e421 12bf
00000050: f7f8 47bf 1710 0cbf a715 523f f076 d23d
00000060: 7b57 163f 0177 4e3f 0134 aa3f f376 633e
00000070: 1f57 413e 5e11 96be aa0e c0be bd69 43be
00000080: 2c95 a6bf 3dba 80bf a142 debc 3450 8c3d
00000090: 28f9 1540 a6c2 1abf 4f86 cabe 8f48 f23f
000000a0: 020f 0d3d 48e4 90bf 7281 f63f 5375 49bf
000000b0: 19a1 50bc 22be f23e d1cc 6cbf b0d3 df3d
000000c0: 27e0 0b3f ce1a 4dbf 0b4e 633e 60da 90bf
000000d0: d2b2 ac3f 27e4 593e 12af ec3f 7c7f 1a3f
000000e0: b04b d5bf 8404 993f 2ebe 0d3f 5de5 c23f
000000f0: 310d 79be dbfc 853e b91d 23bf eaa6 88bc
00000100: 00c1 4fbf 6748 ae3e 87c9 a93e 72cd 943f
00000110: 70d1 97be a575 c93f 16c1 563e 7d10 a93f
00000120: 485f 843d 54bc c43f 6b83 a73e 24bf 7e3f
00000130: c95e 89be 055e 99bf 9a27 97bd 9754 cbbe
00000140: 463a 7f3f 4919 0d3f 9d3d 7d3f 4796 39bf
00000150: a876 4b3f f0e7 a43d 80c1 7d3e 0203 613f
00000160: 8289 663f 4b89 533e dd4c 0e40 1a09 813e
00000170: 67fb adbf f7bd 933f 4735 a1be 4bbf d73e
00000180: 0bfe 923e 893e cb3f ad8a 0a3f ac87 bd3e
00000190: 57de 133f 8457 4ebf 9567 953f 80fa 25be
000001a0: 13b6 cf3e 3e30 bb3f 5dff 933c 11d2 333f
000001b0: f8ba a23e e4da 04bf c355 87bd ffd5 85bd
000001c0: 8766 85be 85e4 193f 9974 653f 7199 f6be
000001d0: 019f 27be dca1 f73e 142b d83f f076 06bf
000001e0: 1179 8bbd e435 c0bd 00b0 12bf adb1 a03e
000001f0: bdb3 6dbc 8cba 913e 9815 85bf 1895 673d
00000200: 0124 943f 1b63 2d3e 9297 89be 0cfa dabe
00000210: c13b 9c3e 2243 5e3f c7fc 3b3e 367a c93e
00000220: 58f8 9b3e 0668 26be 0258 d23e 605d f7be
00000230: 8b31 903d 0b16 9cbd 8e72 9bbd 71c7 1f3c
00000240: cc69 e13f 7a32 ad3e 60a7 af3f 389d 2abf
00000250: e0a1 b9be da13 9b3f 2602 933e 247a 1a3f
00000260: f355 c03d 01f6 d03e 8629 44bf ed0a 973f
00000270: 435c 30be 7a82 ccbf 5c5d cfbf 15fc 193f
00000280: b1ce 7dbf dcd8 783f a560 9dbf c1b7 12bf
00000290: fd12 123f d3ed c63e 5154 713e 9df9 af3e
000002a0: e05c 49bf b7c0 e0be 238d dabe 3215 bb3e
000002b0: 93db c83e 7534 243f b403 b6bf be38 33bf
000002c0: 4b61 d03e c819 aebf 6c8a 2b3f a7cf e13f
000002d0: dd42 28bf 8016 c03f 2704 333e 139d 20bf
000002e0: ab59 383f 3ed7 c33f b387 013f 1b43 47bf
000002f0: 8315 9abd 8869 9c3f 6fa5 86bc 7610 34bf
00000300: 0442 5a3e 37e6 c63f 61d8 903f e7a1 cc3e
00000310: da81 cc3e 7cd6 b23f fea9 9b3e a973 333f
00000320: 416c 58bf 8a1b a13f 73bf 0e3f e648 033d
00000330: 9d38 03bf 98b5 903f b908 963f 49eb 6a3f
00000340: b814 7d3f 4767 773f 0261 bb3d c951 2d3e
00000350: 25df 02bf 8dfe d3be 760c 223f 543f 223e
00000360: 65c6 05be 57c8 a13f a066 e33f 8919 eebe
00000370: defc 883f 6c04 9c3f c8f5 74bf 7c6e bb3f
00000380: cd13 adbf 934e d83e e664 583f 5324 453e
00000390: 0a1f 4f3e c9db a53f 4520 28c0 bdf5 783e
000003a0: 68b9 d13c 9555 12be 6322 a03e a057 843f
000003b0: 32f2 173f 94ab 8d3f 5216 c6bf 5c31 bbbf
000003c0: 2577 9c3e 3650 053f bf68 f83f 91f0 663f
000003d0: b79c c83f c3d5 0740 76da 3bbe edde 82bf
000003e0: 037b 013e ab5b 4dbf d617 f7be 540f 0240
000003f0: 8069 5c3e 99e5 68bf 99ae 70bf 1a52 87bf
-0.3035314 1.3026375 0.82429546 -0.4669494 -2.1253736 -1.1842388 0.40971702 1.0771585
1.2905172 -1.958892 0.21386415 0.15013614 -1.1029981 1.035312 -1.0419958 -0.27956095
-0.37269 -0.8137145 0.53249323 -0.57082963 -0.78114265 -0.5471205 0.8206429 0.10276592
0.58727235 0.80650336 1.329712 0.22213344 0.1888089 -0.29310125 -0.37511188 -0.19083305
-1.3014274 -1.0056835 -0.02713138 0.06851235 2.3433323 -0.6045326 -0.39555594 1.8928393
0.03443814 -1.1319666 1.9258254 -0.7869465 -0.012733721 0.47410685 -0.92500025 0.10929048
0.54638904 -0.80119026 0.2219774 -1.1316643 1.3492072 0.2127844 1.8490927 0.60350776
-1.6663723 1.1954503 0.55368316 1.5226246 -0.24321438 0.26169476 -0.6371723 -0.016681153
-0.8115387 0.34039614 0.33161566 1.1625197 -0.29651976 1.5739027 0.20972094 1.3208157
0.06463486 1.5369973 0.3271745 0.9951041 -0.26830128 -1.1981817 -0.073806 -0.39712974
0.99698293 0.5511671 0.9892214 -0.7249493 0.7947793 0.08052051 0.24780846 0.87895215
0.9005357 0.20657842 2.2234414 0.25202256 -1.3592347 1.1542348 -0.3148596 0.42138132
0.28709444 1.5878459 0.5411785 0.37017572 0.5776114 -0.8060229 1.1672236 -0.1620884
0.405686 1.4624097 0.018066103 0.7024241 0.3178327 -0.518965 -0.066081546 -0.06534957
-0.26054785 0.6011432 0.8963104 -0.48163942 -0.16369249 0.48365676 1.6888146 -0.52525234
-0.06810201 -0.09385279 -0.57299805 0.31385556 -0.014508185 0.28462636 -1.0397215 0.05653867
1.1573488 0.16932337 -0.2687345 -0.42768896 0.3051434 0.86821187 0.18358146 0.39351052
0.3046291 -0.1625062 0.4108277 -0.48313427 0.070406996 -0.07621392 -0.07590209 0.00975214
1.7610412 0.33827573 1.3722954 -0.66646147 -0.36256313 1.2115433 0.28712577 0.6034262
0.093913935 0.40812686 -0.7662586 1.1800209 -0.17222695 -1.5977318 -1.6200366 0.6015027
-0.9914351 0.972059 -1.2295119 -0.57311636 0.57060224 0.3885332 0.2356732 0.34370127
-0.7865734 -0.4389703 -0.42685804 0.36539608 0.39230022 0.64142543 -1.421988 -0.70008457
0.4069923 -1.3601618 0.6700809 1.7641495 -0.65727025 1.5006866 0.17482053 -0.62739676
0.7201182 1.5300062 0.50597686 -0.7783677 -0.07523634 1.2219706 -0.016436307 -0.7033762
0.21314245 1.5539006 1.1316034 0.39967272 0.3994282 1.3971705 0.3040313 0.7009836
-0.8454018 1.2586529 0.5576088 0.032051943 -0.5125826 1.1305418 1.1721412 0.91765267
0.9885974 0.96641964 0.09149362 0.1692573 -0.5112174 -0.41405144 0.63300264 0.1584447
-0.13063963 1.2639264 1.7765694 -0.46503857 1.0702169 1.218885 -0.9568753 1.4643092
-1.3521668 0.42247447 0.8452896 0.19252138 0.20226684 1.2957698 -2.6269696 0.24312492
0.025601104 -0.1429046 0.31276235 1.0339241 0.59353936 1.1067986 -1.5475562 -1.4624438
0.3055965 0.5207552 1.9406966 0.90210825 1.5672826 2.122422 -0.18345055 -1.0224282
0.12644581 -0.80218 -0.48260373 2.0321856 0.2152462 -0.9097534 -0.94016415 -1.057193

bn1.running_var f4 [256]
00000000: 85d8 143f 4596 b93e 7ac1 4d40 86c0 c13f
00000010: 8124 6040 573d 1040 8db6 e63f fe68 fa3d
00000020: 3ed3 b13f 9a56 3e3f 57e0 d73f c406 d53f
00000030: 0f35 8540 077f 383f b61c ef40 9e85 513e
00000040: db49 ad40 ad0c d13e 215f 8540 2542 b840
00000050: 8a87 1640 5c2f a33f 1a30 493f c2c2 a340
00000060: 3ddf 013f 3c37 2140 ad24 2c3f 6350 ce40
00000070: 883f a83f 9d88 033f 043e 863f e437 d93f
00000080: 8d3c ab3f 12e4 1240 a332 053f fa73 613f
00000090: e1f0 0640 d13a f83f eb33 813f 3454 323f
000000a0: 1252 b540 399a b640 e2f5 563f f223 e83f
000000b0: d604 1140 dba7 6140 03f1 1e40 94b2 3e3f
000000c0: 20a4 b33f f3d9 c13e 55f4 e93f eac7 4940
000000d0: 0e47 ea3f 07ec 323f f7ca e13e 05ca f63e
000000e0: a589 063f d100 b33f e0c5 df40 a728 983f
000000f0: b2ea 1640 3efc ba40 5bc4 833f 3b39 0840
00000100: e8a0 0c40 20b6 1140 954f 5d40 ada7 c33f
00000110: ef44 7140 42ca c93f 3725 0d40 3b30 f33f
00000120: 73fd 0a3f 1afd 7b3f 8d50 7540 e873 093f
00000130: a756 0740 55c9 e03f 3cee 8740 1065 cf40
00000140: 5cb4 963f 4b6c 973e 8940 883f 4ec7 fd3d
00000150: 34c1 af3e 54ea 023f 4e38 ae3e fb6f 3e3e
00000160: 9e70 513f 08e6 6d3d 08dc 1d3f 1d1a 1140
00000170: 7ea3 eb40 ab18 fa3f d9c9 0040 17eb 483f
00000180: 2395 0440 75fe 1f3f fb4a 7f40 078a 7d3e
00000190: 9f7e 2f40 6067 133f f8dc e03e 2bc4 f13f
000001a0: e49b 8e3e f57f 173f b8fa c13f e682 913f
000001b0: 8698 5a3f d4de 5640 db58 2140 18a7 e93f
000001c0: 8b04 e83f ff40 ad3f 6778 263e ccd3 fc3f
000001d0: 521a fd3f 63f8 b03f 71cd a13f 2dc5 173f
000001e0: ae49 0540 94da 0140 1aa4 db40 9742 9640
000001f0: 5658 8a40 a53e 5340 7567 b140 7882 903f
00000200: 5096 9740 4373 943f 91b4 9040 b235 d340
00000210: 527e 953f 4e6a 1840 1029 713d 3f8a 053f
00000220: a8c1 c73e 81f0 1b40 c9f9 c93d 0bc1 c93f
00000230: f28b 7440 7f61 a43f 78f6 503f 67a6 da3f
00000240: b957 443f 683e 0940 198a 723f 5a9d 5140
00000250: 96d5 7640 0ec2 fb3e 5a0e 0940 8a11 0141
00000260: 20c8 2e40 7dd4 0b40 d915 7840 2997 493f
00000270: 12fc f740 091b 843f f8de fb3e 9952 f53f
00000280: aafc 703e c2dd 1f3f b7de 333f 23c7 6040
00000290: 5d29 4f3f 4c38 0d3f f8b7 643e 86d2 b43f
000002a0: a70d 1540 35e9 043f 948b 1540 ee72 863f
000002b0: 0e6b e63e c32a 383f d17f 5d3f 4826 8140
000002c0: f337 ca3f 4b62 793f 46a3 023f 159a 9f3e
000002d0: 55fb a13f 82d8 fc3e 52b7 8440 fc14 ab40
000002e0: a5c3 e93f 4b1a 0840 3905 a340 a203 1e3f
000002f0: 835f 2f3e c69d 0740 0d24 213f 4c70 9b3e
00000300: 407d 3340 3bae 3d40 d484 a840 20cd c33e
00000310: 3e90 5c3f 370a 2040 1085 8e3f 874a c03f
00000320: 7204 3b3f f012 b140 7867 c23f 2bf7 0740
00000330: 0406 5940 3bcb 773e 73ee 2b40 6d59 ca3f
00000340: 5468 773f 0fce 9b3f 901d 733f 4492 c03f
00000350: 6d8e ae40 d1c2 1e40 07f9 6d3f 4b7f 6640
00000360: e8d1 9c3f b4bf 8e3f 2c2c a23f ee1e e040
00000370: 83e4 0e3f 4fc9 4d3f 5644 813f 45df 7c3f
00000380: 83ed d83e 9fdd 1540 a36c 8340 a317 e63f
00000390: a50b 3640 37b9 933f a20b c43f 0517 503f
000003a0: 698d 843e 5bfa 9b3e f9cc 3140 be0d 2e3f
000003b0: aaa4 a63f a4ff fb3e bab3 2e3f 3a55 b23f
000003c0: b34c c13f 8309 a540 acaf 223f 6f2a d43e
000003d0: 5d74 2b40 14fa 1340 5c37 9e3f 7a17 313e
000003e0: a80e e33f e3c8 1241 fbf8 1b3f ab24 b03e
000003f0: 1967 bc40 1868 ef3e d399 fe3e ba1d 8540
0.5814288 0.3624746 3.2149339 1.5136878 3.502228 2.253744 1.802446 0.12227057
1.3892591 0.74350893 1.6865338 1.664269 4.162727 0.7206883 7.4722548 0.20461127
5.4152656 0.40829983 4.1678624 5.7580743 2.3520226 1.2748828 0.7858902 5.117524
0.5073126 2.5189962 0.6724346 6.447313 1.3144388 0.5138033 1.0487676 1.6970181
1.3377854 2.2951703 0.5203039 0.8806759 2.108452 1.9392949 1.0093969 0.69659734
5.6662683 5.706326 0.8396894 1.813597 2.2659202 3.52587 2.4834602 0.7449124
1.4034462 0.37861595 1.8277689 3.1528268 1.8302934 0.698914 0.44100162 0.48201004
0.5255378 1.3984624 6.9929047 1.1887406 2.3580747 5.8432913 1.0294298 2.128493
2.197321 2.276741 3.4579823 1.5285546 3.7698324 1.5764849 2.2053964 1.8999094
0.5429298 0.9843308 3.8330414 0.53692484 2.1146638 1.7561442 4.2478313 6.4810867
1.1773791 0.29574808 1.0644695 0.1239153 0.3432709 0.51138806 0.34027332 0.18597405
0.81812465 0.058080703 0.61663866 2.2672188 7.3637075 1.9538778 2.0123198 0.7848372
2.0716026 0.62497646 3.9889514 0.24759685 2.7421033 0.5757961 0.43918586 1.8887991
0.2785331 0.5917962 1.5154638 1.1368072 0.8538898 3.3573503 2.5210483 1.8254118
1.8126386 1.353546 0.16256867 1.9752135 1.9773657 1.3825802 1.2640821 0.5928524
2.082622 2.028966 6.863782 4.6956286 4.323283 3.3006985 5.543879 1.1289816
4.7370987 1.1597675 4.522042 6.6003046 1.1679175 2.3814883 0.05887705 0.5216407
0.39014935 2.4365542 0.09862096 1.5762037 3.8210416 1.2842253 0.8162608 1.7082032
0.76696354 2.144434 0.9474197 3.275229 3.8567863 0.4917149 2.141501 8.066782
2.7309647 2.1848443 3.8763335 0.7874628 7.7495203 1.032075 0.4919355 1.9165832
0.23533884 0.6244775 0.7026171 3.5121543 0.8092249 0.5516403 0.22335804 1.4126747
2.3289583 0.51918346 2.3366442 1.0503824 0.4500355 0.7194025 0.8652316 4.035923
1.5798324 0.9741561 0.51030385 0.31172243 1.2654825 0.49383932 4.147378 5.3463116
1.8262831 2.1266048 5.0943875 0.61724293 0.17126279 2.1190047 0.62945634 0.30359113
2.8045197 2.9637592 5.2662144 0.38242435 0.86157596 2.5006235 1.1134357 1.5022744
0.7305366 5.5335617 1.5187826 2.124461 3.3909922 0.2419862 2.6864288 1.580854
0.9664357 1.2172259 0.94966984 1.5044637 5.454886 2.4806406 0.9295811 3.6015193
1.2251558 1.1152253 1.266973 7.0037756 0.5581743 0.803853 1.009898 0.9877818
0.42368707 2.3416517 4.1070113 1.7975963 2.8444607 1.1540898 1.531605 0.81285125
0.25889137 0.30464444 2.7781355 0.6798972 1.3019001 0.49218476 0.6824299 1.3932259
1.5101532 5.157411 0.63549304 0.41438624 2.6789773 2.3121386 1.2360644 0.17294112
1.7738848 9.174045 0.6092679 0.34402975 5.887585 0.46759105 0.49726734 4.1598787

fc2.weight f4 [256, 256]
00000000: 473a 1e3b 047e 223c f1a0 683c f223 e13c
00000010: 28c4 50b9 531c d83c 80e1 a4bc 9ebf 653c
00000020: 4204 a2bb 7f22 013c a852 193c e82c 46bc
00000030: fbbc 43bd 1507 d0bc 95b3 8e3b ec7c 7e3c
00000040: 3d4b 4b3d c5b3 eb3c 12c4 793d d528 0a3d
00000050: 97d8 58bc 81d4 e9bc f876 19bd 43c4 8d3b
00000060: 7a67 13bd ab29 5bbd 2578 cebd 4b52 acba
00000070: fd36 ce3b 1b3c e23c 9c62 83bd 936f 0d3d
00000080: 25e6 8dbc 8a17 6ebd 6ca3 433d da2b 4abb
00000090: afec 123d 3617 51bd 5d94 b2bd 2090 853d
000000a0: 4b9c 383d d9de e2bc 3d10 5b3d 0a26 47bc
000000b0: 9473 c73c 736b 11bc 8aab 593c 24e7 b03d
000000c0: ac95 13bd 8403 a8bc dc8e cfbc d482 f93b
000000d0: 1357 943c 808c 923d 36af 8bbc a286 4bbd
000000e0: 089f f03c 24c0 363d cfe9 87bc 27bf 5fbc
000000f0: 6863 53bc 2a52 243c 8899 933b 6e1b 62bc
00000100: 1ef9 143d bc5b 58bd 1421 2b3d 48da 4dbc
00000110: a69b 94bd edf1 e4bc 83ad f3b9 7512 283d
00000120: 2d21 fabd 66bc 973c 06ef 513b 79bd aebb
00000130: f724 9f3c 9882 0dbd a99a ecbc a5cf 8b3c
00000140: 43ae d13b 20b7 ab3d 9e03 80bd c0b8 433d
00000150: ffad 76bd e19e b4bc 69b1 a33c 8034 003d
00000160: 1f9b 3aba 5c5d 1dbd 877b f53c ee36 4dbd
00000170: 4978 f73a c721 ce3c f0bb e03b 6de0 82bd
00000180: 2c14 153d a25c 1c3d c68f 6fbc eb17 87bd
00000190: 6c60 f1bc 87f5 69bd 2411 9abd 97ab 423c
000001a0: cf2f 2e3d fe0a 12bd 4263 133c 15a4 8bbc
000001b0: e856 c8bc dacb 083d 2d59 e73b 6a90 913d
000001c0: 3631 5dbd 07bf bb3b 6e8b e1bd 3a3d 6ebd
000001d0: 3b7b 85bb 955f 8cbc 1317 513b c34e 923c
000001e0: a3c2 1d3d 6efc 3d3d 994e dcbc 3c54 3f3d
000001f0: c8d8 363d 9b56 2c3c 108e 483d c19d 9f3c
00000200: 72d7 7abc 4a1b 0fbd d425 cdb9 8a10 18bd
00000210: b15f 8a3c c1d8 9b3d 75a4 e13b 8308 a0bc
00000220: a076 60bd f374 6fbd 8bbd 683d f925 19bd
00000230: 8e0d 213d 8212 75bd 2b29 703d 4083 85bc
00000240: 4ca1 c53c 7555 28bd 3e27 a3bc 9c8d ddbc
00000250: 805b 5abd cbe4 34bc 555d 6f3d 8327 35bd
00000260: 08a1 32bd 9995 2fbc a9d4 9ebc fadf 483c
00000270: 126b e3bc 738d 5fbd f6e1 1e3c a3d8 48bc
00000280: 92e4 9cbc 3b38 a3bd 143c 0bbc 63f9 153d
00000290: d2ea ec3c 63d7 95b9 315d 2fbd d028 59bd
000002a0: 94e7 99bd ba9c 783c b175 e23c 3672 653b
000002b0: fd07 80bc 922c 98bc c3c5 d1bc f407 15bd
000002c0: 3d28 07bd 0378 dabc fb66 58bc 4c9c 7ebd
000002d0: 0088 82bd 5939 643c 8405 383d 5797 11bc
000002e0: b626 043b 9e1d f53c 9a09 d33c 9152 ec3c
000002f0: a314 15bd d3af 58bd 640a c6bb b481 833d
00000300: f09b 333c 9afa febc 9ac7 323d fe7f 473d
00000310: 9ef2 9ebd c50b 6ebb faa1 b03d a47c b5bb
00000320: d82a d9bc 5c6c a6bc 7da5 ed3b b2b3 22bd
00000330: 8f60 08bc afe0 e5bc 0027 9d3d 8f33 92bc
00000340: b4ec cb3c 21e0 8d3c a3d0 a6bd e204 8bb9
00000350: 2a18 5b3c c3ca 533d 4034 a93d b700 f2bc
00000360: daf9 8c3c 087c 083c 38b7 693c 3b49 efbc
00000370: 7b46 5abb d6bf 393d fc7a aebd d6d5 3a3d
00000380: 5b9c 1c3c e462 353c 71ef 98bc 8bb4 f23c
00000390: c921 b7bc b5d2 acbb edc1 0a3e 0b51 60bd
000003a0: 3b57 8fbd 167a f4bc 9960 52bd 7c0a 39bc
000003b0: a2c2 9cbc 4c66 2fbd bb81 db3c a246 983c
000003c0: 742e f8bc bed5 4e3c 1421 86bc 628c e2bd
000003d0: 553c fcbc fbef 89b9 92fb 52bd 4d90 d93d
000003e0: ab5f 23bd fd51 83bd 5b5c 1ebd 65c7 1e3d
000003f0: 2785 413c 2b3f 4f3d 460a 64bd 2e90 803c
0.0024143623 0.00991774 0.014198528 0.02748296 -0.000199095 0.026380694 -0.020127058 0.014022736
-0.004944355 0.00788176 0.009358086 -0.012095667 -0.047787648 -0.025394002 0.004354904 0.015532713
0.0496323 0.028772244 0.060978003 0.033730347 -0.013235233 -0.028543713 -0.037466973 0.0043263747
-0.035987355 -0.053506535 -0.100815095 -0.0013147084 0.006293176 0.027616551 -0.064152926 0.034530234
-0.017321656 -0.058127917 0.047763273 -0.0030848891 0.03587025 -0.051047526 -0.08719704 0.0652163
0.045070928 -0.027694153 0.053482283 -0.012155065 0.024347104 -0.008875716 0.013285527 0.086378366
-0.03603141 -0.020509489 -0.025336675 0.007614473 0.018107926 0.071557045 -0.01705132 -0.049688943
0.029372707 0.044616833 -0.01659098 -0.013656414 -0.012902118 0.010029355 0.0045043863 -0.013800485
0.03637039 -0.05282186 0.041779593 -0.012564249 -0.0725625 -0.02794739 -0.00046477848 0.041033227
-0.12213359 0.018522453 0.0032033338 -0.0053326455 0.019426806 -0.034548372 -0.028882341 0.017066786
0.0063989474 0.08384538 -0.0625069 0.047783613 -0.06022453 -0.022048416 0.019982057 0.031300068
-0.0007118452 -0.038419113 0.029966129 -0.050101213 0.0018880452 0.02516259 0.0068583414 -0.06390462
0.03639619 0.03817428 -0.014621681 -0.06596359 -0.029464923 -0.05711892 -0.075228006 0.0118817305
0.042526063 -0.035655014 0.008995833 -0.017046014 -0.024455503 0.033397533 0.007060191 0.07107623
-0.05400201 0.0057295593 -0.11012922 -0.05816386 -0.004073528 -0.01713542 0.0031904622 0.017859822
0.0385157 0.046383314 -0.026892947 0.04671119 0.044640332 0.010518695 0.048963606 0.019484403
-0.015310155 -0.034938134 -0.0003912883 -0.037125148 0.016891332 0.07609702 0.00688606 -0.019535309
-0.05480063 -0.05846114 0.056821387 -0.03738973 0.039319567 -0.059832104 0.05863301 -0.016297936
0.024124764 -0.041097123 -0.019916173 -0.027045064 -0.053309917 -0.011040877 0.058438618 -0.044227134
-0.043610603 -0.010716819 -0.019388514 0.012260431 -0.027761016 -0.054578256 0.009697428 -0.0122586815
-0.01915196 -0.079697095 -0.00849821 0.036614787 0.028920565 -0.0002857997 -0.042813484 -0.053017437
-0.07514873 0.015174085 0.02764401 0.0035010702 -0.01562881 -0.01857594 -0.025606995 -0.036384538
-0.03299736 -0.026668554 -0.013208146 -0.062160775 -0.06373596 0.013929688 0.044927135 -0.00888618
0.0020164675 0.02992135 0.025761414 0.028847964 -0.036396634 -0.052902054 -0.006043719 0.06421223
0.010962471 -0.031125356 0.043647386 0.048706047 -0.07761119 -0.0036322933 0.086246446 -0.00553854
-0.026509687 -0.020315342 0.0072523938 -0.039722152 -0.008323803 -0.028061239 0.07673454 -0.01784685
0.024893142 0.017318787 -0.08145263 -0.00026515784 0.01337246 0.05170704 0.08261919 -0.029541356
0.017208982 0.008330353 0.014264874 -0.029209724 -0.003330617 0.045348965 -0.08519551 0.045614086
0.009558762 0.011070941 -0.018668862 0.029627105 -0.022354977 -0.0052741417 0.1355054 -0.05476479
-0.0699906 -0.029843371 -0.051361654 -0.011294004 -0.019135777 -0.042822167 0.026795259 0.018588368
-0.030295588 0.012624202 -0.016373195 -0.11061932 -0.030790487 -0.00026309476 -0.051509447 0.10623226
-0.039886158 -0.064121224 -0.038662296 0.038764376 0.011811531 0.05059735 -0.05567386 0.01569375

fc2.bias f4 [256]
00000000: a8f7 5abb f694 91bc 4ca3 8b3c 638e bbbc
00000010: ace6 743c a8e5 dd3c 4340 a5bc b0ec 8ebc
00000020: 93cf 2d3d af45 34bd a8a6 f4bc cada 5e3d
00000030: bde0 9d3c 30e1 c43c 7bec f0bb 7a6d 21bd
00000040: 5756 55bd 03b9 a7bb b2b6 00bc d483 a03b
00000050: fcf9 c93c edb7 72bd b053 0a3c 863c 0c3c
00000060: 85d1 8a3c 70db c73c eb61 bebc 5f0f f43c
00000070: 0728 5bbc 6eb0 debb 73a6 183d f504 a4ba
00000080: 70bf 69bd 15cc 333b d96d 67bd eb3d dfbb
00000090: d608 5abd e7a3 543d 7059 1bbc 0cf6 6f3d
000000a0: c46d 643d a849 2ebd c447 c13c 457f 0b3d
000000b0: 0eb6 72bb d63a d63b e831 fabc 83fe 173c
000000c0: e6f7 fcbc 2120 8eba f5b5 d6bc de8e 8ebc
000000d0: fa60 34bb 021b 413d 7e32 a13c 095f 0d3d
000000e0: 9b40 05bd 346b d7bc f70c b4bc 56a1 0dbd
000000f0: c05d 2ebc 2b1d c1bc d39a 6c3d cc71 ef3c
00000100: a5f8 a1ba 1d81 51bd 4466 c93c d5bd 153d
00000110: c361 523b 6591 3b3d d3ac 33bd 0985 9c3c
00000120: f477 2bbd 96cb 9a3c 091e 77bc 863e c73c
00000130: ab38 31bd e53b cd3c 0189 aabc ded0 563d
00000140: 2ae7 e23c b674 f3bc 2040 5dbd 42ee 59bc
00000150: 10d3 41bd 01b9 b83c c23c 23bd 6b09 debc
00000160: 395c adbc 4d2e 3bbd 1bb5 153d 65b7 2abc
00000170: db9f 2abb e4ec b33c 76f1 573d ec97 96b9
00000180: 6bbe 11bc 7a34 23bd 0ed0 65bd 960d 1dbd
00000190: 991d 67bd 6790 7f3d 4170 863b 0ec6 68bd
000001a0: 3fdb 45bc de52 ca3c 5d71 abbc 9c24 623d
000001b0: 2c35 2abd a5b2 523d 0593 3e3d a9ea 023d
000001c0: 857a 3c3c 05f6 95bc 24ee b33c 6709 95bb
000001d0: 1d2e 693d e241 4f3d 2925 7ebd 2e8a 903a
000001e0: f416 6ebc 140c 0e3d 614b c6bc d249 28bb
000001f0: ce6b 203d 9027 283c 15b8 7ebd 4800 373d
00000200: 207d f63c 0ff2 50bd 0e02 a7bc 8b0a 4dbd
00000210: 7437 283d 8b37 eebc 1d36 32bc b510 203d
00000220: d7f7 3d3d b14a 67bd c58f 383d 2234 783d
00000230: e430 debc f41c 98bc 81e4 773d 26b5 9f3b
00000240: abfe 713d 7a48 aebc b3c3 0bbd ff35 54bb
00000250: f2dd 49bd ab45 113d 94d6 bb3b b9b7 b6bc
00000260: 14ce a03c 6cfd 60bd 3d49 18bc 2dfb 0fbc
00000270: bac5 6abd 494f abbb 2bf4 cbbc bf57 51bc
00000280: 4326 7d3d 6ef0 e9bc d52f 5ebd 21b0 74bd
00000290: aa45 c33c 9976 a73b 78da 2e3d 2ee4 503d
000002a0: b6a4 fe3c 2d48 afbc a812 223d 79a7 733d
000002b0: c012 1c3c 61cd 453d f68d 3f3d 9ce8 5e3c
000002c0: 2b28 0dbd 3887 2dbc 40cc 40bd c9c8 2bbd
000002d0: be68 28bd aa22 9ebc 63d2 36bd 0cd5 7b3b
000002e0: 07ec 503c 4e41 78bb 70ef b7bc 4dba cbbc
000002f0: dcb2 ce3c e2e3 743d 2480 06bd d23b 093d
00000300: b87c 303d b6d1 3d3d 4a6a 07bd a502 08bc
00000310: 2b94 6e3d f3f8 babc bbfe 61bd f835 d33c
00000320: 22c1 72bd 5427 1fbd d308 ebbc 374f b53c
00000330: de32 28bd 94af 613b af45 e3bc 65fe 63bd
00000340: 9655 07bc ea4e 203b 4daf 683d 2050 2c3b
00000350: 4dbd c53c f093 0ebd 456c a2bc 6c9a 9dbc
00000360: 50fb 6d3d 690c 1f3c 2e88 493d f977 463c
00000370: 90b5 623b 27bc 91bc fdb4 023d 8c12 70bd
00000380: 379e 34bd 89e8 15bd cf7c 6a3d ee5a b4bc
00000390: 41f9 d3bc d006 4b3d 43b0 a1bb 916d 0abd
000003a0: 1a9f 70bd b2ec 46bc 536c 06bd b8d3 383d
000003b0: d660 643d 80bc 49bc 4866 b13c 0ac8 5cbd
000003c0: 9079 553d f3b7 54bd 682a 1fbd e80c 673d
000003d0: e8b4 53bd 0111 23bd 01f3 6bbd 44cf 31bc
000003e0: f761 6b3d 9e7b 15bd 4742 2d3d 3ac9 2cbd
000003f0: f884 463d 26a0 5ebd 0f1b ecbc 259d 77bd
-0.0033411775 -0.017771225 0.01704564 -0.022895044 0.014947575 0.027087048 -0.020172244 -0.017446846
0.042434286 -0.044011768 -0.029864624 0.054407872 0.019272203 0.024033159 -0.0073524094 -0.039411046
-0.052084293 -0.0051184907 -0.007856058 0.0048985276 0.024655335 -0.059257437 0.008442804 0.008559352
0.01694561 0.024396628 -0.02324005 0.029792486 -0.0133762425 -0.0067959344 0.037268113 -0.0012513684
-0.057067335 0.0027434875 -0.056501243 -0.006812801 -0.053231083 0.051914122 -0.009481773 0.058584258
0.055768743 -0.042550713 0.02359379 0.03405692 -0.0037034783 0.0065377755 -0.030541375 0.009276989
-0.030879926 -0.0010843315 -0.02620981 -0.017402109 -0.0027523623 0.047144897 0.019677397 0.03451446
-0.032532316 -0.026296236 -0.021978838 -0.03457769 -0.010642469 -0.023573479 0.05776484 0.029229067
-0.0012357427 -0.051148523 0.024584897 0.03655799 0.0032101728 0.045792956 -0.04386599 0.019106405
-0.041862443 0.018895905 -0.0150828445 0.024321806 -0.043266933 0.025052974 -0.020817282 0.052445285
0.027698118 -0.029718738 -0.054016232 -0.013301434 -0.047320426 0.022549154 -0.039852865 -0.0271041
-0.02116214 -0.045698453 0.03654967 -0.010419701 -0.0026035223 0.021963544 0.05272051 -0.0002872342
-0.008895497 -0.039844967 -0.05610662 -0.038343035 -0.05642471 0.062393572 0.004102737 -0.056829505
-0.012076198 0.024697717 -0.02092808 0.055210695 -0.041554615 0.0514399 0.046526928 0.03196207
0.01150382 -0.018305788 0.02196414 -0.00454824 0.056928743 0.05059994 -0.062047157 0.0011027509
-0.01453184 0.034679487 -0.024205865 -0.0025678766 0.03916531 0.010263339 -0.062187273 0.044678003
0.030088961 -0.051012095 -0.020386722 -0.050058883 0.04106851 -0.02907922 -0.010877159 0.039078433
0.046378937 -0.056467716 0.045058984 0.060596593 -0.027122922 -0.018568493 0.060520653 0.0048738895
0.05908076 -0.021274794 -0.03412218 -0.0032380817 -0.04928393 0.03546683 0.005732367 -0.022304403
0.019629516 -0.054929182 -0.009294805 -0.008787912 -0.057317473 -0.0052279574 -0.024896702 -0.012777268
0.061804067 -0.028557029 -0.054244835 -0.059738282 0.02383693 0.0051105735 0.042688817 0.05099886
0.0310844 -0.02139672 0.039568573 0.059485886 0.009525955 0.048291568 0.046766244 0.013605263
-0.034462135 -0.010591321 -0.047069788 -0.04193953 -0.041115515 -0.019303638 -0.044634234 0.0038426546
0.012751586 -0.0037880722 -0.02245304 -0.024869109 0.025231771 0.05978764 -0.03283705 0.033504315
0.04308769 0.046342574 -0.03306035 -0.008301412 0.058246773 -0.022823786 -0.05517457 0.02578257
-0.059266217 -0.038855866 -0.028690731 0.0221325 -0.041064136 0.0034436928 -0.027743189 -0.05566253
-0.008260151 0.00244611 0.056807805 0.0026292875 0.024138117 -0.034809053 -0.019827018 -0.019238673
0.058101 0.009707549 0.049202137 0.012113565 0.0034593083 -0.017789913 0.031910885 -0.058611438
-0.044096198 -0.036598716 0.057247933 -0.022016015 -0.02587569 0.049567044 -0.004934342 -0.033795897
-0.05874548 -0.0121413935 -0.03281815 0.045123786 0.055756412 -0.012313008 0.021655217 -0.05390171
0.052117884 -0.05193324 -0.0388588 0.056408793 -0.051686198 -0.039811138 -0.057604793 -0.010852639
0.057466473 -0.036494844 0.042299535 -0.042184092 0.048466653 -0.05435195 -0.028821496 -0.0604526
