checkpoint_critic_agent_0_episode_7950.pth (torch_old, 156009 bytes, 13 tensors)

fcs1.weight f4 [128, 24]
00000000: 41bd 1d3e 7b37 1bbe 21ef a73a 8711 0dbd
00000010: ffa0 9ebd 405a 00be 785a 61bc d454 c13d
00000020: 24b5 073e 93b4 23be df1d 283d 8e11 21bd
00000030: 6ffd d0be f8ab 79be b5ef 1fbc 4fb4 b2bd
00000040: 00bc c73e 2a3b 90be 6a54 793d 6788 a43d
00000050: b8f4 ffbe 6b2d 7f3e 7bb7 edbc ebba b4bd
00000060: db47 273e d195 99be b39e 10bc 80f8 6bbd
00000070: 45bd c9bd 93c2 04bd 8028 663d 2368 60bd
00000080: 946e 093e f44e 88be d055 d7bb 65f4 f439
00000090: 2ae4 c9bc 8a85 a63c a0ca 3d3c 38f7 2dbd
000000a0: 3c5f 933e d1e9 54be 32c7 303d 0126 013f
000000b0: 0344 bb3e 2e99 b8be a0b3 4abd 6441 f73e
000000c0: d002 613e 0f92 ad3e c867 cebc 9bb7 a63a
000000d0: eb59 ae3e 457b 1abf 1f55 e53c 1c3e 1cbd
000000e0: 192a 49bc 4577 c0bd 28d5 06bd 8908 883c
000000f0: 5437 69bd 0a3a 273c 7a45 713d bda6 03bc
00000100: 0aa8 89be 7c29 b4be 253d 4f3d 1ddb d03b
00000110: 56e2 4bbe c918 f23e fb82 02bd b55b f2bc
00000120: a134 94be 7733 813e c2ce 533b 7ea0 1a3e
00000130: eb65 abbd e564 19be 2a82 8bbd b2f7 533e
00000140: f5e2 74be f46f 513e c08f 94bd 4d29 5c3e
00000150: 62e1 4bbd f4d8 f9bd cc56 d0bc 2540 7e3d
00000160: 770f 25be b6b9 0b3e 92c6 6d3e 26b9 1ebe
00000170: 5e48 59be f911 aebd b15b 823e 3ec3 46be
00000180: dc55 03bd 96fa 28be bfc3 9fba 5918 fcbd
00000190: 9634 15bd 3c05 48be cb17 71bd 5917 37be
000001a0: fa29 61be 8a3c d2bd a63c 1f3e 2803 d9bd
000001b0: a1c8 673c 88e0 cdbe 791d 613e 552c 1abd
000001c0: 58a3 a2bc 29fb 2abe 40ab f33d a2c7 9a3e
000001d0: 89e6 063d 8ff2 eabe bf52 f3bc 0eef 9c3e
000001e0: b78f 703e fcdf 8dbe 6ff6 e5bc 42e3 40bd
000001f0: 45c4 e3bd 81cd 713d 49fb 1d3c 4bd7 46bd
00000200: bbd7 2d3e e754 e0be 2414 953c 6fef c4bd
00000210: 353f 56be 75d1 7b3e b31f 2b3d a3c8 ce3c
00000220: 1ba1 953d fd61 80be 2089 b9bc 4813 7b3c
00000230: f875 b0be 928f e33e f725 cc3d 642c d5bd
00000240: 20cd a3bd 1d7b c6bc 28ff a6bc 1418 4a3d
00000250: 9d7a 383d f581 9d3e bcec 0c3d 3c9c b9bd
00000260: 8bd1 cabd dc38 72bd 08af 1cbd 63c5 7f3c
00000270: 6701 9c3b 51d3 963e 8ab1 053d e32e 96bc
00000280: 88fd 5abe a014 34be 42a4 2cbd d5a4 4bbe
00000290: 8c3e 303d 5c76 7ebf 0f92 d03c 9492 8abd
000002a0: 7eb5 953b cbee cb3d bc79 15bd facf 1f3d
000002b0: e57c 42be a672 9d3d 3491 aebd 089b 3abd
000002c0: 1cc1 debd 6734 8a3c b58f 593d 8896 66bd
000002d0: cb7a 9abd 9b24 c13c e38e 2bbc 65da 053d
000002e0: 7013 61bd 8aa9 c53c 72c6 1b3d 68c7 20bd
000002f0: 522f b9bd d9bf ae3d 1296 1b3d c16a 50bd
00000300: 4032 95bd 75d8 5ebd 0703 353d 7fe3 98bd
00000310: 7278 98bf 39b2 c2bd aa4a 3ebd 6dad b83c
00000320: b453 2abc e31c 193c bd79 dabc 2dcd 973d
00000330: 56c9 a3bf a027 2fbd 5da9 aa3c 539d bbbd
00000340: 08d7 ae3d f117 df3c 6765 92bc dd4d 97bb
00000350: afbf a9be 70fb 9a3d 6455 bf3c 59d5 85bc
00000360: 08db 0abd fff0 983d ed3b 3d3c 57d1 48bc
00000370: 65f5 cdbc a86f ab3e a149 2ebd 0c14 953d
00000380: 85d4 86bd 6713 213e 695c aa3c 8eb7 b63d
00000390: bec6 ee3c 3d7d 173f 9c87 b0bc 6374 963c
000003a0: 7f56 59be 146c 6e3e a43a 50bc 785b 073f
000003b0: aa0b d93d d9e2 bf3e d6f8 a23c dd28 0b3f
000003c0: 82a4 a53d 688c 3c3d 4e1a a7bb 47bc 523c
000003d0: c454 9b3d 55f0 eabd 620e a9ba cdde 9fbd
000003e0: 9c66 953d 1dcb 9dbd fb1b 8e3b 6ea5 ab3d
000003f0: 5a41 433e da28 c73e 9ce4 41bc 9f5f 003c
0.15404226 -0.15157883 0.0012812355 -0.034440544 -0.07745551 -0.12534428 -0.01375448 0.09440008
0.13252693 -0.15986852 0.041044112 -0.039323382 -0.40818354 -0.24382007 -0.00976174 -0.087257974
0.3901062 -0.2817014 0.06087152 0.08033829 -0.49991393 0.2491967 -0.029018154 -0.08824714
0.16336004 -0.29997113 -0.008826899 -0.057610035 -0.098505534 -0.032412123 0.056190968 -0.054786813
0.13421088 -0.26622736 -0.006571509 0.00046721395 -0.02464493 0.020327348 0.011583954 -0.042472094
0.28783596 -0.20792319 0.043158717 0.50448614 0.36575326 -0.36054367 -0.04948771 0.48292077
0.21973729 0.33900496 -0.025195971 0.0012719514 0.34052977 -0.60344344 0.02799469 -0.03814517
-0.012278103 -0.09397749 -0.032918125 0.016605632 -0.05693753 0.010206709 0.05890415 -0.008035359
-0.26886016 -0.351879 0.05059542 0.0063737766 -0.19910559 0.47284535 -0.031863194 -0.029584745
-0.28946403 0.25234577 0.0032319282 0.15100285 -0.08369049 -0.14979894 -0.06811936 0.20699957
-0.23914702 0.20452863 -0.07253981 0.2150013 -0.04977549 -0.12199584 -0.025432013 0.06207289
-0.1611918 0.13645062 0.2322028 -0.15500316 -0.21219012 -0.08499522 0.2546058 -0.19410416
-0.032064304 -0.16501841 -0.0012189074 -0.123093314 -0.036427103 -0.19533247 -0.05886058 -0.1788
-0.21988669 -0.10265453 0.1555048 -0.10596305 0.014146955 -0.40210366 0.21983899 -0.037639935
-0.019853279 -0.16697372 0.11897898 0.30230433 0.0329347 -0.45888183 -0.029702542 0.30651134
0.23492323 -0.2770995 -0.02807161 -0.04709173 -0.1112142 0.059033874 0.009642431 -0.048545163
0.16976826 -0.43814775 0.01819808 -0.09615981 -0.20922549 0.2459162 0.041778278 0.025242155
0.07306119 -0.2507476 -0.022648394 0.015324421 -0.34465003 0.44445473 0.09968179 -0.104088575
-0.07998109 -0.024228627 -0.02038534 0.04933937 0.045038808 0.30763212 0.034405455 -0.090630025
-0.099032484 -0.059136257 -0.03825286 0.0156110255 0.0047609094 0.29458097 0.032640018 -0.018332904
-0.21385777 -0.17585993 -0.042148836 -0.19887097 0.0430284 -0.9939935 0.025460271 -0.06766239
0.0045687547 0.099576555 -0.036493048 0.0390167 -0.18992956 0.07687883 -0.08523789 -0.045558006
-0.108766764 0.01687069 0.053115565 -0.0562959 -0.07542952 0.023577025 -0.010471079 0.03267898
-0.054950178 0.024128694 0.03803105 -0.03925267 -0.09042229 0.08532686 0.037984915 -0.05088306
-0.07284975 -0.05440565 0.04419234 -0.074652664 -1.1911757 -0.095066495 -0.046457924 0.022543633
-0.010395933 0.009345266 -0.026669377 0.07412181 -1.2795818 -0.0427624 0.020832712 -0.091608666
0.08537108 0.027233096 -0.017870618 -0.0046174363 -0.33154055 0.07567489 0.023356147 -0.016337084
-0.03390029 0.07467841 0.011549932 -0.012256942 -0.025141427 0.33483624 -0.042550687 0.07279214
-0.06583504 0.15730058 0.020796018 0.08921729 0.029147502 0.59175473 -0.021549039 0.018366044
-0.21224402 0.23283416 -0.0127092935 0.52873945 0.10597928 0.3747776 0.019894045 0.5435923
0.08088018 0.04603234 -0.0050995713 0.012862272 0.07584527 -0.11471621 -0.0012897963 -0.07806168
0.07294962 -0.077047564 0.0043368316 0.083811626 0.19067898 0.38898355 -0.01183429 0.007835298

fcs1.bias f4 [128]
00000000: 4624 433e f6a5 1e3e 7de4 36be b2e2 a3bd
00000010: 8806 de3d 06a6 eebd 5036 243d d637 b3bd
00000020: a811 263d 0ffb cb3d f664 833d a6d7 173e
00000030: fc39 c9bc 98f2 e23d f825 873d 2fc1 83bd
00000040: c6a0 13be c839 3f3e 1649 79bd ee6f 1d3e
00000050: 8bc1 033e c565 06bc e3a7 2cbe 5295 863c
00000060: 8117 cabd 9292 593d 272b a6bd d11a 213e
00000070: 8496 3cbe 4820 61bd c1d8 033d 5d7f 9f3c
00000080: 56b8 2b3e 2413 84bd 23da 26be c463 0a3e
00000090: f39c 693d 4ab1 093e 5c70 f7bd 478a f5bd
000000a0: bbdd a8bd 46c9 6d3c bca6 8d3d 8e3d f0bd
000000b0: 166b 9dbc dd7c 10bd 66b8 3e3e 49c4 96bd
000000c0: e28e 4a3e 3833 00be c142 acbd d736 1dbe
000000d0: c8fc 193e 76be 0fbe 530b ad3d cc9c 99bd
000000e0: 3b4b 503e 70df eb3c ef84 35be c2e4 0f3d
000000f0: b538 cb3c 3d2b 4abe 41c9 273d 996d 473e
00000100: 5a9b 703d 8eed 8dba d752 2dbd 562a 5e3d
00000110: 003f babd c3d6 4d3e 1ab1 343e 8f4b c33d
00000120: 9bab 9bbd 6643 44be 6ca8 f0bd ec3b 4b3e
00000130: b0db 3fbe 2794 47be d409 71bc 9c00 853d
00000140: 950a 50be ce0f 42be b942 903a 7e39 8cbd
00000150: 4a9f 113e 910c 703d d16f 35be 8c64 3cbe
00000160: 1a8c 0f3e f941 14bd c1ee b6bd b1b3 833d
00000170: cc52 24bd c9ed c73d 5d04 543d bd00 b5bd
00000180: 9687 27be 9d4e e23d ad2a fbbd 6aee b8bc
00000190: c2a2 e43c e248 f3bd 7cbe e33d 7709 13be
000001a0: 215a 4d3d 15cd b23c 7957 993d 6b23 4dbe
000001b0: e12c 413c 63cb cb3d c8d2 05be 6ae2 4e3d
000001c0: f7ae 513a e752 313e 1f14 31bd b48c b63a
000001d0: 9ed2 b5bd 890d 4ebd b362 6f3d 5f97 49be
000001e0: fb90 1e3e 584f 163e 6e00 b13d 0279 1c3e
000001f0: 2b19 82bd 6171 3e3d 8514 2a3c d289 10be
0.19056806 0.15492997 -0.17860599 -0.08002223 0.108410895 -0.1165276 0.04009086 -0.08750884
0.040544182 0.09959995 0.06415741 0.14828357 -0.024563782 0.11081427 0.06599039 -0.06433331
-0.14416799 0.18674386 -0.060860716 0.15374729 0.128668 -0.008202975 -0.16860919 0.016428623
-0.09867764 0.053118296 -0.081136994 0.15732886 -0.18416792 -0.054962426 0.032189135 0.019469911
0.16769537 -0.06448963 -0.1629415 0.1351462 0.057034444 0.13446537 -0.12081978 -0.11989265
-0.08245417 0.014513319 0.06916568 -0.117304906 -0.019216102 -0.03527533 0.1862503 -0.07361657
0.19781068 -0.12519538 -0.0841117 -0.15352951 0.15037835 -0.14037499 0.084494255 -0.0750061
0.20341198 0.028793067 -0.17726491 0.03513027 0.024807313 -0.19743057 0.040963415 0.19475402
0.058741905 -0.0010828243 -0.04231533 0.054239593 -0.090940475 0.20101456 0.17645684 0.09535896
-0.076010905 -0.19166335 -0.11750874 0.19847077 -0.18736148 -0.1949011 -0.014711816 0.06494257
-0.20316537 -0.18951342 0.0011006213 -0.06846903 0.1422092 0.058605734 -0.17718436 -0.1839773
0.14018288 -0.03619573 -0.089322574 0.06430758 -0.040118024 0.09762151 0.051761974 -0.088380314
-0.16360316 0.110501505 -0.12263999 -0.022574622 0.02790964 -0.11879136 0.111203164 -0.1435908
0.05013478 0.021826306 0.07487387 -0.20033042 0.011790485 0.09950902 -0.13068688 0.050508894
0.0007998789 0.17316781 -0.04323208 0.0013927431 -0.08878063 -0.050305877 0.058443736 -0.1968665
0.15484993 0.14678705 0.0864266 0.15280536 -0.06352457 0.046494845 0.010380869 -0.14115074

bn1.weight f4 [128]
00000000: 2f8a 863e 3ef6 1e3e 448c ce3e 06c2 113e
00000010: a415 053e b6a7 a43e 19a2 e63e 4c12 853b
00000020: 3b84 3f3f 6d9c d43e 534a c83e 0002 a73e
00000030: 49d3 143e 1fb2 8c3e 98b5 303e ba0c 233f
00000040: 99dd c83e d905 c13e 3ede 923e 7575 c63e
00000050: c2d7 053e c748 d13f 31b7 193f 2bdd 3b3f
00000060: d163 3b3e 9572 573e 75e4 903e 3685 ee3e
00000070: e85e ee3e a45a 273f 3cfc c73e 2104 853e
00000080: dc66 d13e dd0a 453e 5284 ab3e 5e7a 8d3e
00000090: 7534 703e a98e d13e fc94 bd3e e3e7 263e
000000a0: 388e 7e3e 2ae8 163e 29d5 db3e d9fe f73e
000000b0: 70f3 103f 4716 413e e671 3d3e e0f0 413f
000000c0: caed 493e 2fc6 b93e 57dc 8f3e 47bb 613e
000000d0: 1707 613d e456 173e f217 823e e628 723e
000000e0: a11f 0a3f c6a8 253b 2b31 2b3e 9e4e 1f3e
000000f0: 679c 3f3f 4226 143e f54e 113e 52aa bc3e
00000100: 94a5 ac3e 2a79 dc3e e567 ae3d 84ff 9f3e
00000110: 9493 b43d 3423 9b3e 25bd 5a3d 9aa7 583e
00000120: 9bdc 0e3f 22d8 8f3c dc82 0c3d 59ec 793e
00000130: beeb 913e 3de4 a13e c1af ac3d 4abb 073e
00000140: 9cf5 6b3f 072c e23e d2a1 b13e 3fda 0f3f
00000150: 8919 f23d 1ee0 433e ddcc 853e 3b6d 973e
00000160: bdf1 753e 6f08 023e 1401 273f af33 603f
00000170: 18e4 663e 985a bc3e 4237 143f d3fd b33e
00000180: f8db 883e 9133 c33e 89d6 9b3d 5020 e53e
00000190: b833 323e 66b5 eb3e bd27 913e 9ca6 263f
000001a0: 2cdf 9b3e 1f76 1e3f f0bb 083f d65f 7b3e
000001b0: a5d2 bb3e b56a a73f a467 3a3e 216c 7c3f
000001c0: 3377 b93e c185 6e3f 80b8 cd3e 6972 003e
000001d0: a6f2 0d3f f46f e63e b493 123f c48f c73d
000001e0: 53a6 1d3f 9995 9d3e 450a 3e3f 1e9b c73e
000001f0: 4411 3c3f 818d 0a3e 2bf0 293f d0c0 0d3e
0.262773 0.15523621 0.4034139 0.1423417 0.12996536 0.32159203 0.45045546 0.004061019
0.7481114 0.41525593 0.39119205 0.32618713 0.14533724 0.27479646 0.17256773 0.63691294
0.39231566 0.37699774 0.28685182 0.38761488 0.13070586 1.6350335 0.6004515 0.7338435
0.18299796 0.21039803 0.282993 0.46586007 0.46556783 0.6537268 0.39059627 0.25979713
0.40898788 0.19242425 0.3349939 0.2763242 0.23457511 0.40929154 0.3702773 0.16299395
0.2485894 0.14737001 0.42936066 0.4843662 0.56621456 0.18856154 0.1850048 0.7575817
0.19719616 0.36284015 0.28097793 0.22044097 0.054938402 0.1477924 0.25408894 0.23648414
0.5395451 0.0025277599 0.16717975 0.15557334 0.74848026 0.14467719 0.14190276 0.36848694
0.33720076 0.4306119 0.0851591 0.3124963 0.08817211 0.30300295 0.05340304 0.21157685
0.5580537 0.017559115 0.034304485 0.24406566 0.2850017 0.31619444 0.0843196 0.13255039
0.92171645 0.44174215 0.34693772 0.5619239 0.11821277 0.19128463 0.2613286 0.29575524
0.24017997 0.1269853 0.6523602 0.8757886 0.22547948 0.36787868 0.57896817 0.3515459
0.26730323 0.3812528 0.07609279 0.44751215 0.17402542 0.46036834 0.2835063 0.65097976
0.30443704 0.6189899 0.5341177 0.24548277 0.36684147 1.3079439 0.18203598 0.9860249
0.36223754 0.9317284 0.40179825 0.12543644 0.5544838 0.45007288 0.5725663 0.09744218
0.61581916 0.30778196 0.7423442 0.38985533 0.73463845 0.13530542 0.6638209 0.13843083

bn1.bias f4 [128]
00000000: 3909 86be d9f3 ecbd d817 dbbe 9b52 65be
00000010: f7aa 85be 3980 89be 0e61 41be 348a a3bd
00000020: c824 10bd 7541 a1be eec5 e9be 7fe7 0ebf
00000030: 2ff4 79be 6f33 e4bc 8ddf 55be 2374 923e
00000040: fe17 2abe 31cc 3dbe cde3 10bf 7219 89be
00000050: 427c 2fbe 9840 ae3d a9c1 afbe b4aa 64be
00000060: 1a31 1abe 6d31 69be 1fde aabe d318 d7be
00000070: 266f eebe 9ab0 c3be 97bc d1be 4214 f7bd
00000080: e7aa d1be 34a6 63be 3de4 6bbe 2df4 9fbe
00000090: 2cc9 21be 6826 d7be 043f 96be e35a 66be
000000a0: 2417 dbbd 26a6 2fbe 5b94 f6be ff14 a1be
000000b0: 5cdf 0bbe fca2 4dbd 937f 3cbe 2ec3 52bd
000000c0: 2aff 9abe 7d85 06bf ccef 51be ef0f 6bbe
000000d0: 3c32 83bd 1789 19be dffa cdbe 05bf d5be
000000e0: 1432 36bd 5477 83bc 474a d9bd edbd 94be
000000f0: af67 86be 648e 48be d45c fcbd 4ccf 05be
00000100: 3250 12bf d29a 20be f2db d5bd 8eb3 34be
00000110: b4b5 25be 2190 d7be 57ef 8abd 05f6 aebd
00000120: cceb 09bf a12e 65bd 9e45 07be 17a4 5cbd
00000130: 68b2 acbe 843f bebe bf08 92bd 87d5 47be
00000140: b540 9dbc 846f a3be f801 5dbe 4aac e7be
00000150: 198d 37be 1899 91be 7626 ecbe d415 ffbc
00000160: 8783 76be a6fd 9b3d e842 6ebf 7523 8cbe
00000170: a127 a2be 3254 cabe a296 0abf 4b92 c7be
00000180: 8ce2 41bd 4da9 33be ca16 95bc 7839 cbbe
00000190: 98ce 8fbe 69d3 b4be 2309 afbe 5445 d93d
000001a0: 471a 06be f585 33be c47c 833e e280 b6be
000001b0: b861 08bf fa09 5a3d 3229 50be fa45 eebd
000001c0: 7898 5abe 7a5c 57be a054 e2bd f351 cfbd
000001d0: e9ee c5bd 2ae0 50be d34e a8be 3752 04be
000001e0: 5a38 03bf 6d9d 76be a74f bf3d bd32 dbbe
000001f0: a774 933c cbef 87be a86d abbe 9ee2 31be
-0.2617891 -0.11569948 -0.4279163 -0.22394793 -0.26106998 -0.2685564 -0.1888468 -0.079853445
-0.035191327 -0.31495252 -0.4565882 -0.55821985 -0.24409555 -0.027856557 -0.20886059 0.2860423
-0.16610715 -0.18534924 -0.56597596 -0.26777226 -0.17137244 0.08508414 -0.34327438 -0.22330743
-0.15057793 -0.2277276 -0.3337259 -0.42011127 -0.46569175 -0.38220674 -0.40964195 -0.12064411
-0.409507 -0.2223137 -0.23036285 -0.3124098 -0.15799397 -0.4202149 -0.29344952 -0.22495608
-0.10697773 -0.17153224 -0.4816006 -0.3146133 -0.13659424 -0.050204262 -0.1840804 -0.05145567
-0.302728 -0.52547437 -0.20501631 -0.22955297 -0.06406066 -0.14993702 -0.40230462 -0.417473
-0.044481352 -0.016048111 -0.106098704 -0.29051152 -0.2625098 -0.19585568 -0.12322393 -0.13067359
-0.5715362 -0.1568406 -0.10442342 -0.1764662 -0.16182595 -0.4210215 -0.06783932 -0.08543018
-0.5387542 -0.055952672 -0.1321015 -0.053867426 -0.33729863 -0.37157834 -0.071305744 -0.19515048
-0.019195894 -0.31921017 -0.21582782 -0.45248634 -0.17924918 -0.28437114 -0.46123093 -0.031138338
-0.24073611 0.07616739 -0.9307084 -0.27370802 -0.3167086 -0.3951736 -0.541361 -0.389788
-0.047335193 -0.17545052 -0.018199343 -0.39692283 -0.28087306 -0.35317543 -0.34186658 0.106089264
-0.13095962 -0.1753157 0.25681126 -0.35645205 -0.53274107 0.05323217 -0.20328215 -0.11634441
-0.21347225 -0.21031371 -0.11051297 -0.101230524 -0.09664709 -0.20398012 -0.32872638 -0.12921987
-0.5125786 -0.2408349 0.09341364 -0.42812148 0.01799996 -0.26550135 -0.334821 -0.17371604

bn1.running_mean f4 [128]
00000000: c92d 98c0 bef1 97c0 afbd 0b3e a44a 8840
00000010: 5cc4 75be 2c65 083e 795a cc3f 359f c53f
00000020: 95ae 0fbf e15e d940 7251 ab3f 101b 2740
00000030: 77d8 9cc0 43f5 8940 3aba f940 13d2 16be
00000040: 7535 9640 f298 3540 03e4 94c0 012e ab40
00000050: f825 2ac1 422c 273f 7552 cd3e 354d c4bf
00000060: 99fc 363f a63c 2d41 2d31 5740 8117 0cc1
00000070: 2bd9 52c0 f550 cabe 9839 85bf 4921 2241
00000080: 6e2d 61be 184c 1cc1 aa68 b140 af94 fbc0
00000090: 62e4 7340 c7ed d7bf c923 bc40 fb49 2840
000000a0: cc44 1c40 99b3 9240 97ff 91bf efd6 03c0
000000b0: 4025 793f b0ca 2e41 b7ee b2bf 9db0 3f3f
000000c0: 8d57 55c0 3dc2 80bf bc5c 8d40 309b 6340
000000d0: 3fac b040 2fda 2240 09aa 14c0 7229 eac0
000000e0: 7cc1 433f 5cfa b13f c72a 0840 c302 993e
000000f0: e432 39c0 ff03 0cc0 c993 6b40 45fb 883f
00000100: 1494 4e40 ea69 aec0 1c26 6040 bce0 c640
00000110: d58f 0ac0 1171 b2c0 ec4b f03f 68df 2a40
00000120: dbfe 00c1 ff50 493d 5d13 4f3f 9d3e f53f
00000130: e3e2 0dc1 f5dd 78c0 4a1d 8440 f6c8 89be
00000140: b665 873f b90b e840 ee9a f3c0 09d7 49c0
00000150: dce7 fc3f ff42 49c0 76e7 47bf d43c 3abf
00000160: dc2a aa40 283a bd40 9e6d 1fc1 05f1 3f40
00000170: 17a6 b440 6320 ddbf 8529 b33f 75aa dcc0
00000180: 3248 2540 8014 8ebd ea7d c23f 203a 66c0
00000190: 2b97 7440 364d 5240 fdbf dbc0 690c 293e
000001a0: 4af3 8c40 5dde ccc0 aeea e93e 52cc f5c0
000001b0: dc19 05c0 ea70 1cbe 94e5 14c1 c4e3 d6be
000001c0: 8395 df3f 4ac4 b1bf bb36 7540 66a6 4b40
000001d0: 9d71 1740 fd7d 3340 4d48 a540 9fab 8cc0
000001e0: 504c 963e 0926 4040 36c3 793f 34a9 f9be
000001f0: 1c87 e5be 9a52 85c0 6f19 bf3f 9618 21c0
-4.755589 -4.7482595 0.13646577 4.2591114 -0.24000686 0.13319844 1.596511 1.5439211
-0.56125766 6.792832 1.338423 2.6110268 -4.901424 4.311189 7.8039827 -0.14728574
4.6940255 2.83746 -4.6528335 5.3493657 -10.63427 0.6530191 0.40101972 -1.5336062
0.71479183 10.827307 3.3623765 -8.755738 -3.294505 -0.3951489 -1.0408201 10.133126
-0.21989986 -9.768578 5.5440264 -7.8619 3.8108144 -1.6869439 5.8793683 2.6295154
2.441699 4.5844235 -1.1406125 -2.0599935 0.97322464 10.924484 -1.39791 0.74878865
-3.3334687 -1.0059277 4.41757 3.556347 5.521026 2.5445669 -2.3228781 -7.3175592
0.7646711 1.3904529 2.127611 0.2988492 -2.893731 -2.187744 3.680895 1.0701681
3.227788 -5.450429 3.502326 6.2149334 -2.1650288 -5.576302 1.877317 2.6698856
-8.062221 0.04914951 0.8088892 1.9159733 -8.867892 -3.8885472 4.1285753 -0.26911134
1.0577915 7.251431 -7.6126623 -3.1537497 1.9758258 -3.144714 -0.78087556 -0.72749066
5.317732 5.913349 -9.964262 2.9990857 5.6452746 -1.7275509 1.3997046 -6.8958077
2.5825315 -0.06937504 1.5194676 -3.5972977 3.8217266 3.2859626 -6.867186 0.1650864
4.4046984 -6.402144 0.4568686 -7.6811914 -2.0797033 -0.15277448 -9.306049 -0.41970646
1.7467502 -1.3888028 3.8314655 3.1820312 2.3663094 2.8045647 5.165076 -4.39595
0.29355097 3.0023215 0.97563493 -0.48761904 -0.44829643 -4.166333 1.4929637 -2.5171256

bn1.running_var f4 [128]
00000000: 484d 2442 8c0a d641 5e2d c83f dc59 8842
00000010: 5aea 3a42 3492 e541 b7ff b040 7711 1a41
00000020: 3de6 6c43 064a cb41 67e2 c841 4a74 cf41
00000030: 3521 1842 d66e 7641 5392 0542 7b33 bd40
00000040: 4407 b141 2938 2641 b947 e341 2ee1 2941
00000050: 405d 7541 051d 5443 18a9 9341 9d08 2241
00000060: 6a36 1442 3c74 1442 fcbf cc41 c1e7 2141
00000070: dbd7 9642 113c ae41 d2c6 e341 56f8 af41
00000080: 1c01 d841 ce30 2e41 e023 8c41 2af9 d741
00000090: 2953 0742 e5c4 3d42 2379 a941 75e1 b741
000000a0: 01c6 c941 0e96 dc41 4e09 4a41 1c5b 1042
000000b0: 12ea e642 5b10 d841 4f7e 8c41 ff3e 0c43
000000c0: 1fbd 8242 b234 fc41 3c66 6941 8195 ca41
000000d0: d82f f041 d22f ea41 8fed 7342 47bd 7f41
000000e0: 67be 2543 f7ac a040 6943 0f42 96a6 2c42
000000f0: 4d37 fb40 7f83 c941 323e d241 4e18 1d40
00000100: d696 0742 bd13 0842 4262 3a42 d0a5 6c41
00000110: 6d40 f841 6af8 e041 1e97 5541 e190 8741
00000120: a5ef 4942 1447 4341 152e 3241 a352 2541
00000130: 2efb b741 f6f3 b541 ef36 0a42 fa58 f441
00000140: 0c71 9043 d87c 9241 6d0f 0e41 895e 4842
00000150: fc99 2042 d365 8641 5b26 0a42 2fab 2a43
00000160: 1535 9f41 1ca6 1142 8fde 7d41 64e6 cf40
00000170: 9729 6e42 4366 2542 483c c741 4607 2c42
00000180: eb92 6b40 c4c6 5541 1fea e841 392a c141
00000190: 448d 2742 dcda e940 ed44 6541 f7c6 3240
000001a0: e110 9741 e9f5 ef41 7b6e ab3f 0d2b e541
000001b0: e9b5 4142 dd85 be43 a4ea b141 1190 2643
000001c0: 686e 0542 07a6 c542 e380 a440 1f63 af40
000001d0: 7e19 6040 a4ef 3a41 3e8c 9041 1407 b241
000001e0: 57bc 5341 d7f7 9841 71c3 0441 90ae 8741
000001f0: c7ee 7f43 314d 4742 3631 8041 455a e641
41.07547 26.75515 1.5638845 68.17551 46.72886 28.696388 5.531215 9.629264
236.89937 25.411144 25.110548 25.931782 38.03243 15.40206 33.392895 5.912534
22.128548 10.388711 28.41002 10.6174755 15.335266 212.11336 18.457565 10.127103
37.05314 37.11351 25.593742 10.119081 75.42159 21.77933 28.47208 21.996258
27.000542 10.886915 17.517517 26.996662 33.83121 47.44228 21.184149 22.985086
25.221682 27.573269 12.627272 36.088974 115.45717 27.007986 17.561674 140.24608
65.36938 31.52573 14.58746 25.323 30.023361 29.27335 60.98199 15.98371
165.74376 5.021114 35.81583 43.16268 7.8505006 25.189207 26.280369 2.4546084
33.8973 34.019276 46.595955 14.790482 31.031458 28.121296 13.349394 16.945742
50.484028 12.204853 11.1362505 10.332675 22.997646 22.744122 34.553646 30.543446
288.88318 18.310959 8.878766 50.09232 40.150375 16.799719 34.537457 170.66869
19.900919 36.412216 15.866836 6.496874 59.540615 41.349865 24.904434 43.007103
3.6808422 13.361027 29.114317 24.145617 41.887955 7.307966 14.329328 2.7933939
18.883242 29.995073 1.3393091 28.64602 48.427647 381.0458 22.23957 166.56276
33.35782 98.82427 5.1407332 5.4808497 3.501556 11.683506 18.068478 22.253456
13.233481 19.121016 8.297715 16.960236 255.93272 49.825382 16.024029 28.794077

fc2.weight f4 [256, 130]
00000000: edd2 2c3e 5c61 e8bd 15a5 68bf e24b 54bd
00000010: 2831 5f3e d035 1cbe c64d 55be 67c8 5e3e
00000020: 6713 cabd e068 f1bd eba1 8cbc b22a fcbd
00000030: 72ba 16bd 84f7 023d 7120 923b 9cc2 50be
00000040: 50a5 7a3d 864b df3d 1753 0c3e ac65 083e
00000050: 21c8 a43d cb5b ec3d dd81 4f3e c6ac 053e
00000060: d7de 2b3e bf65 45bb 96e4 08bd 325d 263e
00000070: 1b7c 283e a506 99bd 5493 5b3d 3fbd 053d
00000080: 783d ac3d e2e5 80bd e75c 663d a423 293d
00000090: b3ee 5a3e 7dc8 8dbd 5d56 f7bc 195e 29bd
000000a0: 2b47 85be 749a 5e3e c3e3 58be f581 143e
000000b0: 02bb c0bd 8b50 1b3e 8611 ba3e efcf 2dbd
000000c0: f1f0 d0bd 1446 41bc 5d11 38be 54af 6d3d
000000d0: 48e1 ca3b 9de5 393e 933b 183e 4e16 993d
000000e0: ba81 2c3e 8cd8 b2bc 904c 253e 1c4e 60be
000000f0: b26c 86be 9d51 c1bb 6b03 79bd 19d5 163d
00000100: 529b 16bd d86a fabd 17b8 d3bd f74b 8d3d
00000110: 3c0b 87bc 2602 463e 11a2 94bd 8a77 363c
00000120: e43f 37be 086a ac3a 4ef0 9cbc d8ba acbe
00000130: 3a22 933e 2436 0abe be3a f43d 8d64 133e
00000140: 0896 de3d 22ce f2bc 2b87 01be 91ff 2fbc
00000150: 4d0e 993c bab0 3a3e c259 cb3b 3fa6 21be
00000160: e832 c33d ebe8 b1bb 105a 5fbe 2212 bdbd
00000170: 183c 93bd 7aa2 5d3e 0667 8a3d ad6f 98bd
00000180: 1330 9dba ce70 80bd 89e6 e53d fe8a dc3d
00000190: 90c7 6e3d 19b5 c13d bb49 473e 04b5 0c3f
000001a0: efc1 a13d f5a6 86bd e5ed e1be c543 0a3e
000001b0: 7f47 ad3c b4af ce3e 4823 3bbd 4501 dbbd
000001c0: 322d e0bd 8b5b 5f3d f358 363e 6351 1cbe
000001d0: 229d b33b dc9b 4a3e 1679 193d bd40 a9bb
000001e0: a926 8abd c8ba d7bd ba5e 38bc 85e4 8b3c
000001f0: 66ac 61bd e423 db3d c841 8fbd 89d6 1d3e
00000200: d41e 81bc 4c6a 48bc 9d67 8bbe 5691 26be
00000210: afd5 3dbf 9a54 6bbd 2814 25be 492f babd
00000220: 8a47 b1bc d243 743b c1f5 4cbd 811f 2abd
00000230: dda5 2f3e e2ae c53d b5eb cf3b 31a0 ccbe
00000240: eb00 933c 7bd3 9bbd 7a3d 0abe 3a9a c9bd
00000250: 0a20 22be 724d 41be b25e d63d d24d 773c
00000260: d83b c53d b7b2 3e3d a3b3 a1be 2dcc a7bd
00000270: 13f4 3dbe 9c6d 323d ef1c c0bd c246 873d
00000280: 1123 cbbe 3e30 5a3d e516 0e3d 50a9 99bc
00000290: 7e79 903c 93c0 06be 1a12 bbbc 7793 3f3c
000002a0: 398b a0be e7ca 213e fdac a2bd d384 8abe
000002b0: 9e5d e3be c28e 8dbd 6b3e f8bd 9d9d acbd
000002c0: d54b 853e 11ae f93d cf10 45be 8e77 a03c
000002d0: 29cd 1cbe daf4 aa3d b379 73be 61fe 7fbe
000002e0: ebc2 6e3c 8d4e 943d 66ca 1e3d 82e4 2b3d
000002f0: 6556 03be 2677 5abe a5a0 9dbd 2e56 dbbc
00000300: 7c20 e7bd 93fe 183e d361 ac3d db2a 07be
00000310: 59c7 02bc 5dc3 823e ffee f1bc 6478 90bd
00000320: 87a5 77bc a05b a8bd 1560 833c 9186 783b
00000330: 2e76 133d 6839 35bd c29e 0cbe 8166 c43d
00000340: e17b 4dbd c075 20be 63df 0abe 5fe9 f3bc
00000350: 8f6d 6a3e fcbf e0bd de9d cdbb fb8a ec3d
00000360: 016b bc3c b7ac f13c f269 1f3d 1354 23bf
00000370: 0c77 6e3d d83d 833c 94ad 98bd a23d 94bd
00000380: c4a2 683d fdb8 3bbe 60fb d5bb 6b61 1bbc
00000390: c66b 8abd 0c68 e2bd 0341 b63d 8964 3c3e
000003a0: ffdc 5c3d 0f1f 6e3e 7cce b8ba b367 acbd
000003b0: 0ebd b9be ac66 2f3e 6bf6 21be 68b8 003e
000003c0: 47e3 95bd a6ff 0bbd 351a 253d 168e 923d
000003d0: ebb8 6e3d 3fa6 573d 7871 be3d a23a a53c
000003e0: 0c4c f4bd a925 7dbe e663 2b3c b446 aebe
000003f0: 4ec5 cebc 3f52 debd 13a2 4ebd 80f1 7ebe
0.16877337 -0.11346695 -0.90876895 -0.05183018 0.21796095 -0.15254903 -0.2083045 0.21756135
-0.09866982 -0.117875814 -0.017167052 -0.12312831 -0.0367989 0.03197433 0.0044594337 -0.20386738
0.06119281 0.10903077 0.13703571 0.13320035 0.08045984 0.115409456 0.20264383 0.13054189
0.16784225 -0.003012046 -0.03342112 0.16246489 0.16453592 -0.074719705 0.0536073 0.032651182
0.08410162 -0.06293847 0.056240942 0.041293755 0.21380119 -0.06923006 -0.030192548 -0.041349504
-0.2603086 0.21738607 -0.21180634 0.145027 -0.09410669 0.15167443 0.36341494 -0.04243463
-0.10202206 -0.011796493 -0.17975374 0.058028534 0.0061914064 0.18153997 0.14866476 0.074749574
0.16846362 -0.021831773 0.16142488 -0.21904796 -0.26254803 -0.0058996216 -0.060794275 0.03682432
-0.03676922 -0.1222741 -0.10337847 0.06899255 -0.01648485 0.19336757 -0.07257474 0.011136899
-0.17895466 0.0013154158 -0.019157555 -0.337363 0.2873705 -0.13497216 0.11925267 0.14393826
0.1086846 -0.029639307 -0.12649219 -0.010742084 0.018683577 0.18231478 0.0062057683 -0.15786074
0.09531194 -0.0054293773 -0.218117 -0.09231974 -0.07189196 0.21644011 0.067579314 -0.074431755
-0.0011992477 -0.06271516 0.11225612 0.10768698 0.058295786 0.0945837 0.1946172 0.5496371
0.07898318 -0.06574813 -0.44126812 0.13502415 0.021152256 0.40368426 -0.045687944 -0.106936015
-0.1094612 0.05453066 0.17807369 -0.15265422 0.005481378 0.19786018 0.037468992 -0.005165188
-0.06745655 -0.105336726 -0.011253053 0.01707674 -0.055096053 0.10700205 -0.06994969 0.1541387
-0.01576177 -0.012232374 -0.27227488 -0.16266379 -0.7415418 -0.05745373 -0.1612097 -0.0909105
-0.021640558 0.003727187 -0.050039057 -0.04153395 0.17153116 0.09652497 0.006345237 -0.39965966
0.017944774 -0.07608696 -0.13500014 -0.098438695 -0.15832534 -0.188772 0.104672804 0.015094237
0.09630555 0.046557155 -0.31582364 -0.0819324 -0.18550138 0.043561563 -0.09380519 0.06605293
-0.3967519 0.053268664 0.034689803 -0.018757492 0.017636057 -0.13159399 -0.02283578 0.011692873
-0.31356218 0.15800057 -0.07943151 -0.27054462 -0.44407362 -0.069119945 -0.1212128 -0.084285
0.26034418 0.12191404 -0.19244693 0.019588258 -0.15312637 0.08347483 -0.23776893 -0.24999382
0.014572839 0.07241545 0.03876724 0.04196597 -0.12825926 -0.21334514 -0.07696656 -0.026774492
-0.11285493 0.14940862 0.08417096 -0.13199942 -0.0079820985 0.25539675 -0.029532908 -0.07054213
-0.015115148 -0.08220601 0.016037026 0.0037922005 0.036001377 -0.0442442 -0.13732436 0.095898636
-0.05016697 -0.15669918 -0.13561778 -0.029774366 0.22893356 -0.10974118 -0.0062749228 0.11549946
0.023000242 0.029501302 0.038919397 -0.6380016 0.058219 0.0160207 -0.074549824 -0.07238318
0.05679585 -0.18332286 -0.0065302104 -0.0094836755 -0.067588374 -0.110550016 0.08899119 0.18397726
0.053921696 0.23254035 -0.0014099623 -0.084182166 -0.3627705 0.1712901 -0.15816657 0.12570345
-0.0731874 -0.034179352 0.040308196 0.07156007 0.05828182 0.05264878 0.09298986 0.02016956
-0.11928567 -0.24721397 0.010460829 -0.34038317 -0.025240567 -0.10855531 -0.050447535 -0.24896812

fc2.bias f4 [256]
00000000: f38a 02bd 6fa6 883d 68ba e4bc 0a44 403d
00000010: fdb6 87bd 560f 963d 386b ab3d 370c 123d
00000020: 0a7a f93b 23bb 0d3d a646 92bc 1385 ab3d
00000030: 5fc2 a6bd 09fe 4b3d ee22 aabd d3f3 663c
00000040: d343 52bd aa4e f9bb 5999 60bd 1e05 75bd
00000050: 40c1 57bd 00a7 9abd 0721 a9bd 867b 8bbd
00000060: 9977 c93c fbb5 bf3c 46bb 373d 43af 933c
00000070: fa7c b2bd 792f a9bd bc79 c6bc 9e72 a7bd
00000080: ba5a edbc 02ba 9dbd 632d 55bd 5e49 17bc
00000090: 9645 8bbd e82d 643d 65ed a43d dd69 f93c
000000a0: 9ada 99bc a87d 84bd 7b27 463c d946 15bd
000000b0: 2ed1 1cbd 307c 813c 428e 68bd 6bab a33d
000000c0: 7f6b ac3d d951 a63d 0472 0fbd 602b a73d
000000d0: 8481 923d d0cb 953d 475c 143c 2149 463d
000000e0: 6708 84bd 4371 53bd f357 673d 4d4f 1a3b
000000f0: ed46 6cbd 1774 47bd 59fe 423d c2b3 9fbd
00000100: e10f 6f3d 34b2 7a3d b1f8 823d 7429 7abc
00000110: 2bbc 1d3b 7ff8 4abc 1b5c aabb 85fc 693d
00000120: ff97 e9bb be12 4d3d 1660 5f3d 5487 923c
00000130: 69ae 8cbd 6ea5 9fbc 4eb1 183a 2868 353d
00000140: 4ceb 0d3d 3550 63bd 135f 4b3d 1ed6 aebd
00000150: 1bf9 463b 9054 e93c 77ff e3bc 0ee7 ccba
00000160: a767 b3bc ca6e 56bd 4f0c 93bd 4dac 8dbd
00000170: e6cf 183d e1ff 01bd 197b 9ebd b86f 8e3d
00000180: 6e90 d13c 3c94 713c fcc8 b6bc b4f3 603d
00000190: d040 ad3d aab6 663d 30a6 383d 1e3a 8bbd
000001a0: ddf5 a0bd 2b4c 4abd e7ac afbc cbf8 05bc
000001b0: b284 843d dc95 92bd a5f3 15bd cb17 a9bd
000001c0: 31f5 9ebd 18ce 833d 764c 67bd 7188 8bbd
000001d0: 5146 8dbc 7dc8 b2bd 2429 bcbc a3c2 393b
000001e0: 6551 aa3d 8846 a1bd 4057 61bc 31bb 0a3b
000001f0: ad11 6fbd 2c3b 8a3d 334d a4bd 04ac ac3d
00000200: e9e1 ed3c 68e6 91bd 6253 0f3d dfa9 a4bd
00000210: fa7b 783d cb8a 32bd a433 183d 3461 8ebd
00000220: bc70 693d e2fb a9bd 9ffe 113d 59ef 2c3b
00000230: 9270 51bd 1cc9 fc3c 18db 7d3d 6a2b 8a3d
00000240: 7c7a a7bc 8642 21bd ee47 7f3d cbee a5bd
00000250: 0a61 23bd 3f99 21bd 6776 213d 65c8 65bb
00000260: 3fb2 90bc b268 c939 2202 af3d 8bb9 94bd
00000270: 4a62 2fbd b3e8 083c acd2 2ebc 1c5f 7dbd
00000280: 41c1 2a3d 6edb 613d e861 0fbd a134 963d
00000290: f772 aebd 9f6e 33ba a759 09bc b266 ecbc
000002a0: ffbb 0e3d 78cc a1bd b7e9 3cbd f885 d13c
000002b0: 9b88 51bd df39 3b3d a0a9 abbd c1f6 3a3d
000002c0: 3de8 053d 3e64 4b3d 2c2c 52bd ba27 a9bd
000002d0: 2ac4 7e3d 5bd1 99bd 265f d3bc 6504 0bbd
000002e0: e351 9abd 12dc 783d 0292 afbd 1968 253d
000002f0: 69b3 5abc bae6 3b3d 1b73 adbd 5fd8 59bd
00000300: 26c6 79bd 1548 fcbc edf0 1bbd a2ec 8e3d
00000310: 325e 443d 1fa2 313d 50e3 9a3c d30a 27bb
00000320: f6df bf3c a31c 4cbd 10ba 9c3d 2189 3a3d
00000330: 539d 923d 7199 b13c 1c93 603d cb14 343d
00000340: c1c6 44bc 446a aebd b6db acbc f2fb 1dbd
00000350: 3891 abbc 3009 a63d 6853 4d3d b083 4fbd
00000360: 2bd3 f1bb b0b1 fa3c 19fb f43c b02d 6fbc
00000370: 70a0 afbd 53f7 a8bd b90a 4d3c ba72 87bd
00000380: 51e1 86bd 669a acbd 0c32 cd3c fe3c 51bd
00000390: a5dd 8fba e62c 9abd e3be 8b3d 632c 9bbd
000003a0: 2b0e 123d 391c 703c b1ed 863c 35fc b2bd
000003b0: e717 b33d c567 ae3d 36b8 7aba 5bd5 a13d
000003c0: 9407 d339 bb35 bfbc 41b8 e7bc 6af4 0a3c
000003d0: 13d8 a23d 2d94 3fbd fb4b 373d 613d 863d
000003e0: faa1 a73c 078d dabb 8cca 8a3d ba4f a9bd
000003f0: 1c14 2bba ce79 51bd c550 543d b78a 86bd
-0.031870794 0.0667237 -0.027920917 0.046939887 -0.06626699 0.07327144 0.0837006 0.03565618
0.007613425 0.034602296 -0.017855953 0.08374991 -0.08142542 0.049802814 -0.083074436 0.014096218
-0.051334213 -0.0076082544 -0.054833744 -0.059819333 -0.052674532 -0.07551384 -0.082582526 -0.068106696
0.024593161 0.023402205 0.044856332 0.018027907 -0.08715244 -0.08261008 -0.02422797 -0.08176158
-0.028973926 -0.07701494 -0.052045237 -0.009233801 -0.06800382 0.055707842 0.08053092 0.030445987
-0.018780995 -0.064692795 0.012094374 -0.03644452 -0.038285427 0.015806288 -0.056776293 0.0799168
0.08418941 0.0812108 -0.035020843 0.0816257 0.071536094 0.07314265 0.009055204 0.048409585
-0.06446915 -0.051621687 0.05648036 0.0023545802 -0.057684828 -0.048694696 0.047605846 -0.07797958
0.058364753 0.061205104 0.0639509 -0.015268672 0.0024068456 -0.012388348 -0.005198968 0.057125587
-0.007128715 0.050066702 0.054534994 0.017886795 -0.068692036 -0.019488063 0.00058247603 0.044288784
0.034648225 -0.055496413 0.049651217 -0.08536933 0.003036088 0.028482705 -0.027831776 -0.0015632825
-0.021900011 -0.05235175 -0.07180082 -0.069176294 0.037307642 -0.031738166 -0.07738323 0.069549024
0.025581565 0.0147448145 -0.022312634 0.054919913 0.08459628 0.056326546 0.045080364 -0.06798194
-0.07859395 -0.049389046 -0.021444751 -0.008176993 0.06470622 -0.0715749 -0.03660931 -0.08256491
-0.0776161 0.06435794 -0.056469403 -0.068131335 -0.017245444 -0.08729646 -0.022968836 0.0028344772
0.08316306 -0.07874781 -0.013753712 0.0021168704 -0.058366466 0.067495674 -0.08022537 0.08431247
0.029038386 -0.07124025 0.03499163 -0.08040213 0.06066511 -0.043589395 0.037158623 -0.06952134
0.056992278 -0.08299996 0.035643216 0.002638778 -0.051132746 0.030857615 0.061976522 0.06746562
-0.020444147 -0.039370082 0.062324457 -0.08102187 -0.039887466 -0.039452787 0.039419558 -0.0035062071
-0.01766312 0.00038415712 0.08545329 -0.07261952 -0.042818345 0.008356261 -0.010670345 -0.06185828
0.041688208 0.055140905 -0.03500548 0.07334257 -0.085180216 -0.0006844792 -0.008383191 -0.028857563
0.034847256 -0.079003274 -0.046121325 0.025576577 -0.051155668 0.045709487 -0.08381963 0.04564548
0.032692183 0.049656145 -0.051311657 -0.0825953 0.062198795 -0.075106345 -0.025802206 -0.033939738
-0.0753515 0.06075675 -0.08572771 0.04038248 -0.013348439 0.045874335 -0.0846922 -0.053184863
-0.060979985 -0.03079609 -0.03807156 0.06978728 0.047941394 0.0433675 0.01890722 -0.002548863
0.023422223 -0.049831998 0.07652676 0.045540933 0.071589135 0.021679612 0.054827794 0.043965142
-0.012010277 -0.08516362 -0.02110086 -0.038570352 -0.02094327 0.08107221 0.05012837 -0.050662696
-0.0073799095 0.030602306 0.029904889 -0.014598295 -0.08575523 -0.08250298 0.0125147635 -0.06613679
-0.065859444 -0.08427887 0.025048278 -0.051083557 -0.0010976089 -0.07528095 0.06823518 -0.075768255
0.035658043 0.014655166 0.016470762 -0.08739511 0.087447934 0.08515886 -0.0009564193 0.079020225
0.00040250702 -0.02334105 -0.028286101 0.008481124 0.07951369 -0.04677217 0.044750195 0.06554676
0.020462979 -0.006669644 0.06776914 -0.0826716 -0.0006526129 -0.051141553 0.05183484 -0.065694265

bn2.weight f4 [256]
00000000: e0fd 123e efae 2c3e fedc 993e bacd d83e
00000010: b248 f63d 11c4 803e 0c51 673e 659f 953e
00000020: 9576 153d dfed 1cbb 59f6 933e 9b47 933e
00000030: 5673 eb3d 8c1e c23d 33b0 8d3e 887b 433e
00000040: d31f 3f3f 0e8b 803e a764 8e3e 740f a03e
00000050: 7324 2d3e ad4c f23e cc10 323e 58f8 d13d
00000060: b3f4 b73e b46b 9f3e 4599 1b3e 2d9d a33e
00000070: 702e 1d3e 198a f03d f8df 353e be99 903e
00000080: 08f5 fb3d 6296 833e 6b3d b53d bd15 173e
00000090: 7493 2a3e 70c6 f93d 4735 0a3e 7680 4a3e
000000a0: 0045 813e c64c 503e dcec cb3d 8acd 563e
000000b0: 0cce fe3d 92ec 143e 7630 8f3d 46a9 803d
000000c0: c63c 963e df22 623d 65e0 ac3d ad99 523e
000000d0: c9c6 3e3e 8269 dd3d e162 433c eb11 863e
000000e0: 6a21 0b3e f8e8 aa3e d220 113e 4dc0 823e
000000f0: d0a7 eb3d 1143 833d 2214 af3e 460d 5e3e
00000100: 5add d23e 7e2b c63e 9548 a13e c76e 253e
00000110: cb72 ef3d 6bd6 343e ac7b e03e c8da a53d
00000120: 4af1 d23e 8ab8 753e 9321 b93e e526 773e
00000130: 5cb0 113e 2820 553e e490 923e 6780 be3e
00000140: cd6c cf3e 7a31 9a3c c715 8f3c 7649 703e
00000150: eaab 553e 70f4 3f3e 35a3 7d3e 872f bb3e
00000160: 1928 1a3f 1431 cb3e 23f0 0e3e 54e5 9a3e
00000170: fa33 a53e ce95 f43d f070 823e eff8 923e
00000180: 96d5 a33d 6bd3 733e fc0e e23d 79ec 1e3e
00000190: e5c6 943e 231e ce3e 03b8 433e cd30 623e
000001a0: 6b46 7b3e 92f2 143e 1309 b53e c3c2 cc3d
000001b0: c2d5 993e 1c39 c63e f9a5 7c3c d315 343e
000001c0: df40 9e3e e63d bd3d bb03 da3d 977d a43d
000001d0: ba44 a63e 41bf 983e 8726 9a3e df97 9c3e
000001e0: 2797 313e 8862 ac3e ec74 b33d c802 663e
000001f0: 6afe 793e ebe3 293f c4a8 983e 4154 893e
00000200: 6042 bd3e f88c d33c c912 8f3d 5813 a83e
00000210: 4837 ee3e 2869 163e e99f f83e e804 f73e
00000220: 72d5 a83e 60e2 063e 9ba0 ea3e 8898 403e
00000230: 2d47 203e 1355 c23d 4fa4 893e d36c ef3e
00000240: 59d5 ee3d 2473 993d f9ac b73e d4d7 bf3e
00000250: 1cf3 223e 623f 5e3e d8e6 493d adc0 673e
00000260: 1530 d03e 9953 b53e cb61 973e 58f1 743e
00000270: 3c95 553e 3e75 ba3e 5943 ce3e f768 063b
00000280: 2240 803e a2ad c53e b3f4 303e 0621 a13e
00000290: 0cff e93d 9c1a 6f3e 56d3 0d3e 3a1a 7c3d
000002a0: b72d 463e 5884 d43e a9c9 6b3e 8e36 d63d
000002b0: f1a3 4b3d d115 a43e b220 883e 0c8b 6f3e
000002c0: 7872 9d3b 3206 253e 9c78 ae3e f6c4 b03e
000002d0: 95dd a13e 9eaf 173d a91b 903e 8897 d53e
000002e0: e598 4c3e 88f3 903e 2e50 133d de51 c53e
000002f0: f249 773e 355d 8b3d d305 583e 64b6 923e
00000300: 7d7c 683e 34a5 853e 8192 823e 2676 5f3e
00000310: 9704 303d cb66 593e 63d9 083e 6374 4a3e
00000320: e4aa ae3d a295 233e 0289 073f a34e 733e
00000330: 7882 d33e 6436 a83e f1a0 9a3e cb9a ce3e
00000340: 2090 473e 2d3b 0f3d 32b1 5f3e deb6 0b3e
00000350: 239c 853e 883f 5b3e c615 643e 2ee5 f63e
00000360: 8479 d93e aad1 0b3e b43c ae3e 34f5 183e
00000370: b22f a33e d168 8d3e bd73 e53a 5053 963d
00000380: 7f2e e33c 626f 9d3e 343f d23e b4bb 2a3e
00000390: 6b54 443d 624e b53e 4146 543e 78b5 913e
000003a0: 799a 843e bd3d 973e 7c1e b23e 80b4 813d
000003b0: 4cc2 a63e 6438 1f3a eea8 553e ee3c b03e
000003c0: 0204 0a3e e7c1 9c3e bd1d fc3d eb6d 973e
000003d0: 6066 2c3e cac6 113f dd69 143d d27b cc3e
000003e0: 1bfe d73d 6bce 3e3e dd2d 7c3e 622a 1c3e
000003f0: 4fac 603e 846a 323e 0ad9 413e d27a 893c
0.14354658 0.16863607 0.30051416 0.42344457 0.12025584 0.25149587 0.2258951 0.2922317
0.03649004 -0.0023945493 0.28898886 0.28765568 0.11496608 0.094784826 0.27673492 0.19090092
0.74657935 0.2510609 0.27811167 0.3126179 0.16908436 0.47324124 0.1738922 0.10252446
0.35928878 0.31136858 0.15195186 0.31955853 0.15349746 0.1174509 0.17761219 0.28242296
0.123025954 0.2570067 0.08849605 0.14754386 0.16657811 0.12196052 0.13496886 0.19775566
0.25247955 0.20341787 0.09957287 0.20976844 0.12441644 0.1454337 0.06991665 0.06282286
0.2934324 0.055209037 0.08441237 0.20566435 0.18630518 0.1081114 0.01192543 0.26185545
0.13586965 0.33380866 0.14172676 0.2553734 0.11506617 0.06409276 0.34195048 0.21684751
0.41184503 0.38705057 0.31500688 0.1615554 0.11691817 0.17659919 0.43844354 0.0809837
0.41199714 0.23996177 0.36158428 0.24135931 0.14227432 0.20813048 0.28626168 0.37207338
0.40512696 0.01882242 0.017466439 0.23465523 0.20866361 0.1874559 0.2476929 0.36559698
0.60217434 0.3968588 0.13958792 0.30253088 0.32266217 0.119426355 0.2547679 0.28705546
0.07999723 0.23811118 0.11038014 0.15519895 0.29057994 0.40257367 0.19113164 0.22088929
0.24538581 0.14545658 0.35358486 0.09998085 0.30045897 0.38715446 0.01542043 0.1758645
0.30908868 0.09240322 0.10645243 0.08031767 0.3247431 0.29833415 0.3010752 0.30584618
0.17342816 0.33668923 0.087625355 0.22461998 0.24413458 0.663634 0.29816258 0.26822093
0.36964703 0.025824055 0.06986005 0.32827258 0.4652655 0.14688551 0.48559502 0.4824593
0.32975346 0.13172293 0.45825657 0.18808186 0.15652151 0.09488883 0.2688317 0.46762714
0.116617866 0.074926645 0.35874155 0.3746935 0.15913051 0.21703866 0.049292415 0.22632094
0.40661684 0.35415342 0.29566798 0.2392019 0.2085771 0.36417574 0.40285757 0.0020509341
0.2504893 0.38609034 0.17280845 0.31470507 0.114255995 0.23349994 0.1385015 0.06154845
0.19353376 0.4150722 0.23026146 0.10459624 0.049716894 0.32047895 0.26587445 0.23392886
0.0048049055 0.16115645 0.34076393 0.3452527 0.31614366 0.037032716 0.28146103 0.41717172
0.199802 0.283108 0.035965137 0.38539022 0.24149302 0.06804887 0.21095972 0.28654778
0.22703739 0.26102602 0.255024 0.21822414 0.042973127 0.21230619 0.13364176 0.1977096
0.085286885 0.15975049 0.5294343 0.23760466 0.41310477 0.32853997 0.30200914 0.40352473
0.19488573 0.034968544 0.21844938 0.13643977 0.26095685 0.21410954 0.22273931 0.48221725
0.42475522 0.13654199 0.34030688 0.14937288 0.31872326 0.2761903 0.0017505806 0.07340109
0.027732132 0.3074904 0.41063845 0.16673166 0.04793207 0.35411364 0.20729925 0.28458762
0.25899103 0.2953929 0.34788883 0.06333256 0.32570112 0.00060737715 0.20865223 0.34421486
0.13478091 0.30616686 0.123103596 0.29576048 0.16835928 0.56943953 0.03623377 0.39938217
0.10546514 0.1863343 0.2462687 0.15250543 0.2194073 0.17423445 0.1893045 0.016782198

bn2.bias f4 [256]
00000000: d253 4cbe 6e40 74be 650e b5be 6001 11bf
00000010: cfe2 aabe 936e 87be 32a4 93be 2c8a e7be
00000020: 0177 fcbd a47e a5bc 515f 1bbf c5b4 edbe
00000030: e549 91be da0d 80be 4777 ddbe 264a 36be
00000040: 7180 56be 441b ddbe 496d ddbe 6adb 06bf
00000050: b97b cdbe 37be 07bf 4cda b9be fcb9 24be
00000060: 567e 14bf 0bca fabd af87 90be be14 15bf
00000070: 77f2 acbe d169 41be 603f 79be 47a2 f8be
00000080: ee50 8bbe afd4 c4be 1d84 6fbe 368b 55be
00000090: f11d 51be f481 27be 5835 8ebe d59f 1dbe
000000a0: 1e21 f2be 77e0 d1be 46e2 2abe 225e f7be
000000b0: 02e1 66be ba7e 0fbe 9a1e 70be d1f1 f5bd
000000c0: 1b29 e1be 0806 1abe 1eac 1dbe 46ab 05bf
000000d0: 635a 45be bd5a 91be e459 32be 7274 fdbe
000000e0: 5bdf 10be a408 17bf c08d a4be ec3f f2be
000000f0: ebc1 88be 0790 32be 135c f6be 968e 29be
00000100: 4947 1dbf b775 d5be db19 bdbe b57d 40be
00000110: 9fac 8bbe 546b cbbe abfb dbbe 4284 5bbe
00000120: 1f9d 19bf e1ee 94be 16ce fbbe 537f 9abe
00000130: 942b 96be b1dd 83be 8aea 08bf 8a63 0bbf
00000140: 4165 14bf cdbe c0bd c855 8ebd 554e aabe
00000150: 3d65 4ebe 2ff7 f3be 302d f0be db10 1abf
00000160: c481 9dbe b4a8 bfbe 3060 c7bd 5413 39bf
00000170: ff36 a6be f1de 63be dc04 e1be 0006 ffbe
00000180: a914 e8bd 0c69 ecbe 5181 65be a18e 00be
00000190: d403 06bf ae78 fdbe 296d ddbe 9b2b b6be
000001a0: 1c72 b1be ded6 2ebe cbc3 e0be 69b4 e5be
000001b0: b4cd 4cbe de0f d4be 13dc 0fbd 5f32 8abe
000001c0: 171b dbbe 1da2 5dbe 76b4 39be 9aac b9bd
000001d0: 6644 f3be 7d9f 05bf 76d5 f8be 9171 0fbf
000001e0: 926f 9fbe 8967 03bf e7ec 32be bddb 8dbe
000001f0: e040 00bf d59a bebe 3999 a6be 7c2a dcbe
00000200: 44a8 dbbe 9212 93bd 2a1c d7bd a472 e7be
00000210: 7350 0abf b16c 9fbe 87b3 e3be 2113 ffbe
00000220: 3d3d ecbe dc7f 34be b7be d2be 363d b6be
00000230: bb05 71be f7ae 4bbe 7acf a9be 79fc 02bf
00000240: 25b6 5ebe c04e 2bbe 002c dbbe f37e 1fbf
00000250: 4209 43be 3947 a8be 48e6 14be 3484 fabd
00000260: 8711 10bf 4c33 98be 4395 11bf e725 ecbe
00000270: 5ce1 dabe 4282 84be 2cd6 89be e900 4ebc
00000280: d603 04bf 408f f8be f380 73be f24f c4be
00000290: 13d8 ccbd af68 00bf 3c9c 51be 0fac 0cbe
000002a0: 1554 c3be 6f28 d6be 6ea5 bcbe 5615 06be
000002b0: 3f42 48be 5f97 07bf 16a0 ebbe 0db8 b4be
000002c0: 73f0 79bc a420 ecbe 8cdb f1be 8abe e4be
000002d0: de3a d0be 1cd4 8dbd 0377 07bf 24bc dbbe
000002e0: 7e15 71be 4cea aabe 6617 f3bd 8e4d f6be
000002f0: 0439 debe 37d2 9bbd 6de1 a9be 3b4a 1dbf
00000300: f57b f7be dc23 dfbe d8fd b6be 35bf 0bbf
00000310: ee1c 09be 4cda a8be 7195 f4bd e507 60be
00000320: e570 afbd cff9 29be 1387 8dbe 702a dbbe
00000330: 5968 14bf ebd5 28bf a62b 11bf 348a 1abf
00000340: 59d0 3dbe f307 06be 19c7 b2be 1d4e 78be
00000350: f6af b7be 2882 f2be 7524 51be 63ca 55be
00000360: 3e25 d6be 0110 92be 29ef e1be 69f5 88be
00000370: 1742 e5be 54c3 08bf 83e9 e3bb e9be 5cbe
00000380: 800b 06be 2b7b bfbe b497 fcbe fcdd 90be
00000390: 9b6b ccbd 6f70 20bf 9eb1 77be a887 60be
000003a0: 0061 dbbe b55f b5be 901a f3be da49 4cbe
000003b0: 9718 f1be 42e0 c1bb 44d3 bebe 02e2 c9be
000003c0: 7c16 8ebe 8225 dbbe c917 c2be f719 cbbe
000003d0: 6c1b c1be 9b74 7cbe 591b d0bd f9a7 f4be
000003e0: 9961 3fbe f8e8 95be 91a4 b3be b6a5 a0be
000003f0: 9a83 cebe d267 4cbe b6d0 b1be c8ca 83bd
-0.1995385 -0.23852703 -0.35362545 -0.56642723 -0.33376166 -0.2645155 -0.2883621 -0.45222604
-0.12327386 -0.020201989 -0.60692316 -0.4642698 -0.2837669 -0.25010568 -0.43255064 -0.17801723
-0.20947434 -0.43184865 -0.4324744 -0.5267855 -0.40133455 -0.5302462 -0.3629936 -0.16086572
-0.58005273 -0.12245568 -0.28228518 -0.58234775 -0.33778736 -0.18888022 -0.24340582 -0.48561308
-0.27210182 -0.38443515 -0.23390241 -0.20853886 -0.20421578 -0.16358167 -0.27775073 -0.15393002
-0.4729089 -0.40991566 -0.16687879 -0.48314005 -0.22546771 -0.14013186 -0.23449174 -0.120090134
-0.43976673 -0.15041363 -0.15397689 -0.5221447 -0.19272761 -0.2838954 -0.17417103 -0.49502903
-0.14147703 -0.5899756 -0.32139397 -0.47314394 -0.26710448 -0.17437755 -0.48117122 -0.16558298
-0.614369 -0.41691372 -0.3693379 -0.18797953 -0.27280137 -0.39730322 -0.42965445 -0.21437171
-0.6000537 -0.290885 -0.4918067 -0.30175266 -0.29330122 -0.25755075 -0.5348288 -0.5444876
-0.57967 -0.09411392 -0.06949955 -0.33262888 -0.20155807 -0.47649524 -0.46909475 -0.6018197
-0.30763066 -0.37433398 -0.09735143 -0.7229512 -0.32463834 -0.22253014 -0.4394902 -0.49809265
-0.113320656 -0.46173894 -0.22412612 -0.12554409 -0.5234959 -0.49506134 -0.43247345 -0.35580143
-0.3465737 -0.17074153 -0.43899378 -0.44864205 -0.20000345 -0.41418356 -0.03512199 -0.26991555
-0.42794105 -0.21643873 -0.18135247 -0.09066124 -0.4751312 -0.52196485 -0.48600358 -0.56032664
-0.3113981 -0.5132986 -0.17473184 -0.2770671 -0.5009899 -0.37227502 -0.32538775 -0.43001163
-0.42901814 -0.071812764 -0.10503419 -0.4520465 -0.54029006 -0.31137612 -0.44472906 -0.49819282
-0.4614047 -0.176269 -0.4116113 -0.35593575 -0.23537342 -0.19890963 -0.33166105 -0.5116649
-0.2174917 -0.1672926 -0.42807007 -0.62303084 -0.190465 -0.3286684 -0.1454097 -0.12232247
-0.56276745 -0.29726636 -0.5686838 -0.46122667 -0.4275006 -0.2588063 -0.26921213 -0.012573459
-0.51568353 -0.4854679 -0.23779659 -0.38342243 -0.100021504 -0.50159734 -0.20469755 -0.1373751
-0.38150087 -0.41827723 -0.36844963 -0.13094077 -0.19556521 -0.5296535 -0.46020573 -0.3529667
-0.0152550815 -0.46118653 -0.47237813 -0.4467662 -0.40669912 -0.06925222 -0.5291597 -0.42916977
-0.23543355 -0.3338188 -0.11869697 -0.48106045 -0.43402874 -0.07608455 -0.331798 -0.6144139
-0.4833676 -0.43582046 -0.35740542 -0.54588634 -0.13389942 -0.32979047 -0.11942566 -0.21878012
-0.08566455 -0.165992 -0.27642116 -0.42805815 -0.5797172 -0.6595141 -0.5670723 -0.6036713
-0.1853651 -0.1308897 -0.34917524 -0.24248548 -0.35876435 -0.47364926 -0.20424064 -0.20877986
-0.4182529 -0.28527835 -0.44127777 -0.26749733 -0.44776985 -0.5342305 -0.006955327 -0.21557201
-0.13090324 -0.37398657 -0.4933449 -0.2829436 -0.099814616 -0.6267156 -0.2418885 -0.21926749
-0.42847443 -0.3542458 -0.47481203 -0.19950047 -0.47089073 -0.005916626 -0.37270558 -0.39430243
-0.2775153 -0.42802054 -0.37908772 -0.39668247 -0.37716234 -0.24653856 -0.10161466 -0.47784403
-0.18689574 -0.29279304 -0.35086492 -0.31376427 -0.4033478 -0.1996148 -0.34729546 -0.06435162
