checkpoint_actor_agent_0_episode_7950.pth (torch_old, 300913 bytes, 14 tensors)

fc1.weight f4 [256, 24]
0	0xbd9d451b	-0.076791964
1	0x3c18ed18	0.009333871
2	0x3ccd229b	0.025040915
3	0xbd142125	-0.03616442
4	0x3d25b4da	0.040455677
5	0xbddc02f3	-0.1074275
6	0xbc647629	-0.013944187
7	0xbd413c1a	-0.047176458
8	0xbcfedc39	-0.03111087
9	0x3d8ba6cc	0.06818923
10	0x3b3707ff	0.002792835
11	0xbd25d841	-0.04048944
12	0x3d3f51fe	0.046709053
13	0xbc53721f	-0.012905627
14	0xbac95b9e	-0.0015362387
15	0x3c8c046a	0.017091949
16	0xbd6cd63b	-0.057821494
17	0x3cdc1973	0.026867604
18	0x3cdaf8c2	0.026729945
19	0xbd1fa129	-0.038972054
20	0xbbfd7e00	-0.0077359676
21	0x3c4b9542	0.012425723
22	0x3cc2b082	0.023765806
23	0x3c241ea4	0.010017071
24	0x3da409a7	0.080096535
25	0xbcf8b1d7	-0.030358238
26	0xbca6e6ce	-0.020373728
27	0xbcd70d2f	-0.026251404
28	0x3d4f43bc	0.050601706
29	0xbc963c22	-0.01833922
30	0xbc8efb88	-0.017453924
31	0xbd652268	-0.055941015
32	0x3d37e8ad	0.04489963
33	0xbd51b515	-0.051198084
34	0xbb6e0141	-0.0036316665
35	0x3c5095ba	0.01273101
36	0x3d9cfa5e	0.07664941
37	0x3c02a686	0.007974273
38	0xbc341d58	-0.010993324
39	0xbd634a45	-0.05549075
40	0x3e230be9	0.15922512
41	0xbd0d6b57	-0.034526195
42	0xbbb6bd76	-0.0055767847
43	0x3caa1178	0.020760283
44	0xbaa8f6a7	-0.0012890891
45	0x3cde1090	0.027107507
46	0xba02b12b	-0.00049855065
47	0x3cd8b220	0.026452124
48	0xbd085063	-0.033279788
49	0x3d9a3b9d	0.075309016
50	0x3d561ba5	0.052272458
51	0x3d2853a9	0.04109541
52	0x3d2d21e8	0.042268664
53	0x3d91836b	0.07105144
54	0xbd507896	-0.05089625
55	0x3d931a1a	0.07182713
56	0x3cb94307	0.022614969
57	0x3da9030f	0.082525365
58	0x3d636d0e	0.055523925
59	0xbd38a172	-0.04507584
60	0x3d019be2	0.031642802
61	0x3d873ea5	0.06603745
62	0xbd4d12d8	-0.0500668
63	0x3cb91ec0	0.02259767
64	0xbc478b9a	-0.01217928
65	0x3d86de83	0.065854095
66	0xbd00ac8a	-0.031414546
67	0xbd8eb7c7	-0.069686465
68	0xbd6a4f4a	-0.057204522
69	0x3d825da2	0.06365515
70	0x3d2dd8b9	0.04244301
71	0x3c64b89d	0.013960031
72	0x3cd1c1dc	0.025605135
73	0xbc969e36	-0.018385988
74	0x3d1986d4	0.037482098
75	0xbbc346e5	-0.005959379
76	0x3d16d1de	0.03682124
77	0xbd80faff	-0.06297874
78	0xbc991ff6	-0.018691998
79	0x3d3abc89	0.045589957
80	0xbbabdfad	-0.00524517
81	0x3ce3239b	0.027726939
82	0xbd11ba51	-0.035578076
83	0xbc4253ea	-0.011860827
84	0x3c910ac5	0.01770533
85	0xbd93d89c	-0.07219049
86	0x3d0d971d	0.03456794
87	0x3d03d06a	0.03218118
88	0xbd1ffd05	-0.039059658
89	0x3cf3eeb9	0.029776918
90	0x3d72c622	0.059270985
91	0xbca13b3a	-0.019681562
92	0xbd38a4e8	-0.04507914
93	0xbd64b858	-0.055839866
94	0x3d21df58	0.039519638
95	0xbd9f5e53	-0.07781663
96	0xbcd47681	-0.025935413
97	0x3d3e595d	0.046471942
98	0xbbcfd7c6	-0.006342861
99	0x3ca67247	0.020318164
100	0xbdd4b15a	-0.103853896
101	0xbc143cb4	-0.009047676
102	0x3b92b479	0.0044770804
103	0xbcbed822	-0.02329642
104	0x3ca2b01f	0.019859372
105	0xbd7c3254	-0.061571434
106	0xbc9ae15a	-0.018906284
107	0x3c8d4a0f	0.017247228
108	0x3d1c441e	0.0381509
109	0x3cf1ac70	0.02950117
110	0x3c68b961	0.014204354
111	0x3b212609	0.002458932
112	0x3cd1fdcf	0.02563372
113	0x3c9e6489	0.019335048
114	0xbb852a2e	-0.004063866
115	0x3d05bebe	0.03265261
116	0x3d96f584	0.07371047
117	0x3e0e0eaa	0.13872781
118	0x3ac36ed2	0.0014910346
119	0xbcaf909e	-0.021431264
120	0xbc2f72f3	-0.010708558
121	0x3bd5fbfa	0.006530282
122	0xbce7870a	-0.028262634
123	0xbccdb434	-0.025110342
124	0x3c96d6ac	0.01841291
125	0xbdd1c06f	-0.10241782
126	0x3cd8df1c	0.026473574
127	0xbb792736	-0.0038017756
128	0x3d415a01	0.047204975
129	0xbd1590c2	-0.036515005
130	0x3d85e22a	0.06537278
131	0xbcb39a85	-0.021924267
132	0xbbc9a939	-0.006154206
133	0x3bf4b3f7	0.0074677425
134	0xbb5b4c11	-0.0033462087
135	0xbcdb057f	-0.02673602
136	0xbd3a4eb5	-0.045485217
137	0x3d374e0b	0.044752162
138	0x3d47aa8a	0.048746623
139	0xbd40f41d	-0.047107805
140	0xbd5e2b10	-0.054240286
141	0x3dcc117c	0.099642724
142	0x3b8cc664	0.004296111
143	0xbd3e5cdb	-0.046475273
144	0xbc35892b	-0.011080067
145	0xbc59872f	-0.013276859
146	0x3c8362e6	0.01603837
147	0xbc90c7d4	-0.01767341
148	0x3c90f53c	0.017695062
149	0xbc1a6cd6	-0.009425363
150	0xbc7bad88	-0.015361197
151	0x3d25998b	0.040429633
152	0xbd2c6b97	-0.042094793
153	0x3cb89cd2	0.022535715
154	0xbc59107d	-0.01324856
155	0x3d34adb2	0.04411096
156	0x3d4f5523	0.050618302
157	0xbcf75e0a	-0.030196209
158	0x3c8c1c26	0.017103266
159	0xbd8418d8	-0.06450051
160	0xbd5b37f1	-0.053520147
161	0xbc1157f5	-0.008871068
162	0xbabdd78e	-0.0014483796
163	0x3bb971d9	0.0056593237
164	0xbd834ffa	-0.06411739
165	0x3e460a97	0.19339977
166	0xbc3b83c5	-0.0114449905
167	0x3ce12b32	0.027486417
168	0xbd8142a8	-0.06311542
169	0xbd1cb5b5	-0.038259227
170	0xbc6f9c1a	-0.01462462
171	0x3d1e378e	0.0386272
172	0x3c57dd16	0.01317527
173	0x3e44ecbc	0.19230932
174	0x3c61cf74	0.013782371
175	0xbd191f1d	-0.037383188
176	0xbce9c3f9	-0.02853583
177	0xbc7afa7d	-0.01531851
178	0xbca2d778	-0.019878134
179	0xbc5e33b6	-0.013562134
180	0x3baeb696	0.0053318245
181	0x3cc71a73	0.024304604
182	0xbcae0be4	-0.021245904
183	0x3beba37d	0.00719112
184	0xbda181bd	-0.07886074
185	0xbdc5f45c	-0.096657485
186	0xbd2de8ac	-0.04245822
187	0xbd16fc4f	-0.036861714
188	0x3d87330e	0.06601535
189	0x3ce49e63	0.027907556
190	0x3d23c3c8	0.039981633
191	0x3d9d4a02	0.076801315
192	0x3d026d47	0.031842496
193	0xbd1f0a27	-0.03882804
194	0x3c835039	0.016029464
195	0x3b7c6f0c	0.0038518338
196	0x3bed1dd1	0.0072362204
197	0xbcbedc90	-0.023298532
198	0xbc53799f	-0.012907415
199	0xbba34a00	-0.0049831867
200	0xbd152f36	-0.036421977
201	0xbd9e103b	-0.077179395
202	0x3c05df1c	0.008170869
203	0xbcc3b12d	-0.023888195
204	0xbd974d80	-0.07387829
205	0xbd485c31	-0.048916046
206	0x3a75801f	0.00093651
207	0x3a1478bc	0.0005663743
208	0x3d6179f8	0.05504796
209	0xbcdce5c8	-0.026965037
210	0x3d4fa0e5	0.05069055
211	0xbd706278	-0.058687657
212	0xbde8845f	-0.11353373
213	0xbcff44a8	-0.031160668
214	0xbd20cb9a	-0.03925667
215	0xbc0f712d	-0.008755011
216	0xbbf4716b	-0.0074598095
217	0xbd33f390	-0.04393345
218	0x3d21a082	0.039459713
219	0xbd69e682	-0.057104595
220	0x3d48f1ce	0.049058728
221	0x3dd7cabc	0.105367154
222	0xbc2c7d39	-0.010527902
223	0xbdd1d270	-0.10245216
224	0x3dbd8ded	0.09255586
225	0xbd7d30d7	-0.061814155
226	0x3c380cc2	0.01123351
227	0xbbd419d1	-0.006472804
228	0x3d844433	0.064583205
229	0xbbff8595	-0.0077979066
230	0xbcd5e3ff	-0.026109694
231	0xbd89f30e	-0.06735812
232	0xba55572d	-0.00081382954
233	0xbda34a3c	-0.079731435
234	0xbcb62fae	-0.022239532
235	0x3c923a95	0.0178502
236	0x3d52306e	0.051315717
237	0xbaffd7bf	-0.0019519253
238	0xbc937e24	-0.018004484
239	0xbbd94c33	-0.006631398
240	0x3cb8a687	0.022540344
241	0x3d0623a7	0.032748844
242	0xbc9669a1	-0.018360915
243	0xbc2919f8	-0.010321133
244	0x3d1c27e7	0.03812399
245	0xbb8c8506	-0.0042883186
246	0x3c854fc5	0.016273389
247	0x3cd98d4f	0.026556639
248	0xbd805921	-0.06267
249	0x3d79cae6	0.060984515
250	0xbd0842b6	-0.033266746
251	0xbd02fc01	-0.03197861
252	0x3a5207cf	0.0008012028
253	0xbd85248b	-0.06501111
254	0x3d23e5c4	0.040014043
255	0x3c9d1b8f	0.01917818

fc1.bias f4 [256]
0	0xbda06673	-0.07832041
1	0x3dea881c	0.11451742
2	0x3dc657a0	0.09684682
3	0x3de6624e	0.11249219
4	0xbd4700a3	-0.04858459
5	0xbe370bdd	-0.17875619
6	0xbe4ca440	-0.19984531
7	0x3c890450	0.01672569
8	0xbe4a3657	-0.19747292
9	0xbe09c95b	-0.13455717
10	0x3e089671	0.13338639
11	0xbd00ad37	-0.03141519
12	0x3d91e7f9	0.071243234
13	0xbe246369	-0.16053547
14	0x3d048e9d	0.03236257
15	0x3e3c5973	0.18393497
16	0x3d17fe30	0.037107646
17	0x3d137935	0.036004264
18	0xbe00fd70	-0.12596679
19	0xbe17226b	-0.14759223
20	0x3df3b4de	0.11899732
21	0xbe3b22dc	-0.18275017
22	0xbc4ce592	-0.012505906
23	0xbe277dc7	-0.16356574
24	0x3c6b0942	0.014345469
25	0xbe4cd188	-0.20001805
26	0x3d8a64e7	0.06757527
27	0x39baa468	0.00035599177
28	0xbe097a80	-0.13425636
29	0xbd9ba716	-0.076002285
30	0xbda70e34	-0.08157006
31	0xbdbba66a	-0.091626
32	0xbd5080c4	-0.05090405
33	0x3d1a0deb	0.03761093
34	0xbdf0899c	-0.11744997
35	0x3d531f96	0.051543795
36	0xbe2c3d33	-0.1682022
37	0x3e44d9ca	0.19223705
38	0xbdfa8ba4	-0.122336656
39	0x3db1c488	0.086800635
40	0xbe0f1788	-0.1397382
41	0xbe0eab67	-0.13932572
42	0xbcf57467	-0.029962732
43	0xbdee26ad	-0.116284706
44	0xbd69e0eb	-0.057099264
45	0xbdb5d88d	-0.088791944
46	0xbd69d23d	-0.057085264
47	0xbe2197ee	-0.15780613
48	0x3e4bdbed	0.19908114
49	0x3debc8a9	0.11512882
50	0xbd955dd6	-0.072932884
51	0x3e17c98f	0.14822982
52	0xbdba40cf	-0.090943925
53	0xbe2abf7a	-0.16674605
54	0x3d85ed73	0.065394305
55	0xbd8fdba0	-0.07024312
56	0x3e1d30cf	0.1535065
57	0xbd610406	-0.054935478
58	0xbe2a2d6f	-0.16618894
59	0x3e3040fb	0.17212288
60	0x3d3baa44	0.045816675
61	0x3d7dc55a	0.061955787
62	0xbca15d63	-0.01969785
63	0xbe2633fd	-0.1623077
64	0x3d86928c	0.0657092
65	0x3a0e1c26	0.00054210646
66	0xbe0a6456	-0.13514838
67	0x3dee39fe	0.11632155
68	0xbe43bb86	-0.19114503
69	0xbe01b980	-0.12668419
70	0xbd42f248	-0.04759434
71	0xbe43ed76	-0.19133553
72	0xbe3c25fa	-0.18373862
73	0xbd7b339a	-0.061328508
74	0xbd1d988d	-0.038475562
75	0x3e195f72	0.14977816
76	0x3dc314db	0.09525462
77	0x3e425810	0.18978906
78	0x3d81d677	0.06339734
79	0x3cdfa41d	0.027299935
80	0xbd212050	-0.039337456
81	0xbdb05b59	-0.08611173
82	0xbe3b3f71	-0.1828592
83	0xbe3eebad	-0.1864459
84	0x3db1e0e4	0.086854726
85	0xbe044e33	-0.12920456
86	0xbdab7d8c	-0.083735555
87	0x3dc3590d	0.095384695
88	0xbe013636	-0.12618336
89	0x3d9a901c	0.07547018
90	0xbc38fe1f	-0.011291056
91	0x3d2c6e9a	0.042097665
92	0xbdbe6dbf	-0.09298276
93	0x3e18687e	0.1488361
94	0xbe2af7af	-0.16696046
95	0xbe4323ab	-0.19056575
96	0x3e231564	0.15926129
97	0xbe0d3770	-0.13790679
98	0x3e48a5b4	0.1959446
99	0x3db9b434	0.09067574
100	0x3da15cd4	0.07879034
101	0xbccf1207	-0.02527715
102	0x3d1d40d6	0.03839191
103	0x3d565eb1	0.0523364
104	0xbdc4a121	-0.096010454
105	0x3e19da7e	0.15024754
106	0x3e00797a	0.1254634
107	0x3c44a0d6	0.012001237
108	0x3d6fbb7f	0.05852842
109	0xbccaf2cf	-0.024773983
110	0xbd970052	-0.07373108
111	0xbe211ed9	-0.15734424
112	0xbda099d3	-0.0784184
113	0xbe482c70	-0.19548202
114	0xbd8373a8	-0.06418544
115	0x3ddab7fe	0.10679625
116	0x3e4acdce	0.19805071
117	0xbe3f4682	-0.1867924
118	0xbe2dc1eb	-0.16968505
119	0x3e2c8546	0.16847715
120	0xbd939436	-0.07206003
121	0x398fc12f	0.00027419018
122	0x3e032a61	0.12809135
123	0x3e39230c	0.18079776
124	0x3d9e4938	0.07728809
125	0x3d4f195c	0.050561294
126	0xbba105ef	-0.0049140374
127	0x3ba87d02	0.005141855
128	0x3da8aea7	0.08236437
129	0xbe449c14	-0.19200164
130	0xbe4a564f	-0.19759487
131	0x3e0cf134	0.13763887
132	0xbe4c99a5	-0.19980486
133	0x3ddba53a	0.10724874
134	0x3e174cb3	0.14775352
135	0x3e0a9c01	0.13536073
136	0x3d7f0848	0.062263757
137	0x3cb9c6bb	0.02267777
138	0x3dc10e58	0.09426564
139	0x3df91c87	0.12163644
140	0x3bd2c81b	0.006432546
141	0xbe166869	-0.14688267
142	0x3e020797	0.12698208
143	0x3cba2429	0.02272232
144	0x3dfbcf90	0.12295449
145	0xbe0c1364	-0.13679272
146	0xbd510057	-0.051025715
147	0xbe064bf6	-0.13114914
148	0x3c3f79a0	0.0116867125
149	0x3e319fcf	0.17346118
150	0x3d1ef11c	0.03880416
151	0x3e31a912	0.17349651
152	0x3e1993bf	0.14997767
153	0xbe0fc543	-0.14040093
154	0x3e48a5fd	0.1959457
155	0x3c39b990	0.011335745
156	0x3e2f03c1	0.17091276
157	0x3d21e154	0.03952153
158	0xbd0ec0e9	-0.034851942
159	0x3e317217	0.17328678
160	0xbe1aa952	-0.15103653
161	0x3b95de26	0.0045736013
162	0xbcea2c07	-0.028585447
163	0x3c170875	0.009218325
164	0xbd6fdd8e	-0.0585609
165	0x3e25f3be	0.16206262
166	0xbc2ef521	-0.0106785605
167	0x3dacbc5a	0.08434363
168	0x3db403b5	0.087897696
169	0x3e3e728e	0.18598387
170	0x3d96578b	0.07340916
171	0xbe505d3c	-0.20348066
172	0xbe2d489b	-0.16922228
173	0xbe457a81	-0.19285013
174	0xbe4ceced	-0.20012255
175	0xbe2de8b2	-0.16983297
176	0xbb42d9b5	-0.0029731814
177	0x3e45d493	0.19319372
178	0xbe07477f	-0.13210867
179	0x3dafdcce	0.08587037
180	0xbdbebe80	-0.09313679
181	0x3e21eeb6	0.15813717
182	0x3e07f10e	0.13275549
183	0x3dc23ef8	0.094846666
184	0x3e382491	0.17982699
185	0xbe1da6fa	-0.15395728
186	0xbe317d55	-0.17332967
187	0xbdd58bce	-0.10427056
188	0x3d295c3a	0.04134772
189	0x3e38ca36	0.18045887
190	0x3e0a02e9	0.13477673
191	0x3d82aa2d	0.06380115
192	0xbd145e32	-0.036222644
193	0xbded5cac	-0.115899414
194	0x3e4fe015	0.20300324
195	0xbe36f536	-0.17866978
196	0xbe102f87	-0.1408063
197	0x3df60716	0.1201307
198	0x3e230ac4	0.15922076
199	0x3d5bbf9b	0.053649526
200	0xbb699157	-0.0035639608
201	0xbcc6ad87	-0.024252666
202	0x3cd9e56a	0.026598651
203	0xbdd25ad0	-0.10271227
204	0x3e4ea70f	0.20180915
205	0x3e50c103	0.20386128
206	0xbda1c8e3	-0.07899644
207	0x3e1124cf	0.14174198
208	0xbd46bc35	-0.048519332
209	0xbe179e8b	-0.14806573
210	0x3d0f877b	0.035041314
211	0xbd1fd8e2	-0.039025195
212	0x3e2dd1e3	0.16974597
213	0x3c67bfa3	0.014144811
214	0xbd376841	-0.04477716
215	0xbe2609be	-0.16214654
216	0x3e08bdc0	0.13353634
217	0x3e0b8353	0.13624315
218	0x3ceb4678	0.028720126
219	0xbc927aed	-0.017880881
220	0xbd8c0e53	-0.0683867
221	0x3d41cd8c	0.047315165
222	0x3e4896fa	0.19588843
223	0xbd09be14	-0.03362854
224	0x3c9882c2	0.018617038
225	0xbe472458	-0.19447458
226	0x3d559118	0.052140325
227	0xbdb31c98	-0.08745688
228	0xbd463db8	-0.048398703
229	0xbdddb70b	-0.10825928
230	0x3e418f67	0.1890236
231	0x3e0e55a1	0.13899852
232	0xbdb40747	-0.087904505
233	0xbd4d11e1	-0.05006588
234	0x3d7ea6de	0.062170856
235	0x3d9d5076	0.07681362
236	0xbdc4cbc5	-0.096091785
237	0x3da9c791	0.082900174
238	0x3d04e906	0.03244879
239	0x3df029ff	0.1172676
240	0xbde1d309	-0.1102658
241	0xbe06f9a9	-0.13181175
242	0x3dc25d2f	0.094904296
243	0xbc0257e4	-0.007955525
244	0xbdb5fce7	-0.08886128
245	0x3e240fc2	0.16021636
246	0xbcb9c76f	-0.022678105
247	0xbe0b94a8	-0.13630927
248	0xbceea98a	-0.029133577
249	0xbdc1b0d5	-0.09457556
250	0xbd9061f3	-0.07049932
251	0xbe2c1291	-0.16803958
252	0x3e26d7cb	0.16293256
253	0x3e37df00	0.17956161
254	0xbe3054cb	-0.17219846
255	0x3e02c561	0.12770607

bn1.weight f4 [256]
0	0x3f178bb0	0.5919752
1	0x3e96e62f	0.2947249
2	0x3ec86a3a	0.39143544
3	0x3f0977bd	0.5369833
4	0x3f32cba4	0.6984198
5	0x3f57c644	0.84286904
6	0x3f7685de	0.96298015
7	0x3f064ec8	0.5246396
8	0x3f77d8df	0.96815294
9	0x3e48bc6b	0.19603126
10	0x3f0290ec	0.51002383
11	0x3e746218	0.23865545
12	0x3f2c4f2d	0.6730831
13	0x3f237d48	0.6386304
14	0x3e54413b	0.20728008
15	0x3e1ed854	0.1551221
16	0x3ece70ee	0.40320534
17	0x3eb2b1bf	0.34901235
18	0x3ea2b47c	0.31778324
19	0x3da8b7c3	0.08238175
20	0x3e39d267	0.18146668
21	0x3f5d1c97	0.8637175
22	0x3e853d11	0.26023152
23	0x3f32720e	0.69705284
24	0x3ef4ab30	0.47786856
25	0x3ec1455d	0.37748232
26	0x3f2bcfad	0.67113763
27	0x3f5668c9	0.8375364
28	0x3f1fe29b	0.6245515
29	0x3f0ae853	0.5426075
30	0x3f548d4d	0.8302811
31	0x3f0d56d7	0.5521063
32	0x3f13394a	0.5750929
33	0x3f6e3ec3	0.93064517
34	0x3e2cdc42	0.16880897
35	0x3f594602	0.8487245
36	0x3e8aca3c	0.27107418
37	0x3ee97049	0.4559348
38	0x3e817a71	0.25288728
39	0x3f6130dc	0.8796518
40	0x3e437bc4	0.19090182
41	0x3e88d725	0.26726642
42	0x3f089c44	0.5336344
43	0x3e8ff76a	0.2811845
44	0x3f0c2df9	0.5475765
45	0x3f6d9e11	0.92819315
46	0x3dade68e	0.084912404
47	0x3e8d520e	0.27601665
48	0x3e031698	0.12801588
49	0x3f6509c0	0.89468
50	0x3f2b59d0	0.6693392
51	0x3e2f14c8	0.17097771
52	0x3d4f3b5c	0.05059372
53	0x3f52cdcf	0.8234529
54	0x3f75ecb9	0.96064335
55	0x3e532817	0.20620762
56	0x3f2c710b	0.6735999
57	0x3ed2e63f	0.4119129
58	0x3f4cbc06	0.799744
59	0x3e70f13e	0.23529527
60	0x3f4d9bb5	0.80315715
61	0x3f749453	0.95538825
62	0x3f56b0f1	0.8386374
63	0x3ec85465	0.39126888
64	0x3f137ca1	0.57612044
65	0x3f2c3321	0.67265517
66	0x3e6b2ed3	0.22967081
67	0x3e87b087	0.26501867
68	0x3ccac2aa	0.024751026
69	0x3f5309bd	0.82436734
70	0x3e729e1e	0.2369313
71	0x3f784b98	0.96990347
72	0x3edae50b	0.4275287
73	0x3ee330d2	0.44373184
74	0x3f302444	0.68805337
75	0x3eef30c7	0.46716902
76	0x3e28f8a8	0.16501105
77	0x3f070ce8	0.5275407
78	0x3eb813ad	0.3595251
79	0x3e16f3e1	0.1474147
80	0x3e581412	0.21101406
81	0x3f20d009	0.62817436
82	0x3f0b3875	0.5438302
83	0x3ea34239	0.3188646
84	0x3f1d6ba1	0.61492354
85	0x3eae7ec1	0.3408108
86	0x3dfef4c6	0.124490306
87	0x3f20a6e6	0.62754667
88	0x3ea09c9e	0.3136949
89	0x3e9df76f	0.3085284
90	0x3f57789f	0.8416843
91	0x3f5e04b5	0.8672593
92	0x3c9c86ab	0.019107183
93	0x3f65d8c7	0.897839
94	0x3f6fcaef	0.9366903
95	0x3e37c149	0.17944826
96	0x3c55f89a	0.0130597595
97	0x3e021e66	0.12706909
98	0x3ed8c027	0.423341
99	0x3f220ac1	0.6329766
100	0x3f18a6b5	0.59629375
101	0x3f1399f9	0.5765682
102	0x3f123607	0.5711369
103	0x3e0d2abb	0.13785832
104	0x3f81c5db	1.0138506
105	0x3f684440	0.9072914
106	0x3f4bd98f	0.79628843
107	0x3f0aab7a	0.541679
108	0x3eb212b9	0.3477991
109	0x3efc4b36	0.4927613
110	0x3ddd7dc2	0.10815002
111	0x3f599e2c	0.85006976
112	0x3e273e50	0.16332364
113	0x3f696f07	0.9118504
114	0x3f680b12	0.9064189
115	0x3e937c53	0.2880579
116	0x3d64db6b	0.055873316
117	0x3f286d5b	0.65791863
118	0x3e53c11a	0.20679131
119	0x3ca4c8a7	0.02011521
120	0x3e861f11	0.26195577
121	0x3f5cbe08	0.86227465
122	0x3e8056a2	0.25066096
123	0x3e9a9b34	0.30196536
124	0x3e9e7a36	0.30952615
125	0x3f47a6b5	0.7798875
126	0x3f26d343	0.6516611
127	0x3f2dcc87	0.6789021
128	0x3eb7dd7d	0.3591117
129	0x3e7ea812	0.24868801
130	0x3f47188f	0.7777185
131	0x3f324fe3	0.6965315
132	0x3f7de92c	0.9918392
133	0x3dd2e77e	0.1029806
134	0x3e288ff7	0.16461168
135	0x3f453465	0.7703307
136	0x3f10f5c2	0.56624997
137	0x3f4fedad	0.8122204
138	0x3eca9c59	0.3957241
139	0x3f702f28	0.93821955
140	0x3f2a3597	0.6648802
141	0x3ebc292f	0.3675017
142	0x3e9ea242	0.30983168
143	0x3f29647f	0.6616897
144	0x3f05400a	0.5205084
145	0x3e97469e	0.29546064
146	0x3e54bd1e	0.20775267
147	0x3f27da8c	0.6556785
148	0x3f364bbd	0.7120932
149	0x3f68b32b	0.9089839
150	0x3ebbb820	0.36663914
151	0x3e896de9	0.26841667
152	0x3e5273c0	0.20551968
153	0x3e1d6604	0.15370947
154	0x3f676fa6	0.90404737
155	0x3e912d10	0.28354692
156	0x3e7c8d3b	0.2466325
157	0x3f52649b	0.8218476
158	0x3f5d7826	0.86511457
159	0x3dd2d6b5	0.10294858
160	0x3ee68013	0.45019588
161	0x3f23a714	0.63926816
162	0x3f154ba4	0.58318543
163	0x3e83c472	0.25735813
164	0x3e45ef5b	0.19329588
165	0x3e4c748d	0.19966336
166	0x3f2338e7	0.637587
167	0x3e95013d	0.29102507
168	0x3de8dcd7	0.11370247
169	0x3f78bdc5	0.97164565
170	0x3f358df1	0.7091971
171	0x3ec9ee35	0.3943955
172	0x3f1371f3	0.5759575
173	0x3eb20163	0.34766683
174	0x3e78911d	0.24274106
175	0x3d922701	0.07136346
176	0x3f5e4e67	0.8683838
177	0x3df4807f	0.11938571
178	0x3e6cd8c9	0.23129572
179	0x3f5af417	0.855287
180	0x3e3ffc33	0.1874855
181	0x3ebf5a78	0.3737371
182	0x3f0507ea	0.519652
183	0x3d6505e6	0.05591383
184	0x3d81e716	0.06342904
185	0x3e0b3727	0.13595258
186	0x3ec9a230	0.39381552
187	0x3ecbe9ef	0.39826915
188	0x3f615f94	0.88036466
189	0x3f4f1da3	0.809046
190	0x3f6a2600	0.91464233
191	0x3e3b2e1a	0.18279305
192	0x3edada3d	0.42744628
193	0x3f41220c	0.75442576
194	0x3f1f11c3	0.6213648
195	0x3e582af7	0.2111014
196	0x3f46c03e	0.7763709
197	0x3ea7fb6e	0.32809013
198	0x3f740b7f	0.9533004
199	0x3dfb33de	0.12265752
200	0x3f380092	0.7187587
201	0x3eeaa6fa	0.45830518
202	0x3e3b06cc	0.18264312
203	0x3f4731d6	0.7781042
204	0x3edabe6a	0.427234
205	0x3f016c4e	0.50555885
206	0x3ea9047f	0.33011243
207	0x3f030adc	0.51188445
208	0x3eb35055	0.35022226
209	0x3f36bb2a	0.7137934
210	0x3efab105	0.4896318
211	0x3f7928e2	0.9732801
212	0x3f29feaf	0.6640424
213	0x3efbe6a2	0.49199396
214	0x3f2fa023	0.68603724
215	0x3ea66fdc	0.32507217
216	0x3de4a205	0.11163715
217	0x3ea26f3d	0.31725493
218	0x3e924276	0.2856633
219	0x3e1f10d1	0.15533759
220	0x3f0db972	0.5536109
221	0x3ee0b24b	0.43886027
222	0x3d2771bd	0.040879954
223	0x3f34de37	0.7065157
224	0x3f3e240f	0.7427377
225	0x3f641525	0.89094764
226	0x3f18979f	0.59606355
227	0x3ed77685	0.4208261
228	0x3f3a0094	0.7265713
229	0x3dda34e7	0.106546216
230	0x3f033c58	0.5126395
231	0x3f3a3f9e	0.7275332
232	0x3f4a3d33	0.7899963
233	0x3f1a7274	0.6033089
234	0x3edff4f8	0.43741584
235	0x3f188346	0.5957531
236	0x3f135656	0.57553613
237	0x3ee30569	0.44340065
238	0x3f52d539	0.823566
239	0x3f6695c3	0.9007227
240	0x3ea15e25	0.3151714
241	0x3f68d604	0.9095156
242	0x3ee3cbc1	0.4449139
243	0x3f187d0e	0.5956582
244	0x3f715a26	0.9427818
245	0x3ea12203	0.3147126
246	0x3f3c20fb	0.73487824
247	0x3efb743d	0.4911212
248	0x3e8bec16	0.27328557
249	0x3ef7848f	0.48343322
250	0x3f6a2ee5	0.91477805
251	0x3f365db7	0.7123675
252	0x3e8e672d	0.27813092
253	0x3f6bc716	0.92100656
254	0x3f0b8f12	0.5451518
255	0x3f673e65	0.9032958

bn1.bias f4 [256]
0	0xbb121aa1	-0.0022293704
1	0x3c82061f	0.01587206
2	0xbc14fcf0	-0.009093508
3	0x3d004e03	0.031324398
4	0x3d2cf540	0.042226076
5	0x3bdfc7f3	0.0068292557
6	0x3cacbb72	0.021085475
7	0x3d4d2c2a	0.050090946
8	0x3bb5598c	0.0055343565
9	0xbacc21be	-0.0015574021
10	0xbe010ade	-0.12601802
11	0xbd2105ba	-0.039312102
12	0xbdb41667	-0.087933354
13	0xbd9719a2	-0.07377936
14	0xbd728cef	-0.059216436
15	0x3d39de37	0.045377936
16	0x3d2432ac	0.040087387
17	0x3d6058c4	0.054772153
18	0x3aca217b	0.0015421355
19	0xbce846b6	-0.02835403
20	0xbc991f67	-0.018691732
21	0xbce97466	-0.028497886
22	0xbdaa035d	-0.08301423
23	0xbdb7b292	-0.089696065
24	0xbcc05e0f	-0.02348235
25	0xbc077332	-0.008267211
26	0x3ccd97d5	0.025096813
27	0xbd1e6d0c	-0.038678214
28	0xbdd1278f	-0.10212623
29	0x3d129b88	0.035792857
30	0x3caf4a43	0.021397715
31	0xbdd90862	-0.10597302
32	0xbde43b04	-0.11144069
33	0x3d76043b	0.06006263
34	0xbc04204d	-0.008064342
35	0x3dc59516	0.096475765
36	0xbd287e5a	-0.041136123
37	0xbe015784	-0.12631041
38	0xbdd03018	-0.10165423
39	0xbc66cf56	-0.014087519
40	0xbd9ee7f5	-0.07759086
41	0x3cee4bbe	0.029088851
42	0xbd63ee71	-0.055647317
43	0x3d15c3e4	0.03656377
44	0xbdf0e85d	-0.1176307
45	0x3d77989f	0.060448285
46	0xbc975df5	-0.01847742
47	0xbd46058a	-0.048345126
48	0xbda3aa74	-0.07991496
49	0x3c67a260	0.014137834
50	0xbc971797	-0.018443866
51	0xbd25a84a	-0.040443696
52	0x3d760119	0.06005964
53	0xbc89cd6a	-0.016821582
54	0x3c5adc17	0.013358138
55	0xbc57d78f	-0.013173952
56	0xbd9f98a1	-0.077927835
57	0xbddb5c52	-0.10710968
58	0xbdb7618e	-0.08954154
59	0xbd894ff8	-0.06704706
60	0x3d072bad	0.033000637
61	0xbc7afc4d	-0.015318942
62	0xbd5e0573	-0.054204416
63	0xbd76b132	-0.06022758
64	0xbdbd7f1b	-0.09252759
65	0x3d19acd9	0.037518356
66	0x3d97c407	0.07410436
67	0xbc8013e7	-0.01563449
68	0xbb931823	-0.0044889613
69	0xbd8275f7	-0.06370156
70	0xbd915310	-0.07095921
71	0xbd830e07	-0.0639916
72	0xbcbbe9aa	-0.022938568
73	0x3dbbdbe4	0.091728
74	0x3ca4be50	0.02011028
75	0x3dad4963	0.08461263
76	0xbd44e72a	-0.048072018
77	0xbd89ba77	-0.067250185
78	0x3c6c7ba7	0.014433778
79	0x3d622901	0.055214886
80	0x3cc935e1	0.024561824
81	0xbda219f4	-0.079151064
82	0x3ce5fd82	0.028074984
83	0xbdf2b031	-0.11850012
84	0xbd462255	-0.048372585
85	0x3d8b0b19	0.06789226
86	0x3d6f39dc	0.05840479
87	0x3ccef466	0.025263023
88	0xbcd293cd	-0.025705243
89	0x3c16a8f4	0.009195555
90	0xbd326e1a	-0.043562032
91	0xbd1e55a5	-0.038655896
92	0x3c819966	0.015820216
93	0xbcf1273c	-0.029437654
94	0x3da9c49f	0.082894556
95	0xbdaf5fbb	-0.08563181
96	0x3d5c6dc7	0.05381563
97	0xbdc80171	-0.097659
98	0x3d596494	0.053074434
99	0xbd8c4f81	-0.06851102
100	0xbd4ed344	-0.050494447
101	0xbcb3f1f1	-0.021965953
102	0xbd339a9a	-0.04384861
103	0xbd9abe12	-0.07555784
104	0xbd6f720c	-0.058458373
105	0x3dc1e023	0.09466579
106	0x3cfdc792	0.030978952
107	0xbd8a236c	-0.067450374
108	0x3d9f8417	0.07788866
109	0xbd8fad12	-0.070154324
110	0x3db40d4a	0.08791597
111	0xbc806626	-0.015673708
112	0xbc4fa25a	-0.012672985
113	0xbdf6b8f8	-0.12046999
114	0xbd2316b7	-0.039816584
115	0x3d61dd6e	0.055142812
116	0x3d1cf826	0.03832259
117	0xbd04fe28	-0.032468945
118	0xbd463ed6	-0.04839977
119	0x3d45825b	0.04822002
120	0xbd2dc70b	-0.04242615
121	0xbde0be4a	-0.10973795
122	0x3b81c7b0	0.003960572
123	0xbd28de5e	-0.04122769
124	0xbd06eb93	-0.032939505
125	0xbd1d6562	-0.038426764
126	0x3d339f9e	0.043853395
127	0xbd512c52	-0.051067658
128	0xbd4c0308	-0.04980758
129	0x3c275174	0.010212291
130	0xbc93f38a	-0.018060464
131	0xbcae387b	-0.021267166
132	0xbd1b2af1	-0.03788275
133	0xbdcb12ab	-0.0991567
134	0xbbbcf75c	-0.005766792
135	0xbd31a41d	-0.0433694
136	0x3c89e170	0.01683113
137	0xbe03db0c	-0.12876529
138	0xbd48dcdf	-0.049038764
139	0xbd0861d4	-0.03329642
140	0xbdde849d	-0.10865138
141	0xbd49c420	-0.049259305
142	0xbd578210	-0.05261427
143	0xbda4171b	-0.080122195
144	0xbd3b32ae	-0.04570263
145	0xbd1c6cd3	-0.03818972
146	0x3cfd5aab	0.030927023
147	0xbdc0ef39	-0.09420628
148	0xbda5ebda	-0.08101626
149	0x3d49249d	0.049107183
150	0xbd63a487	-0.055576827
151	0xbc92a76f	-0.017902104
152	0x3db7b6f5	0.08970443
153	0x3d54459a	0.05182419
154	0xbcb0270f	-0.021503
155	0x3d8aab96	0.06771009
156	0x3ba6b274	0.0050871912
157	0xbdc2a268	-0.09503633
158	0x3cb31bff	0.021863936
159	0xbd973929	-0.07383949
160	0xbd485c85	-0.04891636
161	0x3a1769ab	0.00057759386
162	0xbb81f8fa	-0.003966448
163	0xbdc891c8	-0.097934306
164	0x3db88353	0.09009423
165	0x3d560cb2	0.0522582
166	0xbe544a5c	-0.20731491
167	0x3ce80c5e	0.02832621
168	0xbd4220dc	-0.04739462
169	0xbd526017	-0.05136117
170	0xbe1c3928	-0.15256178
171	0xbc1a2757	-0.009408793
172	0x3caa13e2	0.020761434
173	0x3d8d468f	0.068982236
174	0x3c3e1720	0.011602193
175	0xbc1c65e2	-0.009545775
176	0x3c10f557	0.008847556
177	0x3d33681e	0.043800466
178	0x3d65b1b7	0.056077685
179	0xbb9a3fee	-0.004707328
180	0xbdf322f3	-0.118719004
181	0x3c9418e7	0.01807828
182	0x3d8c6ca7	0.06856661
183	0xbb9623cd	-0.0045819045
184	0xbd658886	-0.056038402
185	0xbd49a9ee	-0.049234323
186	0xbd8ab9ec	-0.06773743
187	0x3d956a43	0.072956584
188	0xbd6a2b68	-0.0571703
189	0x3d34d0f5	0.04414459
190	0xbd9a3674	-0.07529917
191	0xbd9c1239	-0.07620663
192	0x3d812150	0.06305182
193	0xbb75ceb1	-0.003750723
194	0xbd80f436	-0.062965795
195	0x3cfaf1c2	0.030632857
196	0x3d00a49d	0.031406987
197	0x3d12e188	0.035859615
198	0xbd958198	-0.07300109
199	0x3d370f51	0.04469234
200	0xbd28731e	-0.04112541
201	0xbccfaeb6	-0.025351863
202	0x3e3cb43e	0.18428132
203	0xbd8743d7	-0.06604736
204	0xbd1c113a	-0.038102366
205	0xbe6d4d62	-0.2317405
206	0xbcfc8c33	-0.030828571
207	0xbe34ba15	-0.1764911
208	0xbde7d73c	-0.113203496
209	0xbdf5a8bc	-0.11995074
210	0xbcb027f2	-0.021503422
211	0x3d4c1ee9	0.049834166
212	0xbdae777d	-0.08518884
213	0xbdcd4d0d	-0.10024462
214	0x3d1cc543	0.03827406
215	0xbdf33d42	-0.118769184
216	0xbc21ae68	-0.009868242
217	0x3dfcc73e	0.1234269
218	0xbacb2231	-0.0015497861
219	0xbe15b06e	-0.14618084
220	0xbdaaa726	-0.08332662
221	0xbb1a0fd4	-0.002350797
222	0x3d61ebef	0.055156644
223	0xbd2d19f3	-0.042261075
224	0xbdeeef1e	-0.11666702
225	0xbc5e9ae6	-0.013586735
226	0xbe03d71b	-0.12875025
227	0x3d8ca9d9	0.06868333
228	0xbd991fcf	-0.0747677
229	0xbda3a586	-0.079905555
230	0xbd41069a	-0.047125436
231	0x3d327b32	0.04357452
232	0xbc3b4425	-0.011429821
233	0xbc8001e0	-0.015625894
234	0x3cba514c	0.022743843
235	0x3d27eec3	0.040999185
236	0x3bccae83	0.0062463894
237	0xbd0afdc3	-0.033933412
238	0xbbf35ab0	-0.0074265823
239	0xbe29ad75	-0.16570075
240	0x3d4c3de2	0.049863704
241	0xbd5dca7d	-0.054148186
242	0x3d82ba63	0.06383207
243	0x3d224213	0.039613795
244	0x3d5523e6	0.05203619
245	0xbdacc370	-0.08435714
246	0xbde70ba1	-0.11281515
247	0xbd8e3f94	-0.0694572
248	0xbcb211a9	-0.021736937
249	0xbcca7774	-0.024715163
250	0xbce09e35	-0.027419189
251	0xbb647db3	-0.0034864962
252	0xbd6ac12e	-0.057313137
253	0xbdb692c1	-0.0891471
254	0x3c665672	0.014058696
255	0xbd22fb0f	-0.03979021

bn1.running_mean f4 [256]
0	0x3f628f00	0.8849945
1	0xc00134a3	-2.0188377
2	0x3f6a963a	0.9163548
3	0xbd86a752	-0.065748826
4	0x3eb63f02	0.35594946
5	0x3e8be6f1	0.27324632
6	0x3f8df712	1.1091025
7	0x4007ad9f	2.119972
8	0xbf4be929	-0.7965265
9	0xbeb4f0fb	-0.35340104
10	0xbe7c3f35	-0.24633487
11	0xbd539277	-0.05165335
12	0xbda9db6d	-0.08293805
13	0xbfc70f96	-1.5551631
14	0x4005ddd7	2.091665
15	0xbf81d761	-1.0143853
16	0x3fb08f2e	1.3793695
17	0x3eeeb98e	0.46625942
18	0xbf621e66	-0.88327634
19	0xbfcde589	-1.6085674
20	0xbf58b8e0	-0.84657097
21	0xbf751e74	-0.9574959
22	0x3e4246ca	0.18972316
23	0x3f712c2a	0.94208014
24	0xbf0317dc	-0.5120828
25	0xbf821f4f	-1.0165805
26	0x3e287615	0.16451295
27	0x3efc73a9	0.49306992
28	0xbfa138a1	-1.2595407
29	0xbfe7e631	-1.8117124
30	0x3f11135e	0.56670177
31	0xbf9b3ee5	-1.2128569
32	0x3e5551ca	0.20831981
33	0x3f6420ef	0.8911275
34	0x3febb5e2	1.8414881
35	0x3fe31bbb	1.7742838
36	0x3daea469	0.085274525
37	0x3fa7c909	1.3108226
38	0xbfc2465a	-1.517772
39	0x3f760e65	0.96115714
40	0xbfa21293	-1.2661918
41	0xbe81553f	-0.2526035
42	0x3e316f71	0.17327668
43	0x3ee904d0	0.45511484
44	0xbf981ed6	-1.188441
45	0x3ef5f307	0.48036978
46	0x3fc81263	1.5630611
47	0x3f9e00ab	1.2343954
48	0x3e49ae3a	0.19695368
49	0x3f5df72a	0.8670527
50	0x3eea0c04	0.45712292
51	0x40071353	2.1105545
52	0x401082bb	2.2579792
53	0xbf069fe3	-0.5258772
54	0x3fea511a	1.8306
55	0xbf14e533	-0.5816223
56	0x3f5a6834	0.8531525
57	0xbf8abb38	-1.0838385
58	0x3f8af9ad	1.0857445
59	0x3d840639	0.064464994
60	0x3e2ee843	0.17080788
61	0x4026c013	2.6054733
62	0x3f0bb1a4	0.54567933
63	0xbef28daa	-0.47373706
64	0x3fbb518f	1.4634265
65	0x3f9bcbe3	1.2171596
66	0x3e5db48c	0.21650904
67	0x3ff761e5	1.932675
68	0xbc2bb5d7	-0.010480366
69	0x3ec61e55	0.38695017
70	0xbd022d2b	-0.031781357
71	0xbe86a525	-0.2629787
72	0xbf0a9465	-0.5413268
73	0x3e09f6c5	0.13473041
74	0x3f910783	1.1330417
75	0xbf83ba10	-1.0291157
76	0x3df66caf	0.120324485
77	0xbed03421	-0.4066477
78	0x3ea91014	0.3302008
79	0x3f47c032	0.7802764
80	0x3e630790	0.22170854
81	0x3f291212	0.660432
82	0xbf2d8b58	-0.67790747
83	0xbd93145a	-0.07181616
84	0xbfb7fc41	-1.4373857
85	0xbf78840d	-0.97076494
86	0xbf2afe54	-0.66794324
87	0x3f33733d	0.70097715
88	0x3f1f56b3	0.6224167
89	0x3eaa07bd	0.3320903
90	0x3e5f8033	0.21826248
91	0x3fb16de6	1.3861663
92	0xbf86e535	-1.0538698
93	0xbf04b719	-0.51841885
94	0x3f0ac229	0.54202515
95	0xbe2fcad7	-0.17167221
96	0x3f98c624	1.1935468
97	0x3f5396ed	0.8265217
98	0x4026b43d	2.6047509
99	0xbe99f03d	-0.300661
100	0x3fa50299	1.2891418
101	0x3d8c8588	0.068614066
102	0xbf9063fe	-1.1280515
103	0x3f518788	0.8184743
104	0xbf4e4df4	-0.805877
105	0x3dba0013	0.090820454
106	0x3fd52d3c	1.665443
107	0xbf1217ff	-0.57067865
108	0xbe9e786a	-0.30951244
109	0x3f8d5e60	1.1044426
110	0xbeca2f8f	-0.3948941
111	0x3fb147f4	1.3850083
112	0x3e94a125	0.29029194
113	0x3fcfdb5c	1.6238818
114	0xbfe8a143	-1.8174213
115	0xbf8ee390	-1.1163197
116	0xbe1f6b34	-0.15568238
117	0x3f459e71	0.7719489
118	0x3f2ef5d8	0.6834388
119	0xbdadc12b	-0.084841095
120	0x3e0f322e	0.13983986
121	0xbf235d58	-0.63814306
122	0x3f4fb4ca	0.8113524
123	0xbfb07d61	-1.3788263
124	0x3fcc9a7e	1.5984647
125	0x3e9538ff	0.29145047
126	0x3f415847	0.75525326
127	0x3f101b50	0.56291676
128	0xbe7f004e	-0.2490246
129	0x3f845dea	1.034116
130	0xbf0582cc	-0.52152705
131	0x3f5e3991	0.8680659
132	0xbf3b25ef	-0.7310476
133	0xbf35ab88	-0.7096486
134	0x3fa7bead	1.3105065
135	0xbfb889c5	-1.4417044
136	0x3f9bba94	1.2166314
137	0xbe94bf40	-0.29052162
138	0x3fb4b45a	1.4117539
139	0xbdf35070	-0.118805766
140	0x3fd1ee37	1.6400822
141	0x3e289afb	0.1646537
142	0xbfe4547d	-1.7838284
143	0xbf6feea5	-0.9372352
144	0x3ebd6675	0.3699223
145	0x3f9b7452	1.2144873
146	0x3f8bc09b	1.0918154
147	0xbf84c045	-1.0371176
148	0xbf7714ce	-0.9651612
149	0xbf902c9c	-1.1263614
150	0xbf8fad31	-1.1224729
151	0x3e14416d	0.14478083
152	0xbf8fbc9f	-1.1229438
153	0xbe87d895	-0.26532426
154	0xbea7899b	-0.32722172
155	0xbf9b7d69	-1.2147647
156	0xbeb7e5e5	-0.35917583
157	0xbeb1d0c2	-0.34729582
158	0x3ed766f5	0.42070737
159	0xbdb2eee6	-0.087369725
160	0x3f512b66	0.81706846
161	0x3f58a455	0.8462575
162	0x3fa8611a	1.3154633
163	0x3ee20c73	0.44150123
164	0x3f80358e	1.0016344
165	0x3f159824	0.58435273
166	0xbf62fb48	-0.88664675
167	0x3fdf7224	1.7456708
168	0x3e026398	0.12733305
169	0xbf4644a0	-0.77448463
170	0x3f9b45f3	1.2130722
171	0x3f8fe44a	1.1241543
172	0xbe871c39	-0.2638872
173	0xbe96a0ab	-0.29419455
174	0xbff82bed	-1.9388405
175	0xbf04d486	-0.51886785
176	0x3ebd4fbc	0.36974895
177	0x3efb6564	0.49100792
178	0x3f191191	0.5979243
179	0x3fe72cb1	1.8060514
180	0xbf918976	-1.1370075
181	0x3f1bbfce	0.60839546
182	0x3f953c99	1.1659118
183	0xbe4c2ba9	-0.1993853
184	0x3fb9ceca	1.4516232
185	0x3f7908f6	0.972793
186	0xbfb4721f	-1.4097327
187	0x3e5498c5	0.20761402
188	0x3fb59568	1.418622
189	0x3f99a1c5	1.2002493
190	0xbf3a0996	-0.72670877
191	0xbfa378cc	-1.2771239
192	0x3e3f75e5	0.18697317
193	0x3f6359e2	0.88809025
194	0x3e5f1828	0.21786559
195	0x3fb01589	1.3756572
196	0x3e542981	0.20718957
197	0x3e1a430b	0.15064637
198	0x3fcd4a04	1.6038213
199	0x3ff0ee93	1.8822807
200	0xbcf2c79a	-0.029636193
201	0xbf666935	-0.90004283
202	0x3fb10f18	1.3832731
203	0xbf6f08f7	-0.93373054
204	0xbf06afe2	-0.52612126
205	0xbfc76137	-1.5576543
206	0xbea3966b	-0.31950697
207	0xbde112cc	-0.10989913
208	0x3d0ed09a	0.034866907
209	0xbe01078f	-0.1260054
210	0x3e94906d	0.29016438
211	0x3edb505f	0.42834756
212	0xbea60dc9	-0.32432392
213	0xc007de52	-2.1229444
214	0x3ea9bc9d	0.33151713
215	0x3ffa592d	1.9558464
216	0x3f9e634d	1.2374054
217	0x3f83cc46	1.0296714
218	0x3d82413e	0.063601
219	0xbfa0ac4b	-1.255258
220	0x3eef5828	0.46746945
221	0x3f4fbd9c	0.81148696
222	0x3ebd41d1	0.36964276
223	0x3face1e7	1.350644
224	0xbf82b52d	-1.021154
225	0x3f90038d	1.1251084
226	0xbfd2ee36	-1.6478946
227	0xbf6cc654	-0.92490125
228	0xbef42748	-0.4768622
229	0x3fb518d8	1.4148207
230	0x3fdec880	1.7404938
231	0x3f84060d	1.0314347
232	0x3e3c22ba	0.18372622
233	0x3ea124c4	0.31473362
234	0x3fc5a03e	1.5439527
235	0x3f845ad9	1.0340225
236	0x3fc7a8cc	1.5598388
237	0x3fd59250	1.6685276
238	0x3e8e0e89	0.27745464
239	0xbfbe2277	-1.4854268
240	0x3f26d97a	0.6517559
241	0xbe2696b9	-0.16268434
242	0x3f74132e	0.95341766
243	0xbf4e7067	-0.8064026
244	0xbfc5fb85	-1.5467383
245	0x401aa0b9	2.4160597
246	0x3f52ff53	0.82420844
247	0xbe5d0098	-0.21582258
248	0x3eedbba2	0.46432215
249	0xbdaa6ace	-0.083211526
250	0xbfe3b030	-1.7788143
251	0x3e555d01	0.2083626
252	0xbf7dcf00	-0.9914398
253	0xbfc04118	-1.5019865
254	0xbf426281	-0.75931555
255	0x3f63783a	0.88855326

bn1.running_var f4 [256]
0	0x3fa4c720	1.2873268
1	0x3fbeb388	1.4898539
2	0x3ec1b955	0.3783671
3	0x402e5575	2.723966
4	0x3df18423	0.11792781
5	0x4045452e	3.0823474
6	0x3e9c21ae	0.30494446
7	0x3fcaf6be	1.585655
8	0x3fbb6f5b	1.4643358
9	0x400ef7ed	2.2338822
10	0x3ef0c692	0.47026497
11	0x3ec85b1e	0.39132017
12	0x408090f9	4.017697
13	0x3ee62b1c	0.44954765
14	0x3f5b9867	0.8577942
15	0x4031ecf7	2.7800882
16	0x3fce9178	1.6138144
17	0x3fe3460f	1.7755755
18	0x403fa265	2.9942868
19	0x404141f7	3.0196512
20	0x410cdf91	8.804582
21	0x3f7a4861	0.9776669
22	0x3f9beff4	1.2182603
23	0x3f77beef	0.96775717
24	0x3f830470	1.0235729
25	0x4000790e	2.0073886
26	0x3fb92e6f	1.4467295
27	0x400aabdc	2.1667395
28	0x3eb314d2	0.34976822
29	0x3ff4f674	1.9137712
30	0x40a2600f	5.074226
31	0x3ff72305	1.9307562
32	0x40958b29	4.6732373
33	0x3fccb94e	1.599405
34	0x3fc2e55b	1.5226244
35	0x3ec1e349	0.37868717
36	0x402eb88a	2.7300134
37	0x3fa89a83	1.3172153
38	0x3f7982bf	0.9746513
39	0x3f0e150e	0.55500877
40	0x3ec23116	0.37928075
41	0x40777d9e	3.867042
42	0x40ca6ea0	6.326004
43	0x404db70e	3.2142978
44	0x3f65acc9	0.89716774
45	0x3fa8c212	1.3184226
46	0x4029dc82	2.6540837
47	0x3e912d5b	0.28354916
48	0x3fe14d41	1.7601701
49	0x40308783	2.758271
50	0x3e102283	0.14075665
51	0x3ffece06	1.9906623
52	0x40960c57	4.6890063
53	0x4007435f	2.113487
54	0x3ee8a04f	0.45434806
55	0x3fa5daa3	1.2957348
56	0x3e836ccf	0.25668952
57	0x3edc74bd	0.43057814
58	0x3f2a7d45	0.66597396
59	0x405f34e9	3.4876044
60	0x3f769185	0.96315795
61	0x40321d20	2.7830276
62	0x3da56aa1	0.080769785
63	0x3fe85405	1.8150641
64	0x3f518773	0.81847304
65	0x3f2cf343	0.6755869
66	0x403a02a3	2.906411
67	0x401e3cc9	2.47246
68	0x408f44d6	4.477153
69	0x3fe56853	1.7922462
70	0x40e5e0c6	7.183688
71	0x3f092ce1	0.53584105
72	0x3e9fa44a	0.3118003
73	0x3f804b6a	1.0023015
74	0x407d794a	3.960528
75	0x3ef45cbf	0.4772701
76	0x40279f41	2.619095
77	0x404cb41e	3.1984935
78	0x3f4be314	0.7964337
79	0x40823454	4.0688877
80	0x40b0fa7e	5.5305777
81	0x4061ac4a	3.5261407
82	0x3ffabd7c	1.9589076
83	0x3fff3f6c	1.994123
84	0x4010d6db	2.2631137
85	0x3f568c89	0.8380819
86	0x402eca86	2.731111
87	0x3f0e74e2	0.556471
88	0x4092f487	4.5923495
89	0x40a38dba	5.1110506
90	0x3fd92735	1.696509
91	0x3edaa848	0.42706513
92	0x40869013	4.205087
93	0x3f4d1412	0.8010875
94	0x3ed9012b	0.42383704
95	0x40c60458	6.1880302
96	0x406598f6	3.587461
97	0x400a1be3	2.157952
98	0x3f3f98f7	0.7484278
99	0x3e02d336	0.12775883
100	0x3f966355	1.1749064
101	0x400ad875	2.1694615
102	0x3ff2c0e1	1.8965112
103	0x3fe51775	1.7897784
104	0x3f276259	0.6538444
105	0x407a601a	3.9121156
106	0x3ed76b72	0.42074162
107	0x3f7d1c36	0.9887117
108	0x3f732815	0.94983035
109	0x403ccf87	2.9501665
110	0x404dff82	3.21872
111	0x4014fe89	2.3280356
112	0x3f13f1d1	0.5779086
113	0x3f722e5b	0.9460198
114	0x3f6b4fb2	0.9191848
115	0x3fa6073d	1.2970959
116	0x4008a368	2.1349735
117	0x3f959dd4	1.168879
118	0x3efc93d0	0.49331522
119	0x407bdf30	3.9354973
120	0x3fd518da	1.6648209
121	0x3f0bbc66	0.5458435
122	0x3f7f1abd	0.99650174
123	0x3f9bd143	1.2173237
124	0x3f3535ef	0.7078542
125	0x40fd8568	7.922535
126	0x3f8554f5	1.0416552
127	0x3fa728a6	1.305928
128	0x3fcdbf06	1.6073921
129	0x3f4ecc24	0.80780244
130	0x3ea9313f	0.33045384
131	0x3fb8ada4	1.4427991
132	0x3ea50bdc	0.3223561
133	0x3f0833f6	0.53204286
134	0x3fa7ed43	1.3119282
135	0x406dfe1d	3.7186348
136	0x40abc8c1	5.368256
137	0x401cce7f	2.4501035
138	0x3fa4f249	1.288644
139	0x40d4b78a	6.6474047
140	0x3f2419f6	0.64102113
141	0x3f18345c	0.59454894
142	0x3fb9e36f	1.4522532
143	0x3e918b83	0.28426751
144	0x3f267821	0.6502705
145	0x3f39228c	0.7231834
146	0x405570e5	3.3350155
147	0x3f1389e2	0.5763227
148	0x3ee01cf6	0.43772095
149	0x40639518	3.555975
150	0x3f1a288f	0.6021814
151	0x3ef20a37	0.47273418
152	0x40915183	4.5412
153	0x40a2b4a4	5.084551
154	0x401a9438	2.4152966
155	0x3fa373e7	1.2769746
156	0x3f6b6235	0.9194673
157	0x3f959881	1.1687165
158	0x3f9629b4	1.1731477
159	0x3fbc04b6	1.4688938
160	0x4040b4d1	3.0110362
161	0x3f6483d1	0.89263636
162	0x3ee0da89	0.4391673
163	0x40535628	3.3021336
164	0x3f1b2ab4	0.60612035
165	0x3f1ef257	0.6208853
166	0x3fe7bb0f	1.8103961
167	0x3f823f6a	1.0175602
168	0x3fa3dd1f	1.2801856
169	0x4088b122	4.2716227
170	0x3f119870	0.56873226
171	0x3ff89956	1.9421794
172	0x3f824b80	1.0179291
173	0x3fc3bae4	1.529141
174	0x3fcccbae	1.5999658
175	0x40b88acd	5.7669435
176	0x3ee51965	0.44745937
177	0x3fe87493	1.8160576
178	0x3f9ec814	1.2404809
179	0x4093e526	4.621722
180	0x3fcccb41	1.5999528
181	0x3fb7bb26	1.4353988
182	0x3f2e7ee5	0.68162376
183	0x404ecda8	3.2313023
184	0x40159e92	2.3378034
185	0x4025ee67	2.592676
186	0x4057bb17	3.370794
187	0x3db31972	0.08745088
188	0x3f0c0762	0.54698765
189	0x40626f65	3.538049
190	0x3fa16422	1.2608683
191	0x3fdaa36b	1.7081121
192	0x3de07f7b	0.10961815
193	0x4004972d	2.071727
194	0x407f03f1	3.9846156
195	0x3ea69c09	0.3254092
196	0x401898d5	2.3843281
197	0x401dca5c	2.465476
198	0x3e5e7e98	0.21727979
199	0x40432c1e	3.0495677
200	0x3fa2aae1	1.2708398
201	0x408be6a8	4.3719063
202	0x3e95594e	0.29169697
203	0x3f5d0033	0.8632843
204	0x3eb8edff	0.36119077
205	0x3fcd6ead	1.60494
206	0x402e9309	2.7277243
207	0x3dc56e30	0.09640157
208	0x402c612a	2.6934304
209	0x3dd3a37b	0.10333916
210	0x3f468f6b	0.7756259
211	0x3f0b7702	0.54478467
212	0x40140349	2.3127005
213	0x4000729a	2.0069947
214	0x4013eaae	2.3111987
215	0x3fc32b07	1.5247506
216	0x3fff3bf2	1.9940169
217	0x3eaf2b23	0.34212598
218	0x3e246d36	0.16057286
219	0x3fe86f06	1.8158882
220	0x3fbd60db	1.4795183
221	0x3f7cc36d	0.98735696
222	0x4036cb42	2.8561559
223	0x400ab541	2.1673129
224	0x4088862f	4.26638
225	0x3f133fc1	0.57519156
226	0x3f22dd24	0.63618684
227	0x3ffb3e87	1.9628457
228	0x3f351207	0.7073063
229	0x3fa33a5b	1.2752184
230	0x3effc859	0.4995754
231	0x4035c2c8	2.8400135
232	0x400df621	2.2181475
233	0x3f0c898b	0.54897374
234	0x3ff995e5	1.9498869
235	0x404b25a5	3.1741726
236	0x3f118644	0.568455
237	0x40967390	4.7016068
238	0x3fd58b95	1.6683222
239	0x3f58a3e7	0.84625095
240	0x3e1b80d6	0.15185866
241	0x3febcf25	1.842259
242	0x3eb83963	0.35981283
243	0x4048262c	3.1273298
244	0x3eec53c1	0.4615765
245	0x3fde95c3	1.7389454
246	0x3eb39338	0.35073256
247	0x3f76d15d	0.96413213
248	0x3f830952	1.0237219
249	0x3fc08da0	1.504322
250	0x3f9ce06f	1.2255992
251	0x409e746a	4.9517107
252	0x3f0bd26d	0.5461796
253	0x3eaec9d0	0.34138346
254	0x40d1864e	6.5476446
255	0x3fb26ade	1.3938863

fc2.weight f4 [256, 256]
0	0xbcc8f172	-0.024529193
1	0x3d3b510c	0.04573159
2	0x3cda4e42	0.026648644
3	0x3c61411d	0.013748434
4	0xbd934770	-0.0719136
5	0x3d141c7b	0.036159974
6	0x3c391780	0.011297107
7	0x3d2b5b87	0.041835334
8	0x3ced8a18	0.028996512
9	0x3b6eb91e	0.0036426256
10	0xbbbee356	-0.0058254404
11	0xbb3e554d	-0.0029042542
12	0xbcb7bd53	-0.022429144
13	0x3d40cbf1	0.047069494
14	0xbb2d32f7	-0.0026428082
15	0xbd89131e	-0.066930994
16	0xbcccbab4	-0.02499137
17	0xbdb6e93d	-0.089312054
18	0x3cb8fc35	0.0225812
19	0x3d06374f	0.03276759
20	0x3d20257e	0.039098255
21	0x3c5d6fe1	0.013515444
22	0x3baa90ec	0.0052052643
23	0x3d084aa4	0.033274308
24	0x3c70841d	0.014679936
25	0xbc94bf08	-0.018157497
26	0xbd5102ef	-0.05102819
27	0x3d6667f2	0.056251474
28	0xbb92e746	-0.0044831363
29	0x3d070d82	0.032971866
30	0xbd340a1e	-0.04395496
31	0x3d8923de	0.06696294
32	0x3d737b01	0.059443478
33	0x3c6543c9	0.013993212
34	0x3c54bf70	0.012985095
35	0xbd084083	-0.03326465
36	0x3cfc8728	0.030826166
37	0x3d3f6928	0.046731144
38	0xbbab55c2	-0.005228729
39	0x3d715f41	0.05892873
40	0xbcfd75e4	-0.030940004
41	0xbd5df312	-0.054186888
42	0xbbea5eeb	-0.0071524284
43	0x3cb5bd24	0.022184916
44	0x3cd4bde8	0.02596946
45	0xbc61be74	-0.013778318
46	0x3c3ecad2	0.011645036
47	0x3d6b14a9	0.05739275
48	0xbd368a38	-0.04456541
49	0x3cfe0eb0	0.031012863
50	0x3db5941b	0.088661395
51	0xb9a3030d	-0.00031092056
52	0x3d18697d	0.037209976
53	0xbc2d0360	-0.010559887
54	0xbd1ebb67	-0.03875294
55	0x3d69ec01	0.057109836
56	0x3d4b633a	0.049655177
57	0xbd0181d8	-0.03161797
58	0xbd82b5a8	-0.063823044
59	0xbc867109	-0.016411321
60	0x3d537cdd	0.05163275
61	0xbcd3d500	-0.025858402
62	0xbcf44662	-0.029818717
63	0xbd10e179	-0.035371277
64	0xbc37036c	-0.011170249
65	0x3d151d69	0.036405
66	0x3c993276	0.01870082
67	0xbca091b2	-0.019600723
68	0x3d18a551	0.037267033
69	0x3ceaf7dd	0.028682644
70	0xbcdec07c	-0.027191393
71	0x3d5a309c	0.053269014
72	0xba5ba14e	-0.0008378223
73	0x3d4847c4	0.048896566
74	0x3ca5e2df	0.020249782
75	0x3cd7c050	0.026336819
76	0xbc6be9b4	-0.014398981
77	0x3c77edf5	0.015132417
78	0x3cd9dc6e	0.026594367
79	0xbd1930ea	-0.037400164
80	0xbd886440	-0.06659746
81	0x3becb4c8	0.0072236992
82	0xbd07680b	-0.033058207
83	0xbd3d2e05	-0.046186466
84	0xbd0f480a	-0.03498081
85	0x3d117417	0.035511103
86	0xbd65b400	-0.056079865
87	0xbd892eec	-0.06698403
88	0x3d7c143e	0.061542742
89	0xbaad3ecb	-0.0013217566
90	0xbc12d549	-0.008961984
91	0x3c665ffd	0.014060971
92	0x3d324edf	0.04353225
93	0x3d171b9b	0.03689156
94	0xbcde554d	-0.027140284
95	0x3ca4732b	0.020074448
96	0xbd0e3f2c	-0.034728214
97	0x3d914d69	0.07094843
98	0x3b90a777	0.0044144946
99	0xbd98efa8	-0.07467586
100	0x3d852c23	0.06502559
101	0xbd0cf6cd	-0.034415055
102	0x3ba2c04a	0.0049667703
103	0x3db3542a	0.087562874
104	0xbd499b28	-0.049220234
105	0x3d71ba5e	0.059015624
106	0x3cab00fd	0.020874495
107	0x3c880047	0.016601695
108	0x3df2d9e0	0.118579626
109	0xbb5d247a	-0.0033743666
110	0xbc774d02	-0.015094044
111	0x3cbb5063	0.02286548
112	0x3d143627	0.036184456
113	0x3d9fab66	0.077963635
114	0x3d75fdbc	0.060056433
115	0x3d0c140d	0.03419881
116	0x3c9a4565	0.018831918
117	0x3d0e3486	0.03471806
118	0x3d3a1e52	0.045439072
119	0xbc2c2b97	-0.0105084395
120	0x3dce296d	0.10066495
121	0x3b07ae53	0.002070327
122	0x3c7f89f3	0.0155968545
123	0x3db2c21c	0.0872843
124	0xbc7ea884	-0.015543107
125	0xbd6454bf	-0.055744883
126	0xbd3e180b	-0.046409648
127	0x3b0889cf	0.0020834093
128	0x3d508b59	0.050914142
129	0xbcf055d1	-0.029337795
130	0xbc382b1b	-0.011240746
131	0xbd0e5162	-0.03474558
132	0xbd07ac57	-0.03312334
133	0x3d901b88	0.07036501
134	0xbd23e9a8	-0.040017754
135	0x3ce70ca4	0.02820427
136	0xbd7068db	-0.058693748
137	0xbc4fa475	-0.012673487
138	0x3c307112	0.010769146
139	0xbc834ae5	-0.016026923
140	0xbd1f98d0	-0.038964093
141	0x3d994b64	0.07485083
142	0x3aadf155	0.0013270775
143	0x3c7dd316	0.015492221
144	0xbd58be2e	-0.052915744
145	0xbd9302e4	-0.07178286
146	0xbc82dfc7	-0.015975846
147	0xbd15bc43	-0.036556493
148	0x3d81e324	0.06342152
149	0xbce094dd	-0.027414734
150	0xbb665a18	-0.0035148915
151	0x3c7ec873	0.0155507205
152	0xbcb503cb	-0.022096535
153	0xbc3870c8	-0.011257358
154	0xbcf93944	-0.030422814
155	0x3d517f22	0.051146634
156	0xbc9b3437	-0.018945796
157	0xbcaa2502	-0.0207696
158	0xbd2bb980	-0.041924953
159	0x3cf3c269	0.029755788
160	0x3c2357e2	0.009969683
161	0x3d796a28	0.060892254
162	0xbc6f5a0c	-0.014608871
163	0x3d00212a	0.031281628
164	0x3db92097	0.09039419
165	0xbc8664fe	-0.016405579
166	0x3ba0337d	0.0048889504
167	0x3c265308	0.010151632
168	0xbce474b7	-0.027887685
169	0xbd31b4bf	-0.043385264
170	0x3cb6986c	0.022289477
171	0x3ced96ad	0.029002512
172	0xbd72c7ae	-0.05927246
173	0xbc77791d	-0.015104559
174	0x3ca5f176	0.02025674
175	0xbd1bdd16	-0.03805264
176	0xbdadefb2	-0.08492984
177	0x3d963a75	0.073353685
178	0xbbe82ed3	-0.00708566
179	0xbd68b249	-0.05681065
180	0xba645cef	-0.0008711358
181	0xbd151e09	-0.036405597
182	0xbc813889	-0.015774028
183	0xbcc8c2ea	-0.024507005
184	0xbc892805	-0.016742716
185	0x3b7eb11f	0.0038862897
186	0xbd7b32d6	-0.061327778
187	0x3ccdfe11	0.025145562
188	0xbd58cb3a	-0.052928187
189	0x3bcbe715	0.0062226155
190	0x3cc3571c	0.023845248
191	0xbc71fe24	-0.0147700645
192	0x3cfe2128	0.03102167
193	0x3c88db2e	0.016706076
194	0xbb4da043	-0.003137604
195	0x3cfdf057	0.030998392
196	0x3c11848e	0.008881701
197	0x3ddd4a1f	0.10805153
198	0x3ca47bf3	0.020078635
199	0x3d203d85	0.03912117
200	0x3b4ad91a	0.0030952157
201	0x3c9fabb4	0.019491054
202	0xbdc10852	-0.09425415
203	0xbc73df30	-0.014884755
204	0x3d22c72c	0.039740726
205	0x3cf8ff16	0.030395072
206	0xbd961376	-0.07327931
207	0x3e25c6ab	0.16189067
208	0x3d9beeb3	0.07613888
209	0xbccfcf06	-0.025367271
210	0xbc5d2a31	-0.013498829
211	0x3d7805e2	0.060552485
212	0x3d3e1c77	0.046413865
213	0x3d9d4b86	0.076804206
214	0xbc7f708d	-0.015590799
215	0x3b861037	0.0040912884
216	0xbcd8d1da	-0.026467253
217	0xbe1f4eef	-0.15557455
218	0xbd6f4446	-0.05841472
219	0x3d3585ae	0.04431694
220	0xbce1e0b1	-0.027572962
221	0x3baf0a2f	0.00534179
222	0x3cb5e843	0.022205478
223	0x3d1a0fc2	0.037612684
224	0x3cf76191	0.03019789
225	0xbd148a72	-0.036264844
226	0xbd6fa855	-0.058510143
227	0xbc66c120	-0.0140841305
228	0x3c9ff0f6	0.019524079
229	0xbd39eaeb	-0.04539005
230	0xbd9ddf17	-0.07708567
231	0xbc00fa5b	-0.007872189
232	0x3d22afa3	0.03971828
233	0xbcba5d51	-0.022749575
234	0x3c1094e3	0.00882456
235	0xbc973221	-0.01845652
236	0xb9df8101	-0.0004262999
237	0xbc83abab	-0.016073069
238	0xbce36404	-0.027757652
239	0x3c33da6c	0.010977369
240	0x3cf50b8a	0.029912729
241	0x3cd0d2b8	0.025491104
242	0xbd2a1d66	-0.041531943
243	0xbcdff6b8	-0.027339324
244	0x3c43973f	0.011937915
245	0xbcdb1d4f	-0.026747374
246	0xba521d65	-0.00080152444
247	0x3d28115d	0.041032184
248	0xbc56a110	-0.013099924
249	0xbd80f2e5	-0.062963285
250	0x3c59aa8f	0.013285293
251	0xbd201d2d	-0.039090324
252	0xbda3a668	-0.07990724
253	0x3c6617aa	0.014043728
254	0x3cd840c5	0.026398072
255	0xbc53e903	-0.012933972
