checkpoint_critic_agent_1_episode_7950.pth (torch_old, 156041 bytes, 13 tensors)

fcs1.weight f4 [128, 24]
0	0xbe824ee4	-0.25450814
1	0x3cbc9426	0.023019861
2	0xbc8ccc62	-0.017187301
3	0x3da09cbc	0.07842395
4	0x3dd9e517	0.106393985
5	0x3e7d593e	0.24741074
6	0x3c52e13b	0.012871082
7	0x3d0a84fa	0.033818223
8	0xbdf7b47e	-0.12094973
9	0x3d328a46	0.0435889
10	0x3c0b8f41	0.008518041
11	0x3eb23399	0.3480499
12	0xbe0ec7b3	-0.13943367
13	0x3e638e71	0.22222306
14	0x3df6920b	0.12039574
15	0x3e839181	0.25696948
16	0x3ce57123	0.02800805
17	0x3dc249ad	0.09486709
18	0xbd69ddf8	-0.05709645
19	0x3e92595b	0.28583798
20	0xbe349dda	-0.1763834
21	0x3e6a3a8a	0.22873893
22	0x3dac5568	0.084147274
23	0x3e9c0972	0.30475956
24	0xbd0faf29	-0.035079155
25	0xbe327087	-0.17425738
26	0xbdf2faa7	-0.118642144
27	0xbe97cd5f	-0.29648873
28	0x3e427254	0.18988925
29	0xbcedd75c	-0.029033355
30	0xbe02e237	-0.12781607
31	0xbe89f181	-0.26942065
32	0x3cb9331a	0.022607375
33	0xbdebb519	-0.11509151
34	0x3e19c364	0.15015942
35	0xbe91bafe	-0.28462976
36	0x3e1b8933	0.15189056
37	0xbd271e67	-0.04080048
38	0x3dc0aae6	0.09407596
39	0xbe68201f	-0.22668503
40	0x3c967493	0.018366134
41	0xbe2002fa	-0.15626135
42	0x3cdb4341	0.026765468
43	0x3cc9a48c	0.024614595
44	0x3e3d8cf7	0.18510805
45	0xbd675669	-0.05647889
46	0xbce8fa89	-0.028439777
47	0x3c89da55	0.016827742
48	0xbde73fd5	-0.11291472
49	0xbd8af436	-0.06784861
50	0x3d8c86ec	0.06861672
51	0xbd02391a	-0.031792738
52	0x3d9d49fb	0.07680126
53	0xbe736279	-0.23768033
54	0x3e2cc3e4	0.16871601
55	0xbe0d6d23	-0.13811164
56	0xbe3fc4d6	-0.1872743
57	0xbe513e21	-0.20433857
58	0x3da13252	0.07870926
59	0xbd829c1d	-0.063774325
60	0x3e2b7b28	0.16746199
61	0xbd990074	-0.074707896
62	0x3b0ce9e3	0.0021501712
63	0xbdb1a5d3	-0.086742066
64	0xbe4be906	-0.1991311
65	0xbe563817	-0.20919834
66	0x3d0db021	0.034591798
67	0x3e21116a	0.15729299
68	0x3ed18493	0.4092146
69	0xbdb00b43	-0.08595898
70	0x3d1e0f6a	0.03858892
71	0x3e21cfea	0.15801969
72	0xbb029029	-0.0019922352
73	0x3df33281	0.11874867
74	0xbc13dc19	-0.009024643
75	0x3c901373	0.0175874
76	0x3d13b3bb	0.036060076
77	0xbf5f6bb7	-0.87273735
78	0x3c2209a2	0.009889992
79	0xbcbc3e1a	-0.022978831
80	0x3d4fb5e4	0.050710574
81	0xbd649e29	-0.055814896
82	0x3d6ca95f	0.057778712
83	0xbca9590c	-0.020672344
84	0xbcc7e1ca	-0.024399657
85	0xbe3a10a9	-0.18170418
86	0xbd70e1df	-0.058809157
87	0x3d2947cb	0.041328233
88	0xbd97d9ac	-0.074145645
89	0xbdde6621	-0.10859323
90	0xbc3dce9f	-0.011584907
91	0x3d03b127	0.032151368
92	0xbe335b48	-0.1751529
93	0x3fd22c94	1.6419854
94	0x3c02020e	0.00793506
95	0xbc8ecb4d	-0.017430926
96	0xbdf659b6	-0.1202883
97	0x3bda5396	0.0066627963
98	0x3bef8625	0.0073096924
99	0xbcaa2895	-0.020771304
100	0x3cc657e7	0.024211837
101	0xbc7118c4	-0.014715377
102	0xbd007d7b	-0.031369668
103	0xbdfa9554	-0.12235513
104	0xbdfc25e9	-0.12311918
105	0xbca53d1f	-0.020170746
106	0x3dff4707	0.12464719
107	0xbddb6d4a	-0.107142046
108	0xbd5c3e1b	-0.053770166
109	0xbceb5ee0	-0.028731763
110	0x3dd66fcf	0.104705445
111	0xbd331ec6	-0.04373052
112	0x3d17adb4	0.03703089
113	0x3d317247	0.043321874
114	0x3d90c98e	0.070696935
115	0xbdc2e1bf	-0.09515714
116	0xbb4a1166	-0.0030833124
117	0x3db35c79	0.08757872
118	0x3dc4f4eb	0.09617027
119	0xbae69942	-0.0017593282
120	0xbde504e7	-0.11182576
121	0xbe587c2d	-0.2114112
122	0x3d468dbb	0.04847501
123	0xbdfee673	-0.124462985
124	0x3c9dc33c	0.019258134
125	0xbc94c26a	-0.01815911
126	0xbd27f636	-0.04100629
127	0xbda61f7f	-0.08111476
128	0xbcbc84d3	-0.023012554
129	0xbdc45494	-0.095864445
130	0x3db8b7ab	0.09019407
131	0xbe4c2361	-0.19935371
132	0x3e9dcc64	0.3082
133	0x3d612990	0.054971278
134	0xbd998585	-0.0749617
135	0xbe6fb17b	-0.23407547
136	0x3cac9176	0.021065455
137	0xbea6a3e1	-0.32546905
138	0x3cb4af13	0.022056138
139	0xbe69d297	-0.2283424
140	0x3e83a2df	0.25710198
141	0x3eeb75a2	0.45988184
142	0xbd0f3910	-0.03496653
143	0xbebd7388	-0.37002206
144	0xbda5c22f	-0.08093678
145	0xbe5f9b7c	-0.21836656
146	0xbdcf52a9	-0.10123188
147	0xbce6ae18	-0.028159186
148	0x3e167b85	0.14695556
149	0x3ea8cfc1	0.32971004
150	0xbced3c01	-0.028959276
151	0xbd2fced2	-0.04292185
152	0x3dbf8184	0.09350875
153	0xbe1eebb0	-0.15519595
154	0x3d82b3b7	0.06381934
155	0xbdaa5f06	-0.083189055
156	0x3de60b0b	0.11232575
157	0x3e95103f	0.29113957
158	0x3dc3f316	0.09567849
159	0x3c8cff61	0.017211618
160	0x3d1d47b1	0.03839845
161	0x3c5a089f	0.0133077195
162	0x3d1f0fc9	0.038833413
163	0x3eb28974	0.34870493
164	0x3d8711fb	0.065952264
165	0x3ec55518	0.38541484
166	0x3d9fe593	0.0780746
167	0x3ec90123	0.3925868
168	0xbdcf6782	-0.101271644
169	0x3e5a4af5	0.21317656
170	0xbcadadcb	-0.021201035
171	0x3e245410	0.16047692
172	0x3d9e82ba	0.07739778
173	0xbe17dd09	-0.14830412
174	0x3cbebbd0	0.023282915
175	0x3e674347	0.22584258
176	0x3d4a4431	0.04938144
177	0x3ebd4456	0.369662
178	0x3d2928bc	0.041298613
179	0x3e3d5ab9	0.18491639
180	0xbdb76034	-0.08953896
181	0xbf2bee37	-0.6716036
182	0xbd80b162	-0.06283833
183	0x3dd65348	0.104651034
184	0x3d215e43	0.039396536
185	0x3ec18d4c	0.37803113
186	0xbd42a6c9	-0.04752234
187	0xbebdd403	-0.37075815
188	0x3d735478	0.059406728
189	0xbef224df	-0.47293755
190	0xbc7bbc27	-0.015364683
191	0xbe99f8ee	-0.3007273
192	0xbce21862	-0.027599517
193	0xbe218019	-0.15771522
194	0x3d92cb07	0.07167631
195	0xbd90e507	-0.070749335
196	0x3e8858fb	0.26630387
197	0x3c1744c8	0.009232707
198	0xbd8b4187	-0.06799608
199	0xbc13ac63	-0.009013268
200	0xb9155f11	-0.00014245162
201	0xbde207ec	-0.11036667
202	0xbd5b40bb	-0.05352853
203	0xbc7625d2	-0.0150236655
204	0x3e51e341	0.20496847
205	0xbf91b5d3	-1.1383613
206	0x3d6b876d	0.0575022
207	0xbd39b6e9	-0.045340452
208	0xbd3adb31	-0.045619193
209	0xbd4eec57	-0.05051836
210	0xbca6823a	-0.020325769
211	0x3cb31a1f	0.021863041
212	0x3a857b08	0.0010183761
213	0xbd1f27cf	-0.038856324
214	0x3cbca0fe	0.023025986
215	0xba345f51	-0.00068806583
216	0x3e4e4147	0.20142089
217	0x3e61fe9d	0.22069784
218	0x3c58092a	0.013185779
219	0xbcfa98bc	-0.030590408
220	0x3d926335	0.071478285
221	0xbd7af4a9	-0.061268482
222	0xbc746af2	-0.014918076
223	0xbcde1b28	-0.027112558
224	0x3e27badf	0.1637988
225	0x3dbe9e91	0.09307588
226	0xbd30e8a3	-0.04319061
227	0xbdaee766	-0.085402295
228	0x3e825002	0.25451666
229	0x3e501fd0	0.20324636
230	0x3d82c6ab	0.06385549
231	0xbcbfac1c	-0.023397498
232	0xbbca375c	-0.00617115
233	0xbe4b5670	-0.19857192
234	0xbd6dc7d0	-0.058051884
235	0x3de00d79	0.1094007
236	0x3ef4e610	0.47831774
237	0x3ecb299f	0.39680192
238	0x3b4928ed	0.003069456
239	0x3df7dafb	0.12102314
240	0xbd46c141	-0.048524145
241	0x3cff211e	0.031143721
242	0xbcd24b64	-0.025670715
243	0xbcacb605	-0.021082887
244	0x3f8e6ab7	1.1126317
245	0x3e740b35	0.238324
246	0x3c33e0a5	0.010978852
247	0x3c65dae2	0.0140292365
248	0xbc4dce63	-0.012561413
249	0xbd9b6914	-0.075884014
250	0xbd21ef4a	-0.039534844
251	0xbd633d6a	-0.05547849
252	0x3f6e2da7	0.9303841
253	0x3e71ee4d	0.23626061
254	0x3cfc29b4	0.030781604
255	0xbb00e919	-0.0019670187

fcs1.bias f4 [128]
0	0x3e0aed2b	0.13567035
1	0xbe42241b	-0.18959086
2	0xbe0ebae0	-0.13938475
3	0x3d676165	0.056489367
4	0x3ba495db	0.005022747
5	0x3deda27d	0.11603258
6	0x3db2d7c3	0.087325595
7	0x3c2365cd	0.009973002
8	0x3cff1ede	0.031142648
9	0x3e18bdc9	0.14916147
10	0xbe448bb8	-0.19193923
11	0xbd8f0e6f	-0.06985175
12	0x3e06e056	0.13171515
13	0xbe236384	-0.15955931
14	0x3dc7ca5b	0.09755393
15	0x3e0ae3c7	0.13563453
16	0x3d8654fe	0.0655918
17	0xbe08eca3	-0.1337152
18	0xbdea2ccc	-0.114343256
19	0x3d414e9f	0.04719412
20	0xbdba86a2	-0.091077104
21	0x3da45997	0.080249004
22	0x3d7009b0	0.05860299
23	0x3d1767e7	0.036964323
24	0x3e3d3ba8	0.18479788
25	0xbe4995b6	-0.19686016
26	0xbe48a9e4	-0.19596058
27	0x3e0b4442	0.13600257
28	0xbd8c5a10	-0.068531156
29	0xbe475b8f	-0.1946852
30	0xbd8baaee	-0.068197116
31	0x3e1f0724	0.15530068
32	0xbcebaf62	-0.028770152
33	0x3dcc11fe	0.09964369
34	0x3df3a0a0	0.11895871
35	0xbd8027c9	-0.062575884
36	0x3dd90642	0.10596897
37	0x3d810803	0.06300356
38	0xbe059498	-0.13044965
39	0xbd2886bf	-0.04114413
40	0x3dfd9149	0.123812266
41	0x3da29706	0.07938962
42	0x3ce8ab2e	0.028401937
43	0xbccd243f	-0.025041698
44	0xbe1333f1	-0.14375283
45	0xbd97207d	-0.073792435
46	0x3e078378	0.13233745
47	0xbc351ee2	-0.011054726
48	0xbdfa95a0	-0.1223557
49	0x3cddf722	0.027095381
50	0xbe2c4cb3	-0.16826133
51	0xbcce6ec5	-0.025199303
52	0xbc08f6e4	-0.008359645
53	0xbe459d8d	-0.19298382
54	0xbe0c8cf7	-0.13725649
55	0xbe0da457	-0.13832222
56	0xbe115885	-0.14193924
57	0x3e2a7306	0.1664544
58	0x3da2bc3f	0.07946061
59	0xbe13d6b5	-0.14437373
60	0xbdb232fe	-0.08701132
61	0x3e198dda	0.14995518
62	0x3e367f2e	0.17821953
63	0x3ca37011	0.019950898
64	0x3b32b5c0	0.0027268976
65	0xbe1f1ed7	-0.15539108
66	0x3df7b09b	0.12094232
67	0xbd6ac9c4	-0.057321325
68	0x3c9d9c15	0.019239465
69	0xbd2a4023	-0.04156507
70	0x3d90a432	0.07062568
71	0x3d430d43	0.04762007
72	0xbd40b4cb	-0.047047418
73	0xbd062b63	-0.03275622
74	0xba1e8dbf	-0.00060483435
75	0xbe259e8a	-0.16173759
76	0xbc467430	-0.012112662
77	0xbe1c7e96	-0.15282664
78	0x3e21d2a7	0.15803014
79	0x3dd4b045	0.10385183
80	0xbcb1390d	-0.02163365
81	0x3e104857	0.14090095
82	0x3c939f8b	0.018020412
83	0x3e3eff18	0.18651998
84	0x3d27d0fb	0.040970784
85	0x3dc513c4	0.096229106
86	0x3cffb3c1	0.031213643
87	0xbdeccc6a	-0.115624264
88	0xbe4410f9	-0.191471
89	0xbda6261e	-0.08112739
90	0x3e238a54	0.15970737
91	0x3dd5bd84	0.10436538
92	0xbd88944d	-0.06668911
93	0xbe020341	-0.12696554
94	0x3e4dd58a	0.2010099
95	0x3cb53e39	0.022124397
96	0xbe343106	-0.17596826
97	0xbd93de1a	-0.07220097
98	0x3c65f247	0.014034814
99	0xbc9fd7af	-0.019512026
100	0xbda1a7ba	-0.078933194
101	0x3d77bb15	0.06048115
102	0xbe0dda7e	-0.1385288
103	0x3daf10e5	0.08548144
104	0xbe0d10be	-0.13775918
105	0x3e288a0c	0.1645891
106	0x3e27b182	0.16376308
107	0x3e4f2ef9	0.20232762
108	0xbe4ce94c	-0.2001087
109	0xbd9956b9	-0.07487244
110	0xbd278f99	-0.04090843
111	0xbe411157	-0.18854271
112	0x3dbbd165	0.09170798
113	0xbda98115	-0.082765736
114	0xbb74c10d	-0.0037346513
115	0x3dc81671	0.09769905
116	0xbe23427f	-0.15943335
117	0x3ce64497	0.028108878
118	0xbdb73747	-0.0894609
119	0x3e12ab22	0.14323094
120	0x3e36ae45	0.17839916
121	0xbd441d39	-0.04787943
122	0xbe06b2a2	-0.1315408
123	0x3df49279	0.11942
124	0xbe14bb5d	-0.14524598
125	0x3e4666dc	0.19375175
126	0x3e26f768	0.16305315
127	0x3db347c4	0.087539226

bn1.weight f4 [128]
0	0x3de2f6d1	0.11082233
1	0x3e8406a5	0.2578632
2	0x3ebdc42b	0.37063727
3	0x3f2206d5	0.63291675
4	0x3d075004	0.033035293
5	0x3e90b00e	0.2825932
6	0x3e4420c5	0.19153126
7	0x3ead547d	0.33853522
8	0x3eb00332	0.34377438
9	0x3f2efcb5	0.6835435
10	0x3ef83bd8	0.48483157
11	0x3e597c05	0.21238716
12	0x3f07ea6d	0.5309208
13	0x3efb6cdc	0.4910649
14	0x3e717392	0.23579243
15	0x3e571e3b	0.21007626
16	0x3e3349ec	0.17508668
17	0x3e456aaf	0.19278978
18	0x3e91b3ec	0.28457582
19	0x3f1cceb2	0.6125289
20	0x3e198c19	0.1499485
21	0x3f28eb58	0.65984106
22	0x3e8c3d44	0.27390492
23	0x3e1ff4a5	0.15620668
24	0x3eb118f8	0.34589362
25	0x3ea49728	0.32146573
26	0x3e3de63e	0.18544862
27	0x3e0cd79e	0.13754126
28	0x3f537080	0.82593536
29	0x3d8c87f6	0.0686187
30	0x3efd39f0	0.49458265
31	0x3ea9cf53	0.33165988
32	0x3ebd2574	0.36942637
33	0x3ea7b7d6	0.32757443
34	0x3e7d39d2	0.24729088
35	0x3e84afd0	0.25915384
36	0x3e926b3e	0.28597444
37	0x3f1e15a0	0.6175175
38	0x3e87f9e6	0.26557845
39	0x3c69d934	0.014272977
40	0x3e47c9b9	0.19510545
41	0x3f585866	0.84509885
42	0x3e267392	0.16255024
43	0x3ed01d79	0.40647486
44	0x3d17e4c4	0.037083402
45	0x3f10866d	0.5645512
46	0x3c535c3e	0.01290041
47	0x3ee8d4e1	0.45474914
48	0x3d1759c1	0.03695083
49	0x3ed41809	0.41424587
50	0x3e534b61	0.20634224
51	0x3e3b5ce9	0.18297161
52	0x3e467544	0.19380671
53	0x3cc91224	0.024544783
54	0x3dbbaa5b	0.09163352
55	0x3f84775c	1.0348926
56	0x3f195f78	0.599113
57	0x3e413514	0.18867904
58	0x3f44fe97	0.76950973
59	0x3ec9146d	0.39273396
60	0x3e950c92	0.29111153
61	0x3e18d0f7	0.14923464
62	0x3f0e2a90	0.55533695
63	0x3eb5dd5b	0.35520443
64	0x3efabd5e	0.489726
65	0x3e3b858b	0.18312661
66	0x3d8be548	0.06830841
67	0x3e389eb3	0.18029289
68	0x3ec009b6	0.3750741
69	0x3e059c20	0.13047838
70	0x3eea35b9	0.45744112
71	0x3e92da9a	0.28682405
72	0x3e2bffc1	0.16796781
73	0x3d231054	0.039810494
74	0x3ea08478	0.31351066
75	0x3f437c86	0.7636188
76	0x3ecb46b7	0.3970239
77	0x3dbccb39	0.09218449
78	0x3f07f186	0.5310291
79	0x3f30dcbc	0.69086814
80	0x3efee6c4	0.49785435
81	0x3e8cb621	0.27482703
82	0x3ee5832e	0.44826645
83	0x3eb16a7f	0.34651563
84	0x3ebae687	0.36504003
85	0x3edfde00	0.4372406
86	0x3ec78e86	0.38975924
87	0x3e249847	0.16073714
88	0x3ead4481	0.33841327
89	0x3ee49382	0.4464379
90	0x3dc08873	0.094010256
91	0x3ec2076d	0.3789629
92	0x3dcc7f6d	0.09985242
93	0x3f80b6a8	1.0055742
94	0x3e046454	0.12928897
95	0x3e22d34d	0.15900917
96	0x3ea567d1	0.32305768
97	0x3e4dd040	0.20098972
98	0x3d4e021e	0.050294988
99	0x3e6916b9	0.22762574
100	0x3e40d3c5	0.18830784
101	0x3ea19847	0.3156149
102	0x3e58b6c4	0.2116347
103	0x3e78cac1	0.24296094
104	0x3f0d1acd	0.5511902
105	0x3e1d2b1b	0.15348475
106	0x3e4aecb9	0.19816865
107	0x3e800415	0.25003114
108	0x3e2dba16	0.16965517
109	0x3f21b3f2	0.631652
110	0x3e03f94f	0.12888072
111	0x3e52a735	0.20571597
112	0x3ed8ae27	0.42320368
113	0x3e192484	0.14955336
114	0x3f076d06	0.5290073
115	0x3e7b5c74	0.24546987
116	0x3dabfe76	0.08398144
117	0x3fbca3e7	1.4737519
118	0x3d051db9	0.03249905
119	0x3d95dc96	0.07317464
120	0x3f3738b7	0.71570915
121	0x3e3d0bc0	0.18461514
122	0x3b6f0c4e	0.003647584
123	0x3e96b5de	0.2943563
124	0x3e6277c8	0.22116005
125	0x3e1e2a1b	0.1544575
126	0x3e715790	0.23568559
127	0x3ebea35a	0.37234002

bn1.bias f4 [128]
0	0xbdb8b35c	-0.09018585
1	0xbec90863	-0.3926421
2	0xbea4817c	-0.3213004
3	0xbd82e8a5	-0.0639203
4	0xbdda5047	-0.10659843
5	0xbe0d58be	-0.13803384
6	0xbea8fe18	-0.33006358
7	0xbef35789	-0.47527722
8	0xbc43fdd3	-0.011962372
9	0xbf05a190	-0.5219965
10	0x3cf9c221	0.030488076
11	0xbe3edfa4	-0.1864
12	0xbe67ce49	-0.22637285
13	0xbc7a8488	-0.015290387
14	0xbde6f677	-0.11277478
15	0xbe89373a	-0.26799947
16	0xbe30acfd	-0.1725349
17	0xbe3698b2	-0.17831686
18	0xbf0919e5	-0.53555137
19	0x3cc8b9ce	0.024502661
20	0xbe105611	-0.14095332
21	0xbedfee23	-0.4373637
22	0xbe0d6277	-0.13807093
23	0xbe641ee3	-0.22277407
24	0xbe9ee558	-0.3103435
25	0xbea15c1a	-0.3151558
26	0xbe68d972	-0.22739199
27	0xbe4fe8c7	-0.20303641
28	0x3cce29e2	0.025166456
29	0xbd79f3e0	-0.061023593
30	0xbd9ac1f7	-0.07556527
31	0xbecb47cf	-0.39703223
32	0xbec2573a	-0.37957174
33	0xbe854e13	-0.26036128
34	0xbed5c1fd	-0.41749564
35	0xbea11186	-0.31458682
36	0xbea0387c	-0.31293094
37	0xbe93f140	-0.28894997
38	0xbef0a2c4	-0.4699918
39	0xbd9aa5c9	-0.07551152
40	0xbeb4090c	-0.35163152
41	0xbd14db15	-0.036341745
42	0xbe8b50bd	-0.27210036
43	0xbec7dbc7	-0.39034864
44	0xbdd22989	-0.102618285
45	0xbebb41d1	-0.3657365
46	0xbd38b315	-0.04509266
47	0xbed243ed	-0.41067448
48	0xbe201b97	-0.15635525
49	0xbe95d438	-0.29263473
50	0xbe142c8b	-0.14470117
51	0xbe2a8c7d	-0.16655155
52	0xbe7d8283	-0.24756818
53	0xbe0955b8	-0.13411605
54	0xbe8111fa	-0.25209028
55	0xbe19253d	-0.14955612
56	0xbedb57b7	-0.4284036
57	0xbed94b94	-0.42440474
58	0x3e03065f	0.12795399
59	0xbea8f96a	-0.33002788
60	0xbe6fcbc7	-0.23417579
61	0xbea1a34c	-0.31569898
62	0xbed042b5	-0.40675893
63	0xbece2f5e	-0.40270513
64	0xbef09bbf	-0.46993825
65	0xbe8c6dc3	-0.27427492
66	0xbe484d8e	-0.19560835
67	0xbe980c27	-0.29696772
68	0xbee59125	-0.448373
69	0x3e10cf77	0.14141642
70	0x3d96b9a5	0.07359628
71	0xbe109659	-0.14119853
72	0xbe91989d	-0.28436747
73	0xbd1cb944	-0.03826262
74	0xbef6f878	-0.48236442
75	0xbe0e8a21	-0.1391988
76	0xbec9a24d	-0.39381638
77	0xbe3aa813	-0.18228178
78	0x3bcb9e7a	0.0062139602
79	0xbeba55a4	-0.36393464
80	0x3e8b6030	0.27221823
81	0xbec34345	-0.3813726
82	0xbed9e2ca	-0.4255584
83	0x3c519b8e	0.012793435
84	0xbf115bde	-0.56780803
85	0xbe4ff672	-0.20308855
86	0xbe80aad5	-0.25130334
87	0xbe9268d2	-0.28595597
88	0xbed1b495	-0.40958086
89	0xbe947708	-0.28997064
90	0xbe12ec96	-0.14348063
91	0xbe9f0baa	-0.31063586
92	0xbe1ac213	-0.15113096
93	0x3da85a5d	0.082203604
94	0xbe4fd43c	-0.20295805
95	0xbe7a8e7c	-0.24468416
96	0xbe8b964d	-0.27263108
97	0xbe425ad8	-0.18979967
98	0xbe44c890	-0.19217134
99	0xbe93b30b	-0.28847536
100	0xbe56a0a7	-0.20959722
101	0xbe994267	-0.29933473
102	0xbe6b2095	-0.22961648
103	0xbdf26e41	-0.118374355
104	0xbd18572f	-0.03719252
105	0xbe497d51	-0.1967671
106	0xbe82aadd	-0.25520983
107	0xbe8a757d	-0.2704276
108	0xbe57ed36	-0.21086583
109	0xbdb00cba	-0.085961774
110	0xbe05a229	-0.1305014
111	0xbedf0883	-0.4356118
112	0xbeb78940	-0.358469
113	0xbe311d3d	-0.1729631
114	0x3e59f949	0.21286501
115	0xbe9abe9b	-0.30223545
116	0xbe1ee05a	-0.15515271
117	0xbba72a01	-0.005101443
118	0xbdf81029	-0.12112457
119	0xbdcfbdcb	-0.10143622
120	0x3d833028	0.064056695
121	0xbe0b0567	-0.1357628
122	0xbc523a1f	-0.01283124
123	0xbcc93206	-0.024559986
124	0xbe8e0c31	-0.27743676
125	0xbdd96bc9	-0.106162615
126	0xbea2f257	-0.31825516
127	0xbecae53a	-0.3962801

bn1.running_mean f4 [128]
0	0x40b4b135	5.6466317
1	0xbef10b11	-0.47078755
2	0x406e13e9	3.7199652
3	0x401b8f67	2.4306276
4	0x403d356a	2.9563851
5	0x404e6493	3.2248886
6	0x40837032	4.1074457
7	0xc0b08c33	-5.517114
8	0xc05da4a2	-3.4631734
9	0xbf332bc3	-0.6998865
10	0x3e91085d	0.28326693
11	0xc00baa3d	-2.1822655
12	0xbf63a1eb	-0.8891894
13	0xbd0783eb	-0.03308479
14	0x409aff71	4.843682
15	0x40d7ea05	6.747317
16	0x4001502e	2.0205188
17	0x3e856a3e	0.2605762
18	0xbf9f01ee	-1.2422464
19	0xbd393e4d	-0.04522543
20	0xc0767967	-3.8511598
21	0xc074a8d9	-3.8228056
22	0x3e98113a	0.29700643
23	0x40e4f336	7.154689
24	0x3f73cf1d	0.95237905
25	0xc0352569	-2.8304083
26	0x3f882f3c	1.0639415
27	0xc0d3cf3f	-6.6190486
28	0x3dd8a1fd	0.10577772
29	0xbe14b1a7	-0.14520894
30	0xbea472da	-0.32118875
31	0xbfa4057e	-1.2814176
32	0xbe81a4fd	-0.2532119
33	0xc0902de5	-4.5056024
34	0x3f56c970	0.8390112
35	0xc112a1b1	-9.164475
36	0xc0f4ad1e	-7.6461325
37	0xc0cd09ab	-6.40743
38	0x3f2dc222	0.6787435
39	0xc0063ad5	-2.0973408
40	0x41017a66	8.092382
41	0xbe0b14d8	-0.1358217
42	0xbfff5463	-1.9947628
43	0x4055a4c2	3.338181
44	0x3e3cd0b4	0.18438989
45	0xc042a76b	-3.0414684
46	0x40946924	4.6378345
47	0x3f2690fd	0.65064985
48	0xc0068ad2	-2.102223
49	0x3fceb1ba	1.6147988
50	0x3ed56ab7	0.4168298
51	0x3faaa1f3	1.3330673
52	0xc076f61d	-3.8587716
53	0x3fe2790a	1.7693188
54	0xc05d0dd0	-3.453968
55	0xbf600c86	-0.8751911
56	0x40011277	2.016752
57	0xc0816b37	-4.0443377
58	0x3f622ad6	0.8834661
59	0xbf1e467b	-0.61826295
60	0x40bdcfb8	5.9316063
61	0xc0e0181f	-7.0029445
62	0xc02d4830	-2.707531
63	0x410ed799	8.927636
64	0x4143fe38	12.249565
65	0xc152557e	-13.145872
66	0xbd1168de	-0.0355004
67	0xc0807887	-4.014713
68	0xc0a27fb5	-5.078089
69	0x40e15920	7.0421295
70	0x3f0d9529	0.55305725
71	0x40a6ccc4	5.212496
72	0x3f5b63f1	0.85699373
73	0xbe254832	-0.16140822
74	0xc0008c82	-2.008576
75	0xbf0d6a1e	-0.55240047
76	0xbd68832c	-0.05676572
77	0x4080cd91	4.0250936
78	0x3e55d36e	0.20881435
79	0x3fa99c3c	1.3250804
80	0x403d5ab1	2.9586604
81	0xc07d16cc	-3.9545164
82	0xc0721e9b	-3.783118
83	0x40662e9c	3.5965948
84	0x3fc35dd0	1.5263004
85	0x402f0db8	2.7352123
86	0x3fc7a4dd	1.5597187
87	0x40db5709	6.8543744
88	0x401f4e5f	2.4891584
89	0xc0a44528	-5.133442
90	0xbefb6b04	-0.49105084
91	0x3f6b23b6	0.91851366
92	0x3fcf3fa2	1.6191294
93	0x3e116a4e	0.14200708
94	0xc0cddc0c	-6.433111
95	0xbfec8ed9	-1.8481094
96	0x405f57c5	3.489732
97	0xc1090295	-8.56313
98	0x40119cc9	2.2751944
99	0xc04cdbd2	-3.2009168
100	0x40c3789b	6.1084723
101	0x40b44e63	5.6345687
102	0x3fb4e778	1.4133139
103	0xbfc8d1c6	-1.5689018
104	0x3f470aca	0.7775084
105	0x4059af73	3.4013336
106	0x4087ff36	4.2499037
107	0x3ff1cde0	1.8890953
108	0xc0bcf686	-5.905093
109	0xbebfc396	-0.37453908
110	0x3f47b564	0.78011155
111	0x4086330e	4.1937323
112	0x3f680804	0.9063723
113	0x3e8dd154	0.27698767
114	0xbf315320	-0.69267464
115	0xbe0b2a50	-0.1359036
116	0x3f76d322	0.96415913
117	0x3e4eab0f	0.20182441
118	0xc057516f	-3.3643453
119	0xc09e3bfa	-4.9448214
120	0x3f1da31d	0.61577016
121	0x4104c70c	8.298595
122	0x3ecad84a	0.3961814
123	0xbcca073d	-0.024661655
124	0x406c861b	3.6956851
125	0xc0939744	-4.612215
126	0xc0a67779	-5.202084
127	0x41102f38	9.011528

bn1.running_var f4 [128]
0	0x41d92523	27.143133
1	0x42143474	37.051224
2	0x41f1b333	30.2125
3	0x40946bba	4.63815
4	0x41fb2fce	31.398342
5	0x41cf8037	25.937605
6	0x41d70691	26.878206
7	0x417a1c95	15.631978
8	0x412391fc	10.223141
9	0x41d07024	26.054756
10	0x43130a99	147.0414
11	0x4260176a	56.022865
12	0x4169088c	14.564587
13	0x4334be4f	180.7434
14	0x412f5b3a	10.959772
15	0x41e02595	28.01835
16	0x41a758a0	20.918274
17	0x41ad6391	21.673616
18	0x420cb848	35.179962
19	0x437b517f	251.31834
20	0x419c4d4f	19.537748
21	0x418aa562	17.330753
22	0x40fb4dcd	7.853247
23	0x41d4526e	26.540249
24	0x420b61db	34.845562
25	0x424813f7	50.019497
26	0x41e05c71	28.045137
27	0x417e65d5	15.899861
28	0x4085f77c	4.1864605
29	0x41cef599	25.86992
30	0x428cda83	70.42678
31	0x42dc9539	110.29145
32	0x422484e4	41.129776
33	0x41a1b219	20.211962
34	0x421f9a34	39.90059
35	0x4223923d	40.89281
36	0x4184a2d3	16.579504
37	0x40a9e259	5.3088803
38	0x41c7bcdc	24.967216
39	0x419f2572	19.893284
40	0x421c2853	39.03938
41	0x4325db22	165.85599
42	0x428c37d6	70.109055
43	0x4216461a	37.56846
44	0x4228501a	42.078224
45	0x40a0a9d6	5.020732
46	0x405bab8c	3.4323454
47	0x4177c8d5	15.486531
48	0x41370982	11.439821
49	0x415bf46c	13.747173
50	0x4195a448	18.705215
51	0x41e0abf1	28.083956
52	0x41c6ec62	24.865421
53	0x415e53fb	13.895503
54	0x41e15ef5	28.171366
55	0x43418908	193.53528
56	0x4184d06a	16.601765
57	0x4225fcfb	41.49705
58	0x43a6f16f	333.8862
59	0x418fd885	17.980722
60	0x41ed0072	29.625217
61	0x41a35806	20.41798
62	0x41160b58	9.377769
63	0x41b1ecb5	22.24058
64	0x4234ebbc	45.23021
65	0x41b2eccd	22.365625
66	0x4235ee9c	45.483017
67	0x420f6eac	35.858078
68	0x40988681	4.766419
69	0x40d06508	6.512333
70	0x40135a50	2.3023872
71	0x413ec863	11.923923
72	0x4197bb92	18.966587
73	0x42459b87	49.401882
74	0x4259ee9a	54.48301
75	0x3fa01b20	1.2508278
76	0x414edaf6	12.928457
77	0x4141f66f	12.122664
78	0x4386119f	268.13766
79	0x41e475a1	28.557436
80	0x4008c50e	2.1370273
81	0x418bea7e	17.489498
82	0x4208de33	34.21699
83	0x418dff5f	17.749693
84	0x4278714b	62.110638
85	0x41b3eb4e	22.489895
86	0x41622869	14.134866
87	0x416fee3a	14.995661
88	0x42144956	37.071617
89	0x421b42c5	38.815205
90	0x41c8537c	25.040764
91	0x4120a0dc	10.039272
92	0x41b9c801	23.222658
93	0x439255b6	292.66962
94	0x418e1c91	17.763948
95	0x4207de92	33.967354
96	0x4156818c	13.406628
97	0x411be6ee	9.743879
98	0x41814164	16.156929
99	0x4217d593	37.95857
100	0x41b6260f	22.768583
101	0x41c9b416	25.212933
102	0x41ccd832	25.605564
103	0x4236c26c	45.689865
104	0x42a67167	83.22149
105	0x41751c2b	15.319377
106	0x41f87f22	31.062077
107	0x4165626f	14.336532
108	0x4202f931	32.74335
109	0x433fde59	191.86855
110	0x4245979e	49.398064
111	0x42379e34	45.904495
112	0x4180db08	16.106949
113	0x41b89026	23.070385
114	0x3f8c01f5	1.0938097
115	0x4158e761	13.556489
116	0x41ad7a9c	21.684868
117	0x43acd429	345.6575
118	0x420501b1	33.25165
119	0x41d9636d	27.173548
120	0x3f711067	0.94165653
121	0x4244dd0e	49.215874
122	0x40c83465	6.256396
123	0x433666ca	182.40152
124	0x426433e3	57.05067
125	0x42832dc2	65.58937
126	0x4203ea38	32.97873
127	0x420ac27e	34.689934

fc2.weight f4 [256, 130]
0	0xbd4c0216	-0.049806677
1	0xbdb1874e	-0.086683854
2	0xbea42739	-0.32061175
3	0x3c532c19	0.012888932
4	0x3d04d0c8	0.03242567
5	0xbd9cd427	-0.07657652
6	0xbd5d5878	-0.05403945
7	0xbd100a05	-0.035165805
8	0xbdac49a5	-0.08412484
9	0xbd66f288	-0.05638364
10	0x3c5a1817	0.0133114075
11	0x3c071fde	0.008247344
12	0x3c097429	0.008389511
13	0xbd9c0b33	-0.076193236
14	0xbc1c3fb2	-0.0095366705
15	0xbe7d6512	-0.24745587
16	0xbd80bfde	-0.06286596
17	0xbda7a098	-0.08184928
18	0xbe414ce9	-0.18876995
19	0xbd81404d	-0.063110925
20	0xbcd3c8cd	-0.025852585
21	0xbd4354f9	-0.047688458
22	0x3d8bed6b	0.06832393
23	0xbd0040cc	-0.031311795
24	0xbd22a120	-0.039704442
25	0xbbba664e	-0.005688465
26	0x3d0c2248	0.03421238
27	0xbd26d81f	-0.040733453
28	0xbd85cea8	-0.06533557
29	0xbe12c795	-0.14333947
30	0x3c6dd06b	0.014515023
31	0x3c1e067a	0.009645099
32	0x3d84b432	0.06479682
33	0xbe05c4ce	-0.13063356
34	0xbc6a01df	-0.014282673
35	0x3c053d29	0.0081322575
36	0x3d4a7c02	0.04943467
37	0xbcefe8c8	-0.029285803
38	0xbd04defa	-0.03243921
39	0xbc0336e5	-0.008008693
40	0xbd325a4a	-0.043543138
41	0x3cc9fdb8	0.024657115
42	0xbbd3de86	-0.006465736
43	0x3d8b1aac	0.06792197
44	0x3d8b5ae0	0.068044424
45	0x3b864bf4	0.00409841
46	0xbdac5bf7	-0.084159784
47	0xbd8eb5da	-0.06968279
48	0x3cf648ab	0.030063948
49	0x3bec8399	0.007217836
50	0xbce29be7	-0.02766223
51	0x3c5da1c5	0.013527338
52	0xbd8f5a21	-0.069996126
53	0x3b242737	0.0025047788
54	0x3d10f76f	0.03539222
55	0x3d348860	0.04407537
56	0xbaff3a63	-0.0019472357
57	0x3d304999	0.04303894
58	0xbbbbd1d3	-0.0057318
59	0x3d4b33ee	0.04961007
60	0xbd2b2f89	-0.04179338
61	0xbda69ac4	-0.08134988
62	0xbdb4263a	-0.08796354
63	0xbe67e8e1	-0.2264743
64	0xbd7a9a82	-0.061182506
65	0xbd54085e	-0.051765792
66	0x3d2d320a	0.04228405
67	0xbca1e99f	-0.01976472
68	0x3ccd3b04	0.025052555
69	0xbda3e566	-0.08002739
70	0x3d00c57d	0.03143834
71	0xbd05e442	-0.032688387
72	0xbd67bfc9	-0.056579385
73	0xbe0a4c17	-0.13505588
74	0xbead691b	-0.33869252
75	0xbca6123e	-0.02027237
76	0xbd627a1f	-0.055292245
77	0x3d60721d	0.054796327
78	0xbc62e23b	-0.013847883
79	0xbd006592	-0.031346865
80	0xbcde4f22	-0.027137343
81	0x3d67fa77	0.056635346
82	0xbcb411fa	-0.021981228
83	0xbd2da64d	-0.042394925
84	0x3cd48508	0.02594234
85	0xbc44ea05	-0.012018685
86	0xbdba0700	-0.090833664
87	0xbc40b328	-0.011761464
88	0xbe389790	-0.18026567
89	0xbe0e9414	-0.13923675
90	0x3d111fa4	0.035430565
91	0xbdc68856	-0.09693973
92	0x3d804878	0.06263822
93	0x3d22c064	0.03973426
94	0xbd1f19be	-0.03884291
95	0xbbc038f9	-0.0058661667
96	0xbd8e0560	-0.06934619
97	0xbd587d8e	-0.052854113
98	0x3ce818b2	0.028332088
99	0xbe1cab40	-0.15299702
100	0x3c835b8b	0.016034862
101	0xbc5eadb9	-0.013591223
102	0x3c5d90fa	0.013523335
103	0xbca9b90c	-0.02071812
104	0xbc9af5d0	-0.01891604
105	0x3cd43bbc	0.02590739
106	0xbdd66c87	-0.10469919
107	0xbdc5d40a	-0.09659584
108	0xbdec818b	-0.11548146
109	0xbcfab334	-0.030603029
110	0xbd94a4be	-0.072579846
111	0x3cf84159	0.030304598
112	0x3c85d538	0.016337022
113	0x3c45889c	0.012056496
114	0x3d7b4d83	0.061353218
115	0xbc4b2206	-0.012398249
116	0xbcccdf01	-0.02500868
117	0xbcbf213e	-0.02333128
118	0x3d00d1fb	0.031450253
119	0x3ccf9c27	0.025343014
120	0x3d5ea590	0.05435711
121	0xbd138a00	-0.03602028
122	0x3cf0ee7d	0.029410595
123	0x3c41e6e2	0.011834832
124	0x3d2f9016	0.04286202
125	0x3c83ff56	0.016112965
126	0xbdbb8f45	-0.09158186
127	0x3c0fad5e	0.008769361
128	0x3ae32ca4	0.001733203
129	0xbbcab193	-0.0061857193
130	0xbdaa3139	-0.0831017
131	0xbd71b08b	-0.059006255
132	0xbccd6bdf	-0.025075851
133	0xbd1ea54b	-0.038731854
134	0xbd1014f6	-0.03517624
135	0xbd851046	-0.064972445
136	0xbdcd60ec	-0.10028252
137	0xbcc80b96	-0.024419587
138	0xbe030a76	-0.1279696
139	0x3d38a671	0.045080606
140	0xbe1d7b87	-0.15379153
141	0x3d15d553	0.036580395
142	0xbc9ba1c6	-0.018998038
143	0xbe2b1a7d	-0.16709323
144	0xbcdc1f16	-0.026870292
145	0x3cfb3503	0.030664926
146	0x3ce2d607	0.027689947
147	0x3c847e05	0.016173372
148	0x3d0ad399	0.0338932
149	0xbdf418e8	-0.11918813
150	0xbd0bfd81	-0.034177307
151	0x3d9f8b49	0.077902384
152	0xbdba8c49	-0.091087885
153	0xbd31ade2	-0.04337872
154	0x3d2b7488	0.04185918
155	0xbdd1b01f	-0.102386706
156	0x3c90fe0a	0.01769926
157	0xbde4832b	-0.11157831
158	0x3d4d5ea4	0.050139084
159	0xbe06cfdb	-0.13165228
160	0xbc19163f	-0.009343683
161	0x3d87cba5	0.06630639
162	0x3cb8a8d2	0.022541437
163	0xbd05387f	-0.032524582
164	0xbc86b153	-0.016441977
165	0x3dcb4832	0.099258795
166	0x3dcd783c	0.100326985
167	0xbbcb5507	-0.0062052044
168	0x3dae226b	0.085026585
169	0x3bf82a81	0.0075734262
170	0x3d090fa6	0.03346219
171	0xbdd97ef1	-0.10619915
172	0xbd193259	-0.03740153
173	0x3d70c470	0.058781087
174	0xbd55bfc5	-0.05218484
175	0xbc004b02	-0.007830383
176	0xbd43b9ca	-0.047784604
177	0xbda2dce3	-0.07952287
178	0x3ccd0d5c	0.025030784
179	0x3cca4a4b	0.024693629
180	0xbc07111d	-0.008243826
181	0xbe0a4652	-0.13503388
182	0xbd8fc93c	-0.07020804
183	0xbc9f35ac	-0.019434772
184	0x3d087fb8	0.033324927
185	0xbe02fd2f	-0.12791894
186	0x3db09573	0.08622255
187	0xbe1d8151	-0.15381362
188	0xbe1fee46	-0.15618238
189	0x3d99fe4f	0.07519209
190	0xbc1badd0	-0.009501889
191	0xbe0033cf	-0.12519763
192	0xbd8768f4	-0.06611815
193	0xbdf7e4da	-0.12104197
194	0x3c9a0d8a	0.018805284
195	0xbce9af6f	-0.028526036
196	0xbd463eec	-0.04839985
197	0xbd808017	-0.06274431
198	0xbccd36a3	-0.025050467
199	0xbde50628	-0.11182815
200	0xbddfabe2	-0.10921456
201	0xbdeb2d3a	-0.11483236
202	0xbdfe97bb	-0.12431284
203	0xbd85eec9	-0.06539685
204	0x3dde7b43	0.10863354
205	0xbd265839	-0.04061148
206	0xbdd5a657	-0.104321174
207	0x3cc68adc	0.024236135
208	0xbe449d3c	-0.19200605
209	0xbe766d44	-0.24065119
210	0xbd83223d	-0.06403015
211	0x3c87eb18	0.016591594
212	0x3d0caf86	0.03434708
213	0x3e24867f	0.16066931
214	0xbdc74fe9	-0.097320385
215	0xbd01a7df	-0.031654235
216	0xbc2f670a	-0.010705719
217	0x3de42d5a	0.111414626
218	0xbdafa57e	-0.08576487
219	0xbe07b6ae	-0.1325328
220	0xbb902fc9	-0.0044002277
221	0x3dbf1198	0.093295276
222	0xbd5d7c46	-0.054073595
223	0xbbebd3af	-0.0071968655
224	0x3bbacd2b	0.0057007275
225	0xbe21e6ef	-0.1581075
226	0xbd9825f5	-0.07429115
227	0x3c0e3909	0.00868059
228	0xbdb22c43	-0.086998485
229	0x3d8f9ca7	0.07012301
230	0xbd031ee1	-0.03201187
231	0xbdc1ee2c	-0.09469256
232	0x3d895f38	0.06707615
233	0x3cc8d95d	0.02451771
234	0xbe235d0d	-0.15953465
235	0xbe0dec80	-0.13859749
236	0x3dce86e3	0.10084321
237	0xbcce602e	-0.025192346
238	0xbe739b3b	-0.23789684
239	0xbdafca68	-0.08583528
240	0x3dbce1f5	0.092227854
241	0x3cf4580f	0.029827146
242	0xbc1ef3bc	-0.0097016655
243	0x3d56c5f6	0.052434884
244	0xbd15cfc8	-0.03657511
245	0x3d048d33	0.03236122
246	0x3d783f78	0.060607404
247	0x3ce7856f	0.028261868
248	0x3d64b62c	0.055837795
249	0x3d9e4c92	0.077294484
250	0xbdc752ea	-0.097326115
251	0xbd143b14	-0.036189154
252	0xbd1a24f8	-0.037632912
253	0xbdf0749a	-0.1174099
254	0xbdefc1d1	-0.117068894
255	0x3cb9e820	0.022693694

fc2.bias f4 [256]
0	0xbd6fa773	-0.0585093
1	0x3d351d64	0.044217482
2	0xbd4988e0	-0.0492028
3	0x3d29ef17	0.04148778
4	0x3da6caae	0.08144127
5	0xbc8064f1	-0.015673133
6	0xbd1ebb4d	-0.038752843
7	0xbd4ab9cd	-0.0494936
8	0xbd082668	-0.033239752
9	0x3d18dd94	0.03732069
10	0x3d03efad	0.032210995
11	0xbd5cc861	-0.053902034
12	0xbcd78b4e	-0.026311543
13	0x3d5c4075	0.05377241
14	0xbd8d5a05	-0.069019355
15	0xbd8e6f58	-0.06954831
16	0xbda0ea1e	-0.07857154
17	0x3ca26cc8	0.019827262
18	0xbd93d05b	-0.07217475
19	0x3cecc4c3	0.028902417
20	0xbd929237	-0.071567945
21	0x3d83359b	0.06406709
22	0xbd3f36b6	-0.046683036
23	0xbd518616	-0.051153265
24	0x3d4fb625	0.050710816
25	0x3d44c740	0.048041582
26	0x3c575575	0.013142933
27	0xbc1f7cea	-0.009734372
28	0x3c340ced	0.01098941
29	0xbcc52de1	-0.024069728
30	0x3d862761	0.0655048
31	0x3d8ab8b5	0.06773511
32	0xbd8e9452	-0.069618836
33	0x3da83d23	0.08214786
34	0x3da763bc	0.0817332
35	0xbd21a37b	-0.039462548
36	0xbda7b1d3	-0.08188214
37	0xbbbd0bed	-0.005769244
38	0xbd180fe9	-0.037124548
39	0x3c1273f0	0.0089387745
40	0x3d949a2b	0.07255968
41	0xbd135fae	-0.03597992
42	0x3d075140	0.03303647
43	0x3d4622dd	0.048373092
44	0x3d1b6e7c	0.037947163
45	0xbd94c821	-0.07264734
46	0x3d0a34d8	0.033741802
47	0xbd705537	-0.058675017
48	0xbd8bec1a	-0.06832142
49	0xbda5685f	-0.08076548
50	0x3d1586cb	0.0365055
51	0xbb36f0c4	-0.0027914504
52	0x3d255ef0	0.040373743
53	0x3d8bbed6	0.068235084
54	0x3d5cbc2f	0.053890403
55	0xbd1d1091	-0.038345877
56	0x3d3babc0	0.04581809
57	0xbba34029	-0.0049820137
58	0xbc7944b5	-0.015214135
59	0xbd7aaad6	-0.061198078
60	0xbd97d8ba	-0.07414384
61	0xbd72062e	-0.059087925
62	0x3d7b8f68	0.06141606
63	0xbd76ec21	-0.060283784
64	0xbcb3cec0	-0.021949172
65	0xbcf2cf43	-0.029639846
66	0xbda34dc2	-0.079738155
67	0xbd371b59	-0.044703815
68	0x3d035dbf	0.032071825
69	0xbd53a0cc	-0.05166702
70	0x3d8a9b8e	0.06767951
71	0xbd909220	-0.07059121
72	0xbd298839	-0.041389678
73	0x3c407daf	0.011748715
74	0xbccdaffb	-0.025108328
75	0x3cb1e4d6	0.021715563
76	0x3c9e3e78	0.019316897
77	0x3d553fe1	0.052062873
78	0xbbcdaae1	-0.006276474
79	0x3cf90270	0.03039667
80	0xbcfe9111	-0.031075032
81	0x3c8df1d0	0.01732722
82	0x3d0aab80	0.03385496
83	0x3d4e3a93	0.05034883
84	0x3cf47d3b	0.02984487
85	0x3c54c7f4	0.012987126
86	0xbdad2a57	-0.08455341
87	0x3da38d4e	0.07985936
88	0x3da8ef0b	0.08248719
89	0x3d9becc5	0.076135196
90	0xbc4956c7	-0.012288756
91	0xbd956237	-0.072941236
92	0x3da1b1ac	0.07895216
93	0xbcbd97de	-0.023143705
94	0xbd75c6d9	-0.06000409
95	0x3b82ac1f	0.0039878036
96	0xbd55b028	-0.05216995
97	0xbc6b7d79	-0.014373177
98	0x3ab2f257	0.0013652545
99	0x3c607e28	0.013701953
100	0xbd383bff	-0.04497909
101	0xbd15896f	-0.03650802
102	0x3d07e023	0.033172738
103	0xbd08a801	-0.033363346
104	0xbd98ac1e	-0.07454704
105	0x3d05749c	0.03258191
106	0x3da01233	0.07815971
107	0xbd0a47aa	-0.03375975
108	0x3a718001	0.00092124945
109	0xbd8c47ac	-0.06849608
110	0x3c829097	0.015938086
111	0xbd2716bb	-0.04079316
112	0x3ceba03f	0.028762935
113	0x3d3d1326	0.04616084
114	0xbdae6a72	-0.085163966
115	0xbd45f328	-0.048327595
116	0x3d9bb34b	0.07602557
117	0xbbb4eb29	-0.0055211973
118	0xbd83bb25	-0.06432179
119	0xbd2b7e5a	-0.041868545
120	0xbd83fd6a	-0.06444819
121	0x3d2ebc31	0.042659942
122	0xbbf75778	-0.007548269
123	0x3da57f45	0.08080915
124	0x3da6e1a0	0.08148503
125	0xbcc34ab1	-0.023839327
126	0xbce3fce6	-0.027830552
127	0x3d7680eb	0.06018154
128	0x3d21f80d	0.0395432
129	0xbd93d6b5	-0.072186865
130	0xbd91473a	-0.070936635
131	0xbda0c1c8	-0.07849461
132	0xbd808bb7	-0.062766485
133	0xbc375c01	-0.011191369
134	0xba506fde	-0.000795124
135	0xbcddb72b	-0.02706488
136	0xbd80a219	-0.06280918
137	0xbc321715	-0.010869761
138	0x3d57a0b3	0.05264349
139	0xbdb08447	-0.0861898
140	0xbd93606d	-0.07196126
141	0x3d944255	0.07239214
142	0xbd11f29a	-0.035631754
143	0xbd91d659	-0.07120962
144	0xbd116b4f	-0.035502728
145	0x3d663cb7	0.056210246
146	0xbd11a324	-0.035555974
147	0x3d3ad3da	0.045612194
148	0x3c118357	0.0088814115
149	0x3d051358	0.03248915
150	0xbd4ddb6a	-0.050258078
151	0x3bc403a9	0.0059818816
152	0xbd99c261	-0.07507778
153	0x3d0da00d	0.034576464
154	0x3cff3ada	0.031155992
155	0xbc4d33ff	-0.012524604
156	0xbd0e9a05	-0.034814853
157	0xbd859c70	-0.06523979
158	0xbd48af47	-0.048995283
159	0x3cd57e87	0.02606131
160	0x3cffbd5d	0.031218225
161	0x3d4d9f32	0.05020065
162	0x3d32a87e	0.043617718
163	0xbd6a7a2c	-0.05724542
164	0xbbb79486	-0.005602422
165	0xbd734a73	-0.059397172
166	0xbd13c6af	-0.03607815
167	0x3d87cd15	0.06630913
168	0xbd83f588	-0.06443316
169	0xbc8741a7	-0.016510798
170	0x3d3accc5	0.04560544
171	0x3bb28080	0.0054474473
172	0x3da29621	0.07938791
173	0xbd339ab7	-0.04384872
174	0xbd827fee	-0.06372057
175	0xbd24cf44	-0.040236726
176	0x3c4e5b79	0.012595051
177	0x3c914db7	0.017737253
178	0xbd9b467d	-0.07581804
179	0xb9d9565c	-0.00041453808
180	0xbd597d67	-0.05309811
181	0x3d8c2ab5	0.06844083
182	0x3d8fc639	0.0702023
183	0x3d42571d	0.04744636
184	0x3d236461	0.03989065
185	0xbcb0d92e	-0.021587934
186	0xbd438bd4	-0.047740772
187	0xbc587494	-0.013211388
188	0x3cfbf2cf	0.030755429
189	0xbd21406a	-0.03936807
190	0x3ca4f30c	0.020135425
191	0x3d6d75fb	0.057973843
192	0xbda09172	-0.078402415
193	0xbd77678d	-0.060401488
194	0x3cd0de90	0.025496751
195	0x3d9dbbf4	0.07701865
196	0xbc146642	-0.009057583
197	0xbd4d2ec4	-0.050093427
198	0xbd04990f	-0.03237253
199	0xbc948708	-0.018130794
200	0x3a474b9f	0.0007602516
201	0xbc8715ec	-0.016489945
202	0xbd3db89a	-0.046318628
203	0xbcbb74e3	-0.022882884
204	0x3da98f9d	0.08279345
205	0xbd4ffff7	-0.050781216
206	0xbce4762a	-0.027888376
207	0x3d4340a7	0.04766908
208	0xbd91f63e	-0.07127045
209	0xbcb269ce	-0.021778967
210	0x3d5868ec	0.052834436
211	0xbcf7454b	-0.030184409
212	0xbd97d74e	-0.07414113
213	0x3cb9712a	0.022636969
214	0xbd591b62	-0.05300463
215	0xbd883382	-0.06650449
216	0x3d90af83	0.07064726
217	0xbce541f5	-0.027985552
218	0xbd62f3b1	-0.055408183
219	0xbb87e67f	-0.0041473503
220	0xbd8024d2	-0.06257023
221	0xbd24a954	-0.040200546
222	0xbd7387da	-0.05945573
223	0xbd6f6e7c	-0.058454975
224	0x3d8f444d	0.06995449
225	0x3d5e9b71	0.05434746
226	0xbd39800a	-0.045288123
227	0xbd96f5cc	-0.07371101
228	0x3cce8477	0.025209649
229	0x3ca85e2f	0.020552723
230	0xbcaa2230	-0.020768255
231	0xbd0de87e	-0.03464555
232	0x3d87c2d3	0.06628957
233	0x3d569e47	0.05239704
234	0x3ccf83ae	0.025331344
235	0xbcda4a73	-0.026646828
236	0x3d847049	0.06466729
237	0x3d9d8da4	0.076930314
238	0x3c911cd6	0.017713945
239	0x3d7afcb6	0.06127616
240	0xbd5b18ff	-0.053490635
241	0xbcd288a3	-0.02569992
242	0x3d80d67e	0.06290911
243	0xbd6a2380	-0.05716276
244	0x3db07524	0.08616093
245	0x3d1274be	0.035755865
246	0xbdad6b5d	-0.084677435
247	0x3c556c89	0.013026365
248	0x3d158ab5	0.036509234
249	0xbd49f1d6	-0.0493029
250	0xbd109d87	-0.03530648
251	0xbd1c5f98	-0.038177103
252	0xbcfaf633	-0.030634975
253	0xbd11bbc9	-0.035579477
254	0x3cb5d2bb	0.02219521
255	0xbcea864b	-0.028628489

bn2.weight f4 [256]
0	0x3e7455e1	0.23860885
1	0x3d704841	0.058662657
2	0x3e6475c3	0.22310548
3	0x3d992ff2	0.07479848
4	0x3e214375	0.15748389
5	0x3e3c1a4d	0.18369408
6	0x3e889f35	0.26683965
7	0x3ddf7b19	0.10912151
8	0x3e453ce8	0.19261515
9	0x3d0d3032	0.03446979
10	0x3dee28a7	0.116288476
11	0x3e8039ee	0.25044197
12	0x3d7456c2	0.05965305
13	0x3dd3f9d9	0.10350389
14	0x3e5ab9ef	0.2135999
15	0x3d91e094	0.07122913
16	0x3d9f869e	0.07789348
17	0x3ea65491	0.32486394
18	0x3d6635b9	0.056203578
19	0x3e1650d8	0.14679277
20	0x3ec57514	0.38565886
21	0x3ec6b13f	0.38807103
22	0x3cb5a4e4	0.022173353
23	0x3de1ba0e	0.11021815
24	0x3e973dc2	0.29539305
25	0x3deda888	0.116044104
26	0x3e7cc7cc	0.24685591
27	0x3e05243a	0.130021
28	0x3e674260	0.22583914
29	0x3ecbc422	0.39798075
30	0x3ec31e2d	0.3810896
31	0x3decab7f	0.11556148
32	0x3db041da	0.0860631
33	0x3eb04852	0.34430176
34	0x3e34e6f2	0.17666224
35	0x3de695d0	0.11259043
36	0x3d9bf9b9	0.0761599
37	0x3e7b016f	0.24512266
38	0x3d23dfaf	0.040008243
39	0x3efefa30	0.49800253
40	0x3e9fb745	0.3119451
41	0x3e152d7f	0.14568137
42	0x3cd94732	0.026523206
43	0x3e5acd2c	0.2136733
44	0x3e00631d	0.12537809
45	0x3e87e18d	0.2653927
46	0x3d3a607c	0.04550217
47	0x3e86852a	0.2627347
48	0x3e1cbf94	0.15307456
49	0x3e65cf80	0.22442436
50	0x3e2ec488	0.17067158
51	0x3e3a4677	0.18190943
52	0x3c893239	0.01674758
53	0x3df5086f	0.11964499
54	0x3e06135a	0.1309332
55	0x3e43394a	0.19064823
56	0x3efa9f0e	0.48949474
57	0x3d862704	0.065504104
58	0x3dc7e465	0.0976036
59	0x3d9d2363	0.07672765
60	0x3e3cb62c	0.18428868
61	0x3e014f5a	0.12627926
62	0x3ddb23df	0.10700201
63	0x3ed29f6a	0.41137248
64	0x3eb2eb53	0.34945163
65	0x3ec06068	0.37573552
66	0x3e2a64c2	0.16639999
67	0x3e2e6f78	0.1703471
68	0x3ebc0225	0.36720386
69	0x3e1b2e54	0.15154392
70	0x3ed2eb7f	0.41195294
71	0x3ea9b202	0.33143622
72	0x3dc45e83	0.09588339
73	0x3e9723f5	0.2951962
74	0x3db56bd3	0.088584565
75	0x3e70fc0c	0.23533648
76	0x3d15a71d	0.036536325
77	0x3ec979d9	0.39350775
78	0x3ecee189	0.40406445
79	0x3de4b6c5	0.11167673
80	0x3e9d2d1b	0.30698475
81	0x3e9c9f14	0.30590117
82	0x3e3151c5	0.17316349
83	0x3e28b72d	0.16476126
84	0x3e336620	0.17519426
85	0x3e638c70	0.22221541
86	0x3e980a17	0.29695198
87	0x3edc6afd	0.43050376
88	0x3de02edf	0.1094644
89	0x3d2c9341	0.04213262
90	0x3e21d72a	0.15804735
91	0x3e5c16ab	0.21493022
92	0x3e66477f	0.22488211
93	0x3e2c4808	0.16824353
94	0x3eba167a	0.36345273
95	0x3c437509	0.011929759
96	0x3eb34373	0.35012397
97	0x3e6094bc	0.21931738
98	0x3e965a5f	0.29365823
99	0x3d70a88f	0.0587545
100	0x3e9a61e9	0.30152825
101	0x3df5b140	0.119966984
102	0x3e0c7b56	0.13718924
103	0x3d3a3333	0.045458984
104	0x3d7d1231	0.061784927
105	0x3ef4f70b	0.4784473
106	0x3ef77636	0.48332375
107	0x3eccac2a	0.399751
108	0x3d16f9b1	0.036859218
109	0x3db716b8	0.0893988
110	0x3e6fb3ee	0.23408481
111	0x3e94c891	0.2905927
112	0x3e93b48e	0.2884869
113	0x3ddd68e5	0.10811023
114	0x3ea15225	0.31507984
115	0x3e2eaf70	0.17059112
116	0x3d4c6067	0.049896624
117	0x3dbe0793	0.092787884
118	0x3e85eae8	0.26155782
119	0x3e1207ec	0.14260834
120	0x3eefd7a5	0.4684421
121	0x3e9b893f	0.30378148
122	0x3db9cb34	0.09071961
123	0x3e5ceb81	0.21574213
124	0x3dae9f85	0.0852652
125	0x3e9b1c3d	0.30294982
126	0x3e81a5d9	0.25321844
127	0x3e93fc80	0.2890358
128	0x3eca923e	0.395647
129	0x3ef5570c	0.47917974
130	0x3ddcece7	0.10787373
131	0x3e64d20b	0.2234575
132	0x3e66a76a	0.22524801
133	0x3e3ed389	0.18635382
134	0x3e575970	0.21030211
135	0x3e5a0b89	0.21293463
136	0x3d1c1b13	0.038111757
137	0x3e80e2bf	0.25172994
138	0x3da29721	0.07938982
139	0x3e99eda3	0.30064115
140	0x3e751831	0.2393501
141	0x3f05cdbd	0.52267057
142	0x3da26fa4	0.0793145
143	0x3e9ceb6f	0.30648372
144	0x3e261e93	0.162226
145	0x3e5ef351	0.21772505
146	0x3dfa3726	0.1221755
147	0x3e1fa04b	0.1558849
148	0x3e9d528e	0.30727047
149	0x3e60f539	0.21968545
150	0x3e0c6103	0.13708882
151	0x3e4ea899	0.20181502
152	0x3e3a917b	0.18219559
153	0x3e668e20	0.22515154
154	0x3ecf0417	0.40432808
155	0x3dc476fc	0.09593007
156	0x3ee9c248	0.45656037
157	0x3e3128cc	0.17300719
158	0x3e9bdfa9	0.30444077
159	0x3e2488d9	0.16067828
160	0x3eb15153	0.34632358
161	0x3eb821b8	0.35963225
162	0x3ec7bc08	0.39010644
163	0x3dff1e9d	0.12457011
164	0x3e95ae71	0.2923465
165	0x3ebb83ce	0.36623996
166	0x3d6e57d7	0.05818924
167	0x3db92025	0.09039334
168	0x3e75de5f	0.24010609
169	0x3e3a0f0f	0.18169807
170	0x3e44ebe7	0.19230615
171	0x3eae7ce8	0.3407967
172	0x3e1d47e9	0.15359463
173	0x3ebdc7fb	0.37066635
174	0x3d42914d	0.04750185
175	0x3e812e59	0.25230673
176	0x3da5947e	0.08084963
177	0x3e8b39e1	0.27192596
178	0x3df5c100	0.119997025
179	0x3eaa30d1	0.3324037
180	0x3d6c7f9d	0.05773889
181	0x3ea3a6a4	0.31963074
182	0x3d3e81b0	0.0465104
183	0x3e309bf7	0.17246996
184	0x3e1ea9bf	0.1549444
185	0x3eb6787e	0.35638803
186	0x3ec89879	0.39178827
187	0x3e1159b1	0.14194371
188	0x3e0d7b55	0.13816579
189	0x3ed33f8c	0.4125942
190	0x3ed3cb66	0.41366118
191	0x3d993156	0.07480113
192	0x3dc237a6	0.0948327
193	0x3eb4f893	0.35345897
194	0x3ea7c4b6	0.32767266
195	0x3e5c0347	0.21485625
196	0x3e4ec89a	0.20193711
197	0x3e1ef7f7	0.15524279
198	0x3e6d8ac2	0.23197463
199	0x3e9fb9cc	0.3119644
200	0x3ef1f43b	0.47256646
201	0x3e8b4b17	0.27205727
202	0x3e3ab288	0.18232167
203	0x3ee7f7d3	0.45306262
204	0x3e2b29c4	0.16715151
205	0x3cbae640	0.02281487
206	0x3e764216	0.24048647
207	0x3e2fe2fb	0.1717643
208	0x3e955555	0.29166666
209	0x3ecb72af	0.39735934
210	0x3e3c7266	0.18403015
211	0x3e2712ca	0.16315761
212	0x3e832456	0.2561366
213	0x3d81de80	0.06341267
214	0x3e9db64f	0.30803153
215	0x3e9e9319	0.30971602
216	0x3de1ee27	0.11031752
217	0x3e58761e	0.21138808
218	0x3e6a9fc0	0.22912502
219	0x3e871e66	0.2639038
220	0xb9d55e42	-0.00040696753
221	0x3e39cac2	0.18143752
222	0x3ec44f52	0.38341767
223	0x3e34228c	0.17591304
224	0x3dff058c	0.1245223
225	0x3e173142	0.14764884
226	0x3de21946	0.11039977
227	0x3eb11fa0	0.3459444
228	0x3e2ff064	0.17181545
229	0x3e5ff10e	0.21869299
230	0x3e4d84fe	0.20070264
231	0x3df6d0f1	0.12051571
232	0x3ddc41fd	0.10754774
233	0x3e4a8848	0.1977855
234	0x3d0e7875	0.034782846
235	0x3ed4e413	0.41580257
236	0x3e3a14d2	0.18172005
237	0x3e19b426	0.15010127
238	0x3ea50364	0.3222915
239	0x3ddbbc4e	0.10729276
240	0x3e5c7083	0.21527295
241	0x3e4a53c0	0.1975851
242	0x3e33fc8c	0.17576808
243	0x3d9b01d2	0.075687066
244	0x3d573c59	0.052547786
245	0x3e450a1f	0.19242142
246	0x3e0e000e	0.13867208
247	0x3da9d7fc	0.08293149
248	0x3e5b42a4	0.2141214
249	0x3e927600	0.28605652
250	0x3ecd9154	0.4014994
251	0x3e4ca577	0.19984995
252	0x3e4fa71a	0.20278588
253	0x3d346342	0.044039972
254	0x3eab2cb1	0.33432534
255	0x3e62c984	0.22147185

bn2.bias f4 [256]
0	0xbee8282d	-0.45343152
1	0xbe216ee6	-0.1576496
2	0xbef5ef1d	-0.4803399
3	0xbe26969d	-0.16268392
4	0xbe454fd6	-0.19268736
5	0xbe4ecd73	-0.2019556
6	0xbe824e8c	-0.25450552
7	0xbe4ea290	-0.201792
8	0xbefc9b2c	-0.49337137
9	0xbe1d08ed	-0.15335436
10	0xbe627d16	-0.22118029
11	0xbeed99fc	-0.46406543
12	0xbe070334	-0.13184816
13	0xbe7e9ec8	-0.24865258
14	0xbef629b4	-0.48078692
15	0xbe5b4cad	-0.21415968
16	0xbe43bf99	-0.19116057
17	0xbeab5a8c	-0.3346752
18	0xbe0c3542	-0.13692191
19	0xbeaad97c	-0.33369052
20	0xbec776c9	-0.38957813
21	0xbef4917f	-0.47767255
22	0xbdd3da6e	-0.103443965
23	0xbe759fa2	-0.23986676
24	0xbecbc5a6	-0.3979923
25	0xbe0f3c1f	-0.13987778
26	0xbeae1771	-0.3400226
27	0xbe590732	-0.21194151
28	0xbebb73d1	-0.36611798
29	0xbeed55c0	-0.46354485
30	0xbf0d3e0f	-0.5517282
31	0xbe7e56ea	-0.24837843
32	0xbe08e9c4	-0.13370425
33	0xbf01ba3c	-0.50674796
34	0xbead1bf1	-0.3381038
35	0xbe1f3eec	-0.15551347
36	0xbe3fa385	-0.18714722
37	0xbe8d84b9	-0.27640322
38	0xbe10db25	-0.14146097
39	0xbe855d01	-0.2604752
40	0xbefa836e	-0.48928398
41	0xbd0f4cad	-0.034985233
42	0xbda7a413	-0.081855915
43	0xbf02b46b	-0.51056546
44	0xbe8d9a82	-0.27656943
45	0xbed85ada	-0.42256814
46	0xbe17e3c9	-0.14832987
47	0xbeff214a	-0.49830085
48	0xbe2db2b3	-0.169627
49	0xbea74d8c	-0.3267635
50	0xbebd59a1	-0.36982444
51	0xbed866b0	-0.42265844
52	0xbd1c87f6	-0.0382156
53	0xbdfe5b84	-0.12419799
54	0xbe84e017	-0.25952217
55	0xbe2dc114	-0.16968185
56	0xbe44b06f	-0.19207929
57	0xbe1131d4	-0.14179164
58	0xbe8b4e5a	-0.27208215
59	0xbe1e7529	-0.1547438
60	0xbe9739a5	-0.29536167
61	0xbe059a24	-0.13047081
62	0xbe426aee	-0.18986103
63	0xbee577b1	-0.4481788
64	0xbf1be467	-0.6089539
65	0xbf0dd872	-0.55408394
66	0xbe4718b3	-0.19443016
67	0xbe66baa8	-0.22532141
68	0xbe9919c9	-0.29902485
69	0xbedf126d	-0.43568745
70	0xbeb21c63	-0.34787282
71	0xbedab1bc	-0.42713726
72	0xbe60fb45	-0.21970852
73	0xbf2110f6	-0.62916505
74	0xbe0fde79	-0.1404971
75	0xbeb1e731	-0.34746698
76	0xbdbd8cd2	-0.09255375
77	0xbf1c856d	-0.6114109
78	0xbf098e86	-0.537331
79	0xbe8da50b	-0.2766498
80	0xbeec320a	-0.46131927
81	0xbf1db716	-0.6160749
82	0xbe5da37a	-0.21644393
83	0xbef74c6f	-0.48300502
84	0xbeec7795	-0.46184984
85	0xbec6e84e	-0.3884911
86	0xbf0bb62a	-0.54574835
87	0xbf0d2432	-0.55133355
88	0xbe0d7563	-0.1381431
89	0xbddc1e41	-0.10747958
90	0xbe610836	-0.21975788
91	0xbec7ebe0	-0.39047146
92	0xbed25d4f	-0.41086814
93	0xbe5bcc41	-0.21464635
94	0xbec856be	-0.3912868
95	0xbdb16020	-0.086609125
96	0xbf138960	-0.5763149
97	0xbe0b534b	-0.13605992
98	0xbf0182d7	-0.5059027
99	0xbe68b5ed	-0.22725649
100	0xbeef7ee8	-0.4677651
101	0xbe538872	-0.20657519
102	0xbe33eeae	-0.17571518
103	0xbe1bd08c	-0.15216273
104	0xbe46f8c0	-0.19430828
105	0xbedab83e	-0.4271869
106	0xbecff123	-0.4061366
107	0xbf1f40a1	-0.6220799
108	0xbde37afe	-0.11107443
109	0xbe3c492b	-0.18387286
110	0xbe279d52	-0.16368607
111	0xbeee1530	-0.4650054
112	0xbe85f423	-0.26162824
113	0xbe7ecc0a	-0.24882522
114	0xbf0f6e24	-0.56027436
115	0xbebaa09a	-0.36450654
116	0xbdf5921c	-0.11990759
117	0xbe299684	-0.16561323
118	0xbeba861c	-0.36430442
119	0xbe4ebbc9	-0.20188822
120	0xbe879556	-0.26481122
121	0xbf0d92d8	-0.5530219
122	0xbe685a35	-0.22690661
123	0xbe99a807	-0.30011007
124	0xbe74bff2	-0.23901346
125	0xbec122a3	-0.37721738
126	0xbedda1ee	-0.43287605
127	0xbef0ba8f	-0.47017333
128	0xbf0e9a06	-0.5570377
129	0xbe81e596	-0.25370473
130	0xbe57f687	-0.21090136
131	0xbe7218c1	-0.23642255
132	0xbea2b295	-0.31776872
133	0xbef12206	-0.4709627
134	0xbe5ef6fc	-0.21773905
135	0xbe87117f	-0.26380536
136	0xbdb88c83	-0.090111755
137	0xbf060f08	-0.52366686
138	0xbe47f325	-0.19526346
139	0xbeed21bc	-0.463148
140	0xbeae880f	-0.3408818
141	0xbe1b7b22	-0.1518369
142	0xbe2eb2e3	-0.17060427
143	0xbeead8bd	-0.45868483
144	0xbed5f062	-0.4178496
145	0xbef42f43	-0.47692308
146	0xbeaf15d5	-0.34196344
147	0xbe892398	-0.26784968
148	0xbef6b9a0	-0.48188496
149	0xbecf0c5b	-0.40439114
150	0xbe63dd8a	-0.22252479
151	0xbe9ff962	-0.3124495
152	0xbeaa40b4	-0.3325249
153	0xbedbf72e	-0.4296202
154	0xbf0a3129	-0.5398126
155	0x3d090e59	0.03346095
156	0xbee35068	-0.44397283
157	0xbe87cab1	-0.2652183
158	0xbeab680a	-0.33477813
159	0xbdf9b48c	-0.1219264
160	0xbec01f72	-0.3752399
161	0xbf09c167	-0.53810734
162	0xbee383c1	-0.44436458
163	0xbe5efc03	-0.21775822
164	0xbee2c716	-0.44292516
165	0xbf18eaf6	-0.5973352
166	0xbe1c4154	-0.15259296
167	0xbe9b8467	-0.30374452
168	0xbf26ecab	-0.65204877
169	0xbe9ff505	-0.31241623
170	0xbebb04fb	-0.36527237
171	0xbf12ed32	-0.5739318
172	0xbde2fc33	-0.110832594
173	0xbef1faca	-0.4726165
174	0xbe445023	-0.19171195
175	0xbea36fdb	-0.31921276
176	0xbe292ecc	-0.16521758
177	0xbeef809f	-0.46777818
178	0xbde7d606	-0.113201186
179	0xbeec2e6d	-0.4612917
180	0xbe401966	-0.18759689
181	0xbf13100c	-0.5744636
182	0xbe1d3d9c	-0.15355533
183	0xbe98ead3	-0.29866657
184	0xbec0d020	-0.37658787
185	0xbec1a9f6	-0.37824982
186	0xbf16b01a	-0.5886246
187	0xbe7fb4df	-0.2497134
188	0xbea880ae	-0.32910675
189	0xbf006155	-0.50148517
190	0xbf2163b5	-0.63042766
191	0xbe57c52d	-0.2107131
192	0xbd91a337	-0.07111209
193	0xbf0efe0d	-0.558564
194	0xbf0cc0e5	-0.54981834
195	0xbe8d9109	-0.27649716
196	0xbecc8ed1	-0.3995271
197	0xbdde24b0	-0.10846841
198	0xbecfef88	-0.40612435
199	0xbf0efc65	-0.55853873
200	0xbeedbe1f	-0.46434113
201	0xbe829b53	-0.25509128
202	0xbe50f985	-0.20407684
203	0xbf0fd7fc	-0.5618894
204	0xbeb1f57b	-0.347576
205	0xbd896763	-0.067091726
206	0xbef9b8af	-0.48773715
207	0xbe58b5c0	-0.21163082
208	0xbed84f58	-0.42248034
209	0xbf1d17e7	-0.613646
210	0xbec239e8	-0.37934804
211	0xbed35e79	-0.41283014
212	0xbed51abd	-0.41621962
213	0xbe436703	-0.19082265
214	0xbe7f8c8e	-0.24955961
215	0xbf07f220	-0.5310383
216	0xbe78d789	-0.2430097
217	0xbec72a19	-0.38899305
218	0xbf0574df	-0.52131456
219	0xbe139a63	-0.14414363
220	0xbbba7645	-0.0056903684
221	0xbe9046fa	-0.2817915
222	0xbec9941a	-0.39370805
223	0xbe712b13	-0.23551588
224	0xbebe7eee	-0.37206215
225	0xbcd5e53e	-0.026110288
226	0xbdec5b08	-0.115408
227	0xbf0a549b	-0.5403535
228	0xbe891d6e	-0.26780266
229	0xbea3521c	-0.31898582
230	0xbec07743	-0.3759099
231	0xbea0ab05	-0.31380478
232	0xbe8a6096	-0.27026814
233	0xbefd1e65	-0.49437252
234	0xbdb4a48c	-0.08820447
235	0xbeb82dc8	-0.35972428
236	0xbe852397	-0.26003715
237	0xbe17a903	-0.14810567
238	0xbf01849c	-0.5059297
239	0xbe7e079d	-0.24807592
240	0xbeaa62c4	-0.33278477
241	0xbeb9a79d	-0.3626069
242	0xbe52c7d0	-0.20584035
243	0xbe2c37f0	-0.16818213
244	0xbe0a4b96	-0.13505396
245	0xbecd03d0	-0.4004197
246	0xbe60ee6d	-0.21965952
247	0xbe036830	-0.12832713
248	0xbe8b7293	-0.2723585
249	0xbf331c4a	-0.6996504
250	0xbf0aa8f1	-0.54164034
251	0xbe87d13b	-0.26526818
252	0xbeb258b2	-0.34833294
253	0xbdf646d7	-0.120252304
254	0xbefac873	-0.48981056
255	0xbe90051a	-0.28128892
